{"format": "graph-model", "generatedBy": "2.1.0", "convertedBy": "TensorFlow.js Converter v1.6.0", "userDefinedMetadata": {"signature": {"outputs": {"conv2d_139/Tanh:0": {"name": "conv2d_139/Tanh:0"}}}}, "modelTopology": {"node": [{"name": "batch_normalization_115/batchnorm/mul", "op": "Const", "attr": {"value": {"tensor": {"dtype": "DT_FLOAT", "tensorShape": {"dim": [{"size": "32"}]}}}, "dtype": {"type": "DT_FLOAT"}}}, {"name": "batch_normalization_115/batchnorm/sub", "op": "Const", "attr": {"value": {"tensor": {"dtype": "DT_FLOAT", "tensorShape": {"dim": [{"size": "32"}]}}}, "dtype": {"type": "DT_FLOAT"}}}, {"name": "conv2d_129/convolution/merged_input", "op": "Const", "attr": {"value": {"tensor": {"dtype": "DT_FLOAT", "tensorShape": {"dim": [{"size": "1"}, {"size": "1"}, {"size": "32"}, {"size": "4"}]}}}, "dtype": {"type": "DT_FLOAT"}}}, {"name": "batch_normalization_116/batchnorm/sub", "op": "Const", "attr": {"value": {"tensor": {"dtype": "DT_FLOAT", "tensorShape": {"dim": [{"size": "4"}]}}}, "dtype": {"type": "DT_FLOAT"}}}, {"name": "conv2d_130/convolution/merged_input", "op": "Const", "attr": {"value": {"tensor": {"dtype": "DT_FLOAT", "tensorShape": {"dim": [{"size": "3"}, {"size": "3"}, {"size": "4"}, {"size": "4"}]}}}, "dtype": {"type": "DT_FLOAT"}}}, {"name": "batch_normalization_117/batchnorm/sub", "op": "Const", "attr": {"value": {"tensor": {"dtype": "DT_FLOAT", "tensorShape": {"dim": [{"size": "4"}]}}}, "dtype": {"type": "DT_FLOAT"}}}, {"name": "conv2d_131/kernel", "op": "Const", "attr": {"value": {"tensor": {"dtype": "DT_FLOAT", "tensorShape": {"dim": [{"size": "1"}, {"size": "1"}, {"size": "4"}, {"size": "16"}]}}}, "dtype": {"type": "DT_FLOAT"}}}, {"name": "dense_23/kernel", "op": "Const", "attr": {"dtype": {"type": "DT_FLOAT"}, "value": {"tensor": {"dtype": "DT_FLOAT", "tensorShape": {"dim": [{"size": "128"}, {"size": "32"}]}}}}}, {"name": "dense_23/bias", "op": "Const", "attr": {"value": {"tensor": {"dtype": "DT_FLOAT", "tensorShape": {"dim": [{"size": "32"}]}}}, "dtype": {"type": "DT_FLOAT"}}}, {"name": "conv2d_120/kernel", "op": "Const", "attr": {"dtype": {"type": "DT_FLOAT"}, "value": {"tensor": {"dtype": "DT_FLOAT", "tensorShape": {"dim": [{"size": "1"}, {"size": "1"}, {"size": "32"}, {"size": "1"}]}}}}}, {"name": "batch_normalization_107/batchnorm/mul", "op": "Const", "attr": {"value": {"tensor": {"dtype": "DT_FLOAT", "tensorShape": {"dim": [{"size": "8"}]}}}, "dtype": {"type": "DT_FLOAT"}}}, {"name": "batch_normalization_105/batchnorm/mul", "op": "Const", "attr": {"dtype": {"type": "DT_FLOAT"}, "value": {"tensor": {"dtype": "DT_FLOAT", "tensorShape": {"dim": [{"size": "64"}]}}}}}, {"name": "batch_normalization_105/batchnorm/sub", "op": "Const", "attr": {"dtype": {"type": "DT_FLOAT"}, "value": {"tensor": {"dtype": "DT_FLOAT", "tensorShape": {"dim": [{"size": "64"}]}}}}}, {"name": "conv2d_118/convolution/merged_input", "op": "Const", "attr": {"value": {"tensor": {"dtype": "DT_FLOAT", "tensorShape": {"dim": [{"size": "1"}, {"size": "1"}, {"size": "64"}, {"size": "8"}]}}}, "dtype": {"type": "DT_FLOAT"}}}, {"name": "batch_normalization_106/batchnorm/sub", "op": "Const", "attr": {"value": {"tensor": {"dtype": "DT_FLOAT", "tensorShape": {"dim": [{"size": "8"}]}}}, "dtype": {"type": "DT_FLOAT"}}}, {"name": "sub_pixel_conv2d_9/kernel", "op": "Const", "attr": {"dtype": {"type": "DT_FLOAT"}, "value": {"tensor": {"dtype": "DT_FLOAT", "tensorShape": {"dim": [{"size": "3"}, {"size": "3"}, {"size": "8"}, {"size": "32"}]}}}}}, {"name": "batch_normalization_107/batchnorm/sub", "op": "Const", "attr": {"value": {"tensor": {"dtype": "DT_FLOAT", "tensorShape": {"dim": [{"size": "8"}]}}}, "dtype": {"type": "DT_FLOAT"}}}, {"name": "conv2d_119/kernel", "op": "Const", "attr": {"value": {"tensor": {"dtype": "DT_FLOAT", "tensorShape": {"dim": [{"size": "1"}, {"size": "1"}, {"size": "8"}, {"size": "32"}]}}}, "dtype": {"type": "DT_FLOAT"}}}, {"name": "self_attention_5/kernel_g", "op": "Const", "attr": {"value": {"tensor": {"dtype": "DT_FLOAT", "tensorShape": {"dim": [{"size": "1"}, {"size": "1"}, {"size": "64"}, {"size": "8"}]}}}, "dtype": {"type": "DT_FLOAT"}}}, {"name": "self_attention_5/bias_g", "op": "Const", "attr": {"dtype": {"type": "DT_FLOAT"}, "value": {"tensor": {"dtype": "DT_FLOAT", "tensorShape": {"dim": [{"size": "8"}]}}}}}, {"name": "self_attention_5/kernel_f", "op": "Const", "attr": {"value": {"tensor": {"dtype": "DT_FLOAT", "tensorShape": {"dim": [{"size": "1"}, {"size": "1"}, {"size": "64"}, {"size": "8"}]}}}, "dtype": {"type": "DT_FLOAT"}}}, {"name": "self_attention_5/bias_f", "op": "Const", "attr": {"value": {"tensor": {"dtype": "DT_FLOAT", "tensorShape": {"dim": [{"size": "8"}]}}}, "dtype": {"type": "DT_FLOAT"}}}, {"name": "self_attention_5/kernel_h", "op": "Const", "attr": {"value": {"tensor": {"dtype": "DT_FLOAT", "tensorShape": {"dim": [{"size": "1"}, {"size": "1"}, {"size": "64"}, {"size": "64"}]}}}, "dtype": {"type": "DT_FLOAT"}}}, {"name": "self_attention_5/bias_h", "op": "Const", "attr": {"value": {"tensor": {"dtype": "DT_FLOAT", "tensorShape": {"dim": [{"size": "64"}]}}}, "dtype": {"type": "DT_FLOAT"}}}, {"name": "dense_19/kernel", "op": "Const", "attr": {"value": {"tensor": {"dtype": "DT_FLOAT", "tensorShape": {"dim": [{"size": "128"}, {"size": "64"}]}}}, "dtype": {"type": "DT_FLOAT"}}}, {"name": "dense_19/bias", "op": "Const", "attr": {"value": {"tensor": {"dtype": "DT_FLOAT", "tensorShape": {"dim": [{"size": "64"}]}}}, "dtype": {"type": "DT_FLOAT"}}}, {"name": "conv2d_109/kernel", "op": "Const", "attr": {"value": {"tensor": {"dtype": "DT_FLOAT", "tensorShape": {"dim": [{"size": "1"}, {"size": "1"}, {"size": "64"}, {"size": "1"}]}}}, "dtype": {"type": "DT_FLOAT"}}}, {"name": "batch_normalization_97/batchnorm/mul", "op": "Const", "attr": {"dtype": {"type": "DT_FLOAT"}, "value": {"tensor": {"dtype": "DT_FLOAT", "tensorShape": {"dim": [{"size": "16"}]}}}}}, {"name": "batch_normalization_95/batchnorm/mul", "op": "Const", "attr": {"value": {"tensor": {"dtype": "DT_FLOAT", "tensorShape": {"dim": [{"size": "128"}]}}}, "dtype": {"type": "DT_FLOAT"}}}, {"name": "batch_normalization_95/batchnorm/sub", "op": "Const", "attr": {"value": {"tensor": {"dtype": "DT_FLOAT", "tensorShape": {"dim": [{"size": "128"}]}}}, "dtype": {"type": "DT_FLOAT"}}}, {"name": "conv2d_107/convolution/merged_input", "op": "Const", "attr": {"value": {"tensor": {"dtype": "DT_FLOAT", "tensorShape": {"dim": [{"size": "1"}, {"size": "1"}, {"size": "128"}, {"size": "16"}]}}}, "dtype": {"type": "DT_FLOAT"}}}, {"name": "batch_normalization_96/batchnorm/sub", "op": "Const", "attr": {"value": {"tensor": {"dtype": "DT_FLOAT", "tensorShape": {"dim": [{"size": "16"}]}}}, "dtype": {"type": "DT_FLOAT"}}}, {"name": "sub_pixel_conv2d_7/kernel", "op": "Const", "attr": {"dtype": {"type": "DT_FLOAT"}, "value": {"tensor": {"dtype": "DT_FLOAT", "tensorShape": {"dim": [{"size": "3"}, {"size": "3"}, {"size": "16"}, {"size": "64"}]}}}}}, {"name": "batch_normalization_97/batchnorm/sub", "op": "Const", "attr": {"value": {"tensor": {"dtype": "DT_FLOAT", "tensorShape": {"dim": [{"size": "16"}]}}}, "dtype": {"type": "DT_FLOAT"}}}, {"name": "conv2d_108/kernel", "op": "Const", "attr": {"value": {"tensor": {"dtype": "DT_FLOAT", "tensorShape": {"dim": [{"size": "1"}, {"size": "1"}, {"size": "16"}, {"size": "64"}]}}}, "dtype": {"type": "DT_FLOAT"}}}, {"name": "self_attention_4/kernel_g", "op": "Const", "attr": {"value": {"tensor": {"dtype": "DT_FLOAT", "tensorShape": {"dim": [{"size": "1"}, {"size": "1"}, {"size": "128"}, {"size": "16"}]}}}, "dtype": {"type": "DT_FLOAT"}}}, {"name": "self_attention_4/bias_g", "op": "Const", "attr": {"value": {"tensor": {"dtype": "DT_FLOAT", "tensorShape": {"dim": [{"size": "16"}]}}}, "dtype": {"type": "DT_FLOAT"}}}, {"name": "self_attention_4/kernel_f", "op": "Const", "attr": {"dtype": {"type": "DT_FLOAT"}, "value": {"tensor": {"dtype": "DT_FLOAT", "tensorShape": {"dim": [{"size": "1"}, {"size": "1"}, {"size": "128"}, {"size": "16"}]}}}}}, {"name": "self_attention_4/bias_f", "op": "Const", "attr": {"value": {"tensor": {"dtype": "DT_FLOAT", "tensorShape": {"dim": [{"size": "16"}]}}}, "dtype": {"type": "DT_FLOAT"}}}, {"name": "self_attention_4/kernel_h", "op": "Const", "attr": {"value": {"tensor": {"dtype": "DT_FLOAT", "tensorShape": {"dim": [{"size": "1"}, {"size": "1"}, {"size": "128"}, {"size": "128"}]}}}, "dtype": {"type": "DT_FLOAT"}}}, {"name": "self_attention_4/bias_h", "op": "Const", "attr": {"value": {"tensor": {"dtype": "DT_FLOAT", "tensorShape": {"dim": [{"size": "128"}]}}}, "dtype": {"type": "DT_FLOAT"}}}, {"name": "dense_15/kernel", "op": "Const", "attr": {"value": {"tensor": {"dtype": "DT_FLOAT", "tensorShape": {"dim": [{"size": "128"}, {"size": "128"}]}}}, "dtype": {"type": "DT_FLOAT"}}}, {"name": "dense_15/bias", "op": "Const", "attr": {"value": {"tensor": {"dtype": "DT_FLOAT", "tensorShape": {"dim": [{"size": "128"}]}}}, "dtype": {"type": "DT_FLOAT"}}}, {"name": "conv2d_97/kernel", "op": "Const", "attr": {"value": {"tensor": {"dtype": "DT_FLOAT", "tensorShape": {"dim": [{"size": "1"}, {"size": "1"}, {"size": "128"}, {"size": "1"}]}}}, "dtype": {"type": "DT_FLOAT"}}}, {"name": "batch_normalization_87/batchnorm/mul", "op": "Const", "attr": {"dtype": {"type": "DT_FLOAT"}, "value": {"tensor": {"dtype": "DT_FLOAT", "tensorShape": {"dim": [{"size": "32"}]}}}}}, {"name": "batch_normalization_85/batchnorm/mul", "op": "Const", "attr": {"value": {"tensor": {"dtype": "DT_FLOAT", "tensorShape": {"dim": [{"size": "256"}]}}}, "dtype": {"type": "DT_FLOAT"}}}, {"name": "batch_normalization_85/batchnorm/sub", "op": "Const", "attr": {"value": {"tensor": {"dtype": "DT_FLOAT", "tensorShape": {"dim": [{"size": "256"}]}}}, "dtype": {"type": "DT_FLOAT"}}}, {"name": "conv2d_95/convolution/merged_input", "op": "Const", "attr": {"value": {"tensor": {"dtype": "DT_FLOAT", "tensorShape": {"dim": [{"size": "1"}, {"size": "1"}, {"size": "256"}, {"size": "32"}]}}}, "dtype": {"type": "DT_FLOAT"}}}, {"name": "batch_normalization_86/batchnorm/sub", "op": "Const", "attr": {"value": {"tensor": {"dtype": "DT_FLOAT", "tensorShape": {"dim": [{"size": "32"}]}}}, "dtype": {"type": "DT_FLOAT"}}}, {"name": "sub_pixel_conv2d_5/kernel", "op": "Const", "attr": {"value": {"tensor": {"dtype": "DT_FLOAT", "tensorShape": {"dim": [{"size": "3"}, {"size": "3"}, {"size": "32"}, {"size": "128"}]}}}, "dtype": {"type": "DT_FLOAT"}}}, {"name": "batch_normalization_87/batchnorm/sub", "op": "Const", "attr": {"value": {"tensor": {"dtype": "DT_FLOAT", "tensorShape": {"dim": [{"size": "32"}]}}}, "dtype": {"type": "DT_FLOAT"}}}, {"name": "conv2d_96/kernel", "op": "Const", "attr": {"value": {"tensor": {"dtype": "DT_FLOAT", "tensorShape": {"dim": [{"size": "1"}, {"size": "1"}, {"size": "32"}, {"size": "128"}]}}}, "dtype": {"type": "DT_FLOAT"}}}, {"name": "self_attention_3/kernel_g", "op": "Const", "attr": {"value": {"tensor": {"dtype": "DT_FLOAT", "tensorShape": {"dim": [{"size": "1"}, {"size": "1"}, {"size": "256"}, {"size": "32"}]}}}, "dtype": {"type": "DT_FLOAT"}}}, {"name": "self_attention_3/bias_g", "op": "Const", "attr": {"value": {"tensor": {"dtype": "DT_FLOAT", "tensorShape": {"dim": [{"size": "32"}]}}}, "dtype": {"type": "DT_FLOAT"}}}, {"name": "self_attention_3/kernel_f", "op": "Const", "attr": {"value": {"tensor": {"dtype": "DT_FLOAT", "tensorShape": {"dim": [{"size": "1"}, {"size": "1"}, {"size": "256"}, {"size": "32"}]}}}, "dtype": {"type": "DT_FLOAT"}}}, {"name": "self_attention_3/bias_f", "op": "Const", "attr": {"value": {"tensor": {"dtype": "DT_FLOAT", "tensorShape": {"dim": [{"size": "32"}]}}}, "dtype": {"type": "DT_FLOAT"}}}, {"name": "self_attention_3/kernel_h", "op": "Const", "attr": {"value": {"tensor": {"dtype": "DT_FLOAT", "tensorShape": {"dim": [{"size": "1"}, {"size": "1"}, {"size": "256"}, {"size": "256"}]}}}, "dtype": {"type": "DT_FLOAT"}}}, {"name": "self_attention_3/bias_h", "op": "Const", "attr": {"value": {"tensor": {"dtype": "DT_FLOAT", "tensorShape": {"dim": [{"size": "256"}]}}}, "dtype": {"type": "DT_FLOAT"}}}, {"name": "dense_11/kernel", "op": "Const", "attr": {"dtype": {"type": "DT_FLOAT"}, "value": {"tensor": {"dtype": "DT_FLOAT", "tensorShape": {"dim": [{"size": "128"}, {"size": "256"}]}}}}}, {"name": "dense_11/bias", "op": "Const", "attr": {"value": {"tensor": {"dtype": "DT_FLOAT", "tensorShape": {"dim": [{"size": "256"}]}}}, "dtype": {"type": "DT_FLOAT"}}}, {"name": "conv2d_86/kernel", "op": "Const", "attr": {"value": {"tensor": {"dtype": "DT_FLOAT", "tensorShape": {"dim": [{"size": "1"}, {"size": "1"}, {"size": "256"}, {"size": "1"}]}}}, "dtype": {"type": "DT_FLOAT"}}}, {"name": "batch_normalization_77/batchnorm/mul", "op": "Const", "attr": {"value": {"tensor": {"dtype": "DT_FLOAT", "tensorShape": {"dim": [{"size": "64"}]}}}, "dtype": {"type": "DT_FLOAT"}}}, {"name": "batch_normalization_75/batchnorm/mul", "op": "Const", "attr": {"value": {"tensor": {"dtype": "DT_FLOAT", "tensorShape": {"dim": [{"size": "256"}]}}}, "dtype": {"type": "DT_FLOAT"}}}, {"name": "batch_normalization_75/batchnorm/sub", "op": "Const", "attr": {"value": {"tensor": {"dtype": "DT_FLOAT", "tensorShape": {"dim": [{"size": "256"}]}}}, "dtype": {"type": "DT_FLOAT"}}}, {"name": "conv2d_84/convolution/merged_input", "op": "Const", "attr": {"value": {"tensor": {"dtype": "DT_FLOAT", "tensorShape": {"dim": [{"size": "1"}, {"size": "1"}, {"size": "256"}, {"size": "64"}]}}}, "dtype": {"type": "DT_FLOAT"}}}, {"name": "batch_normalization_76/batchnorm/sub", "op": "Const", "attr": {"value": {"tensor": {"dtype": "DT_FLOAT", "tensorShape": {"dim": [{"size": "64"}]}}}, "dtype": {"type": "DT_FLOAT"}}}, {"name": "sub_pixel_conv2d_3/kernel", "op": "Const", "attr": {"dtype": {"type": "DT_FLOAT"}, "value": {"tensor": {"dtype": "DT_FLOAT", "tensorShape": {"dim": [{"size": "3"}, {"size": "3"}, {"size": "64"}, {"size": "256"}]}}}}}, {"name": "batch_normalization_77/batchnorm/sub", "op": "Const", "attr": {"value": {"tensor": {"dtype": "DT_FLOAT", "tensorShape": {"dim": [{"size": "64"}]}}}, "dtype": {"type": "DT_FLOAT"}}}, {"name": "conv2d_85/kernel", "op": "Const", "attr": {"value": {"tensor": {"dtype": "DT_FLOAT", "tensorShape": {"dim": [{"size": "1"}, {"size": "1"}, {"size": "64"}, {"size": "256"}]}}}, "dtype": {"type": "DT_FLOAT"}}}, {"name": "self_attention_2/kernel_g", "op": "Const", "attr": {"value": {"tensor": {"dtype": "DT_FLOAT", "tensorShape": {"dim": [{"size": "1"}, {"size": "1"}, {"size": "256"}, {"size": "32"}]}}}, "dtype": {"type": "DT_FLOAT"}}}, {"name": "self_attention_2/bias_g", "op": "Const", "attr": {"value": {"tensor": {"dtype": "DT_FLOAT", "tensorShape": {"dim": [{"size": "32"}]}}}, "dtype": {"type": "DT_FLOAT"}}}, {"name": "self_attention_2/kernel_f", "op": "Const", "attr": {"value": {"tensor": {"dtype": "DT_FLOAT", "tensorShape": {"dim": [{"size": "1"}, {"size": "1"}, {"size": "256"}, {"size": "32"}]}}}, "dtype": {"type": "DT_FLOAT"}}}, {"name": "self_attention_2/bias_f", "op": "Const", "attr": {"value": {"tensor": {"dtype": "DT_FLOAT", "tensorShape": {"dim": [{"size": "32"}]}}}, "dtype": {"type": "DT_FLOAT"}}}, {"name": "self_attention_2/kernel_h", "op": "Const", "attr": {"value": {"tensor": {"dtype": "DT_FLOAT", "tensorShape": {"dim": [{"size": "1"}, {"size": "1"}, {"size": "256"}, {"size": "256"}]}}}, "dtype": {"type": "DT_FLOAT"}}}, {"name": "self_attention_2/bias_h", "op": "Const", "attr": {"value": {"tensor": {"dtype": "DT_FLOAT", "tensorShape": {"dim": [{"size": "256"}]}}}, "dtype": {"type": "DT_FLOAT"}}}, {"name": "dense_7/kernel", "op": "Const", "attr": {"value": {"tensor": {"dtype": "DT_FLOAT", "tensorShape": {"dim": [{"size": "128"}, {"size": "256"}]}}}, "dtype": {"type": "DT_FLOAT"}}}, {"name": "dense_7/bias", "op": "Const", "attr": {"value": {"tensor": {"dtype": "DT_FLOAT", "tensorShape": {"dim": [{"size": "256"}]}}}, "dtype": {"type": "DT_FLOAT"}}}, {"name": "conv2d_74/kernel", "op": "Const", "attr": {"value": {"tensor": {"dtype": "DT_FLOAT", "tensorShape": {"dim": [{"size": "1"}, {"size": "1"}, {"size": "256"}, {"size": "1"}]}}}, "dtype": {"type": "DT_FLOAT"}}}, {"name": "batch_normalization_67/batchnorm/mul", "op": "Const", "attr": {"value": {"tensor": {"dtype": "DT_FLOAT", "tensorShape": {"dim": [{"size": "64"}]}}}, "dtype": {"type": "DT_FLOAT"}}}, {"name": "batch_normalization_65/batchnorm/mul", "op": "Const", "attr": {"value": {"tensor": {"dtype": "DT_FLOAT", "tensorShape": {"dim": [{"size": "512"}]}}}, "dtype": {"type": "DT_FLOAT"}}}, {"name": "batch_normalization_65/batchnorm/sub", "op": "Const", "attr": {"dtype": {"type": "DT_FLOAT"}, "value": {"tensor": {"dtype": "DT_FLOAT", "tensorShape": {"dim": [{"size": "512"}]}}}}}, {"name": "conv2d_72/convolution/merged_input", "op": "Const", "attr": {"value": {"tensor": {"dtype": "DT_FLOAT", "tensorShape": {"dim": [{"size": "1"}, {"size": "1"}, {"size": "512"}, {"size": "64"}]}}}, "dtype": {"type": "DT_FLOAT"}}}, {"name": "batch_normalization_66/batchnorm/sub", "op": "Const", "attr": {"value": {"tensor": {"dtype": "DT_FLOAT", "tensorShape": {"dim": [{"size": "64"}]}}}, "dtype": {"type": "DT_FLOAT"}}}, {"name": "sub_pixel_conv2d_1/kernel", "op": "Const", "attr": {"value": {"tensor": {"dtype": "DT_FLOAT", "tensorShape": {"dim": [{"size": "3"}, {"size": "3"}, {"size": "64"}, {"size": "256"}]}}}, "dtype": {"type": "DT_FLOAT"}}}, {"name": "batch_normalization_67/batchnorm/sub", "op": "Const", "attr": {"value": {"tensor": {"dtype": "DT_FLOAT", "tensorShape": {"dim": [{"size": "64"}]}}}, "dtype": {"type": "DT_FLOAT"}}}, {"name": "conv2d_73/kernel", "op": "Const", "attr": {"value": {"tensor": {"dtype": "DT_FLOAT", "tensorShape": {"dim": [{"size": "1"}, {"size": "1"}, {"size": "64"}, {"size": "256"}]}}}, "dtype": {"type": "DT_FLOAT"}}}, {"name": "self_attention_1/kernel_g", "op": "Const", "attr": {"value": {"tensor": {"dtype": "DT_FLOAT", "tensorShape": {"dim": [{"size": "1"}, {"size": "1"}, {"size": "512"}, {"size": "64"}]}}}, "dtype": {"type": "DT_FLOAT"}}}, {"name": "self_attention_1/bias_g", "op": "Const", "attr": {"value": {"tensor": {"dtype": "DT_FLOAT", "tensorShape": {"dim": [{"size": "64"}]}}}, "dtype": {"type": "DT_FLOAT"}}}, {"name": "self_attention_1/kernel_f", "op": "Const", "attr": {"value": {"tensor": {"dtype": "DT_FLOAT", "tensorShape": {"dim": [{"size": "1"}, {"size": "1"}, {"size": "512"}, {"size": "64"}]}}}, "dtype": {"type": "DT_FLOAT"}}}, {"name": "self_attention_1/bias_f", "op": "Const", "attr": {"value": {"tensor": {"dtype": "DT_FLOAT", "tensorShape": {"dim": [{"size": "64"}]}}}, "dtype": {"type": "DT_FLOAT"}}}, {"name": "self_attention_1/kernel_h", "op": "Const", "attr": {"dtype": {"type": "DT_FLOAT"}, "value": {"tensor": {"dtype": "DT_FLOAT", "tensorShape": {"dim": [{"size": "1"}, {"size": "1"}, {"size": "512"}, {"size": "512"}]}}}}}, {"name": "self_attention_1/bias_h", "op": "Const", "attr": {"value": {"tensor": {"dtype": "DT_FLOAT", "tensorShape": {"dim": [{"size": "512"}]}}}, "dtype": {"type": "DT_FLOAT"}}}, {"name": "dense_3/kernel", "op": "Const", "attr": {"value": {"tensor": {"dtype": "DT_FLOAT", "tensorShape": {"dim": [{"size": "128"}, {"size": "512"}]}}}, "dtype": {"type": "DT_FLOAT"}}}, {"name": "dense_3/bias", "op": "Const", "attr": {"value": {"tensor": {"dtype": "DT_FLOAT", "tensorShape": {"dim": [{"size": "512"}]}}}, "dtype": {"type": "DT_FLOAT"}}}, {"name": "batch_normalization_43/batchnorm/mul", "op": "Const", "attr": {"value": {"tensor": {"dtype": "DT_FLOAT", "tensorShape": {"dim": [{"size": "256"}]}}}, "dtype": {"type": "DT_FLOAT"}}}, {"name": "batch_normalization_43/batchnorm/sub", "op": "Const", "attr": {"value": {"tensor": {"dtype": "DT_FLOAT", "tensorShape": {"dim": [{"size": "256"}]}}}, "dtype": {"type": "DT_FLOAT"}}}, {"name": "conv2d_48/convolution/merged_input", "op": "Const", "attr": {"value": {"tensor": {"dtype": "DT_FLOAT", "tensorShape": {"dim": [{"size": "1"}, {"size": "1"}, {"size": "256"}, {"size": "128"}]}}}, "dtype": {"type": "DT_FLOAT"}}}, {"name": "batch_normalization_44/batchnorm/sub", "op": "Const", "attr": {"value": {"tensor": {"dtype": "DT_FLOAT", "tensorShape": {"dim": [{"size": "128"}]}}}, "dtype": {"type": "DT_FLOAT"}}}, {"name": "conv2d_49/convolution/merged_input", "op": "Const", "attr": {"value": {"tensor": {"dtype": "DT_FLOAT", "tensorShape": {"dim": [{"size": "3"}, {"size": "3"}, {"size": "128"}, {"size": "128"}]}}}, "dtype": {"type": "DT_FLOAT"}}}, {"name": "batch_normalization_45/batchnorm/sub", "op": "Const", "attr": {"value": {"tensor": {"dtype": "DT_FLOAT", "tensorShape": {"dim": [{"size": "128"}]}}}, "dtype": {"type": "DT_FLOAT"}}}, {"name": "conv2d_50/kernel", "op": "Const", "attr": {"value": {"tensor": {"dtype": "DT_FLOAT", "tensorShape": {"dim": [{"size": "1"}, {"size": "1"}, {"size": "128"}, {"size": "512"}]}}}, "dtype": {"type": "DT_FLOAT"}}}, {"name": "batch_normalization_34/batchnorm/mul", "op": "Const", "attr": {"value": {"tensor": {"dtype": "DT_FLOAT", "tensorShape": {"dim": [{"size": "256"}]}}}, "dtype": {"type": "DT_FLOAT"}}}, {"name": "batch_normalization_34/batchnorm/sub", "op": "Const", "attr": {"value": {"tensor": {"dtype": "DT_FLOAT", "tensorShape": {"dim": [{"size": "256"}]}}}, "dtype": {"type": "DT_FLOAT"}}}, {"name": "conv2d_38/convolution/merged_input", "op": "Const", "attr": {"dtype": {"type": "DT_FLOAT"}, "value": {"tensor": {"dtype": "DT_FLOAT", "tensorShape": {"dim": [{"size": "1"}, {"size": "1"}, {"size": "256"}, {"size": "64"}]}}}}}, {"name": "batch_normalization_35/batchnorm/sub", "op": "Const", "attr": {"value": {"tensor": {"dtype": "DT_FLOAT", "tensorShape": {"dim": [{"size": "64"}]}}}, "dtype": {"type": "DT_FLOAT"}}}, {"name": "conv2d_39/convolution/merged_input", "op": "Const", "attr": {"value": {"tensor": {"dtype": "DT_FLOAT", "tensorShape": {"dim": [{"size": "3"}, {"size": "3"}, {"size": "64"}, {"size": "64"}]}}}, "dtype": {"type": "DT_FLOAT"}}}, {"name": "batch_normalization_36/batchnorm/sub", "op": "Const", "attr": {"value": {"tensor": {"dtype": "DT_FLOAT", "tensorShape": {"dim": [{"size": "64"}]}}}, "dtype": {"type": "DT_FLOAT"}}}, {"name": "conv2d_40/kernel", "op": "Const", "attr": {"value": {"tensor": {"dtype": "DT_FLOAT", "tensorShape": {"dim": [{"size": "1"}, {"size": "1"}, {"size": "64"}, {"size": "256"}]}}}, "dtype": {"type": "DT_FLOAT"}}}, {"name": "batch_normalization_25/batchnorm/mul", "op": "Const", "attr": {"value": {"tensor": {"dtype": "DT_FLOAT", "tensorShape": {"dim": [{"size": "128"}]}}}, "dtype": {"type": "DT_FLOAT"}}}, {"name": "batch_normalization_25/batchnorm/sub", "op": "Const", "attr": {"value": {"tensor": {"dtype": "DT_FLOAT", "tensorShape": {"dim": [{"size": "128"}]}}}, "dtype": {"type": "DT_FLOAT"}}}, {"name": "conv2d_28/convolution/merged_input", "op": "Const", "attr": {"value": {"tensor": {"dtype": "DT_FLOAT", "tensorShape": {"dim": [{"size": "1"}, {"size": "1"}, {"size": "128"}, {"size": "64"}]}}}, "dtype": {"type": "DT_FLOAT"}}}, {"name": "batch_normalization_26/batchnorm/sub", "op": "Const", "attr": {"value": {"tensor": {"dtype": "DT_FLOAT", "tensorShape": {"dim": [{"size": "64"}]}}}, "dtype": {"type": "DT_FLOAT"}}}, {"name": "conv2d_29/convolution/merged_input", "op": "Const", "attr": {"value": {"tensor": {"dtype": "DT_FLOAT", "tensorShape": {"dim": [{"size": "3"}, {"size": "3"}, {"size": "64"}, {"size": "64"}]}}}, "dtype": {"type": "DT_FLOAT"}}}, {"name": "batch_normalization_27/batchnorm/sub", "op": "Const", "attr": {"value": {"tensor": {"dtype": "DT_FLOAT", "tensorShape": {"dim": [{"size": "64"}]}}}, "dtype": {"type": "DT_FLOAT"}}}, {"name": "conv2d_30/kernel", "op": "Const", "attr": {"value": {"tensor": {"dtype": "DT_FLOAT", "tensorShape": {"dim": [{"size": "1"}, {"size": "1"}, {"size": "64"}, {"size": "256"}]}}}, "dtype": {"type": "DT_FLOAT"}}}, {"name": "conv2d_31/kernel", "op": "Const", "attr": {"value": {"tensor": {"dtype": "DT_FLOAT", "tensorShape": {"dim": [{"size": "1"}, {"size": "1"}, {"size": "128"}, {"size": "256"}]}}}, "dtype": {"type": "DT_FLOAT"}}}, {"name": "batch_normalization_28/batchnorm/mul", "op": "Const", "attr": {"value": {"tensor": {"dtype": "DT_FLOAT", "tensorShape": {"dim": [{"size": "256"}]}}}, "dtype": {"type": "DT_FLOAT"}}}, {"name": "batch_normalization_28/batchnorm/sub", "op": "Const", "attr": {"value": {"tensor": {"dtype": "DT_FLOAT", "tensorShape": {"dim": [{"size": "256"}]}}}, "dtype": {"type": "DT_FLOAT"}}}, {"name": "conv2d_32/convolution/merged_input", "op": "Const", "attr": {"value": {"tensor": {"dtype": "DT_FLOAT", "tensorShape": {"dim": [{"size": "1"}, {"size": "1"}, {"size": "256"}, {"size": "64"}]}}}, "dtype": {"type": "DT_FLOAT"}}}, {"name": "batch_normalization_29/batchnorm/sub", "op": "Const", "attr": {"value": {"tensor": {"dtype": "DT_FLOAT", "tensorShape": {"dim": [{"size": "64"}]}}}, "dtype": {"type": "DT_FLOAT"}}}, {"name": "conv2d_33/convolution/merged_input", "op": "Const", "attr": {"value": {"tensor": {"dtype": "DT_FLOAT", "tensorShape": {"dim": [{"size": "3"}, {"size": "3"}, {"size": "64"}, {"size": "64"}]}}}, "dtype": {"type": "DT_FLOAT"}}}, {"name": "batch_normalization_30/batchnorm/sub", "op": "Const", "attr": {"value": {"tensor": {"dtype": "DT_FLOAT", "tensorShape": {"dim": [{"size": "64"}]}}}, "dtype": {"type": "DT_FLOAT"}}}, {"name": "conv2d_34/kernel", "op": "Const", "attr": {"value": {"tensor": {"dtype": "DT_FLOAT", "tensorShape": {"dim": [{"size": "1"}, {"size": "1"}, {"size": "64"}, {"size": "256"}]}}}, "dtype": {"type": "DT_FLOAT"}}}, {"name": "batch_normalization_31/batchnorm/mul", "op": "Const", "attr": {"value": {"tensor": {"dtype": "DT_FLOAT", "tensorShape": {"dim": [{"size": "256"}]}}}, "dtype": {"type": "DT_FLOAT"}}}, {"name": "batch_normalization_31/batchnorm/sub", "op": "Const", "attr": {"value": {"tensor": {"dtype": "DT_FLOAT", "tensorShape": {"dim": [{"size": "256"}]}}}, "dtype": {"type": "DT_FLOAT"}}}, {"name": "conv2d_35/convolution/merged_input", "op": "Const", "attr": {"value": {"tensor": {"dtype": "DT_FLOAT", "tensorShape": {"dim": [{"size": "1"}, {"size": "1"}, {"size": "256"}, {"size": "64"}]}}}, "dtype": {"type": "DT_FLOAT"}}}, {"name": "batch_normalization_32/batchnorm/sub", "op": "Const", "attr": {"value": {"tensor": {"dtype": "DT_FLOAT", "tensorShape": {"dim": [{"size": "64"}]}}}, "dtype": {"type": "DT_FLOAT"}}}, {"name": "conv2d_36/convolution/merged_input", "op": "Const", "attr": {"dtype": {"type": "DT_FLOAT"}, "value": {"tensor": {"dtype": "DT_FLOAT", "tensorShape": {"dim": [{"size": "3"}, {"size": "3"}, {"size": "64"}, {"size": "64"}]}}}}}, {"name": "batch_normalization_33/batchnorm/sub", "op": "Const", "attr": {"value": {"tensor": {"dtype": "DT_FLOAT", "tensorShape": {"dim": [{"size": "64"}]}}}, "dtype": {"type": "DT_FLOAT"}}}, {"name": "conv2d_37/kernel", "op": "Const", "attr": {"value": {"tensor": {"dtype": "DT_FLOAT", "tensorShape": {"dim": [{"size": "1"}, {"size": "1"}, {"size": "64"}, {"size": "256"}]}}}, "dtype": {"type": "DT_FLOAT"}}}, {"name": "conv2d_41/kernel", "op": "Const", "attr": {"value": {"tensor": {"dtype": "DT_FLOAT", "tensorShape": {"dim": [{"size": "1"}, {"size": "1"}, {"size": "256"}, {"size": "256"}]}}}, "dtype": {"type": "DT_FLOAT"}}}, {"name": "batch_normalization_37/batchnorm/mul", "op": "Const", "attr": {"value": {"tensor": {"dtype": "DT_FLOAT", "tensorShape": {"dim": [{"size": "256"}]}}}, "dtype": {"type": "DT_FLOAT"}}}, {"name": "batch_normalization_37/batchnorm/sub", "op": "Const", "attr": {"dtype": {"type": "DT_FLOAT"}, "value": {"tensor": {"dtype": "DT_FLOAT", "tensorShape": {"dim": [{"size": "256"}]}}}}}, {"name": "conv2d_42/convolution/merged_input", "op": "Const", "attr": {"dtype": {"type": "DT_FLOAT"}, "value": {"tensor": {"dtype": "DT_FLOAT", "tensorShape": {"dim": [{"size": "1"}, {"size": "1"}, {"size": "256"}, {"size": "64"}]}}}}}, {"name": "batch_normalization_38/batchnorm/sub", "op": "Const", "attr": {"value": {"tensor": {"dtype": "DT_FLOAT", "tensorShape": {"dim": [{"size": "64"}]}}}, "dtype": {"type": "DT_FLOAT"}}}, {"name": "conv2d_43/convolution/merged_input", "op": "Const", "attr": {"dtype": {"type": "DT_FLOAT"}, "value": {"tensor": {"dtype": "DT_FLOAT", "tensorShape": {"dim": [{"size": "3"}, {"size": "3"}, {"size": "64"}, {"size": "64"}]}}}}}, {"name": "batch_normalization_39/batchnorm/sub", "op": "Const", "attr": {"value": {"tensor": {"dtype": "DT_FLOAT", "tensorShape": {"dim": [{"size": "64"}]}}}, "dtype": {"type": "DT_FLOAT"}}}, {"name": "conv2d_44/kernel", "op": "Const", "attr": {"value": {"tensor": {"dtype": "DT_FLOAT", "tensorShape": {"dim": [{"size": "1"}, {"size": "1"}, {"size": "64"}, {"size": "256"}]}}}, "dtype": {"type": "DT_FLOAT"}}}, {"name": "batch_normalization_40/batchnorm/mul", "op": "Const", "attr": {"value": {"tensor": {"dtype": "DT_FLOAT", "tensorShape": {"dim": [{"size": "256"}]}}}, "dtype": {"type": "DT_FLOAT"}}}, {"name": "batch_normalization_40/batchnorm/sub", "op": "Const", "attr": {"value": {"tensor": {"dtype": "DT_FLOAT", "tensorShape": {"dim": [{"size": "256"}]}}}, "dtype": {"type": "DT_FLOAT"}}}, {"name": "conv2d_45/convolution/merged_input", "op": "Const", "attr": {"dtype": {"type": "DT_FLOAT"}, "value": {"tensor": {"dtype": "DT_FLOAT", "tensorShape": {"dim": [{"size": "1"}, {"size": "1"}, {"size": "256"}, {"size": "64"}]}}}}}, {"name": "batch_normalization_41/batchnorm/sub", "op": "Const", "attr": {"value": {"tensor": {"dtype": "DT_FLOAT", "tensorShape": {"dim": [{"size": "64"}]}}}, "dtype": {"type": "DT_FLOAT"}}}, {"name": "conv2d_46/convolution/merged_input", "op": "Const", "attr": {"value": {"tensor": {"dtype": "DT_FLOAT", "tensorShape": {"dim": [{"size": "3"}, {"size": "3"}, {"size": "64"}, {"size": "64"}]}}}, "dtype": {"type": "DT_FLOAT"}}}, {"name": "batch_normalization_42/batchnorm/sub", "op": "Const", "attr": {"dtype": {"type": "DT_FLOAT"}, "value": {"tensor": {"dtype": "DT_FLOAT", "tensorShape": {"dim": [{"size": "64"}]}}}}}, {"name": "conv2d_47/kernel", "op": "Const", "attr": {"value": {"tensor": {"dtype": "DT_FLOAT", "tensorShape": {"dim": [{"size": "1"}, {"size": "1"}, {"size": "64"}, {"size": "256"}]}}}, "dtype": {"type": "DT_FLOAT"}}}, {"name": "conv2d_51/kernel", "op": "Const", "attr": {"value": {"tensor": {"dtype": "DT_FLOAT", "tensorShape": {"dim": [{"size": "1"}, {"size": "1"}, {"size": "256"}, {"size": "512"}]}}}, "dtype": {"type": "DT_FLOAT"}}}, {"name": "batch_normalization_46/batchnorm/mul", "op": "Const", "attr": {"value": {"tensor": {"dtype": "DT_FLOAT", "tensorShape": {"dim": [{"size": "512"}]}}}, "dtype": {"type": "DT_FLOAT"}}}, {"name": "batch_normalization_46/batchnorm/sub", "op": "Const", "attr": {"value": {"tensor": {"dtype": "DT_FLOAT", "tensorShape": {"dim": [{"size": "512"}]}}}, "dtype": {"type": "DT_FLOAT"}}}, {"name": "conv2d_52/convolution/merged_input", "op": "Const", "attr": {"value": {"tensor": {"dtype": "DT_FLOAT", "tensorShape": {"dim": [{"size": "1"}, {"size": "1"}, {"size": "512"}, {"size": "128"}]}}}, "dtype": {"type": "DT_FLOAT"}}}, {"name": "batch_normalization_47/batchnorm/sub", "op": "Const", "attr": {"value": {"tensor": {"dtype": "DT_FLOAT", "tensorShape": {"dim": [{"size": "128"}]}}}, "dtype": {"type": "DT_FLOAT"}}}, {"name": "conv2d_53/convolution/merged_input", "op": "Const", "attr": {"value": {"tensor": {"dtype": "DT_FLOAT", "tensorShape": {"dim": [{"size": "3"}, {"size": "3"}, {"size": "128"}, {"size": "128"}]}}}, "dtype": {"type": "DT_FLOAT"}}}, {"name": "batch_normalization_48/batchnorm/sub", "op": "Const", "attr": {"value": {"tensor": {"dtype": "DT_FLOAT", "tensorShape": {"dim": [{"size": "128"}]}}}, "dtype": {"type": "DT_FLOAT"}}}, {"name": "conv2d_54/kernel", "op": "Const", "attr": {"dtype": {"type": "DT_FLOAT"}, "value": {"tensor": {"dtype": "DT_FLOAT", "tensorShape": {"dim": [{"size": "1"}, {"size": "1"}, {"size": "128"}, {"size": "512"}]}}}}}, {"name": "batch_normalization_49/batchnorm/mul", "op": "Const", "attr": {"dtype": {"type": "DT_FLOAT"}, "value": {"tensor": {"dtype": "DT_FLOAT", "tensorShape": {"dim": [{"size": "512"}]}}}}}, {"name": "batch_normalization_49/batchnorm/sub", "op": "Const", "attr": {"dtype": {"type": "DT_FLOAT"}, "value": {"tensor": {"dtype": "DT_FLOAT", "tensorShape": {"dim": [{"size": "512"}]}}}}}, {"name": "conv2d_55/convolution/merged_input", "op": "Const", "attr": {"value": {"tensor": {"dtype": "DT_FLOAT", "tensorShape": {"dim": [{"size": "1"}, {"size": "1"}, {"size": "512"}, {"size": "128"}]}}}, "dtype": {"type": "DT_FLOAT"}}}, {"name": "batch_normalization_50/batchnorm/sub", "op": "Const", "attr": {"dtype": {"type": "DT_FLOAT"}, "value": {"tensor": {"dtype": "DT_FLOAT", "tensorShape": {"dim": [{"size": "128"}]}}}}}, {"name": "conv2d_56/convolution/merged_input", "op": "Const", "attr": {"value": {"tensor": {"dtype": "DT_FLOAT", "tensorShape": {"dim": [{"size": "3"}, {"size": "3"}, {"size": "128"}, {"size": "128"}]}}}, "dtype": {"type": "DT_FLOAT"}}}, {"name": "batch_normalization_51/batchnorm/sub", "op": "Const", "attr": {"value": {"tensor": {"dtype": "DT_FLOAT", "tensorShape": {"dim": [{"size": "128"}]}}}, "dtype": {"type": "DT_FLOAT"}}}, {"name": "conv2d_57/kernel", "op": "Const", "attr": {"value": {"tensor": {"dtype": "DT_FLOAT", "tensorShape": {"dim": [{"size": "1"}, {"size": "1"}, {"size": "128"}, {"size": "512"}]}}}, "dtype": {"type": "DT_FLOAT"}}}, {"name": "conv2d_58/kernel", "op": "Const", "attr": {"value": {"tensor": {"dtype": "DT_FLOAT", "tensorShape": {"dim": [{"size": "1"}, {"size": "1"}, {"size": "514"}, {"size": "512"}]}}}, "dtype": {"type": "DT_FLOAT"}}}, {"name": "conv2d_59/convolution/merged_input", "op": "Const", "attr": {"value": {"tensor": {"dtype": "DT_FLOAT", "tensorShape": {"dim": [{"size": "3"}, {"size": "3"}, {"size": "512"}, {"size": "512"}]}}}, "dtype": {"type": "DT_FLOAT"}}}, {"name": "batch_normalization_52/batchnorm/mul_1", "op": "Const", "attr": {"value": {"tensor": {"dtype": "DT_FLOAT", "tensorShape": {"dim": [{"size": "512"}]}}}, "dtype": {"type": "DT_FLOAT"}}}, {"name": "dense_2/kernel", "op": "Const", "attr": {"value": {"tensor": {"dtype": "DT_FLOAT", "tensorShape": {"dim": [{"size": "128"}, {"size": "512"}]}}}, "dtype": {"type": "DT_FLOAT"}}}, {"name": "dense_2/bias", "op": "Const", "attr": {"dtype": {"type": "DT_FLOAT"}, "value": {"tensor": {"dtype": "DT_FLOAT", "tensorShape": {"dim": [{"size": "512"}]}}}}}, {"name": "batch_normalization_53/batchnorm/mul", "op": "Const", "attr": {"dtype": {"type": "DT_FLOAT"}, "value": {"tensor": {"dtype": "DT_FLOAT", "tensorShape": {"dim": [{"size": "512"}]}}}}}, {"name": "batch_normalization_53/batchnorm/sub", "op": "Const", "attr": {"value": {"tensor": {"dtype": "DT_FLOAT", "tensorShape": {"dim": [{"size": "512"}]}}}, "dtype": {"type": "DT_FLOAT"}}}, {"name": "conv2d_60/convolution/merged_input", "op": "Const", "attr": {"value": {"tensor": {"dtype": "DT_FLOAT", "tensorShape": {"dim": [{"size": "1"}, {"size": "1"}, {"size": "512"}, {"size": "128"}]}}}, "dtype": {"type": "DT_FLOAT"}}}, {"name": "batch_normalization_54/batchnorm/sub", "op": "Const", "attr": {"value": {"tensor": {"dtype": "DT_FLOAT", "tensorShape": {"dim": [{"size": "128"}]}}}, "dtype": {"type": "DT_FLOAT"}}}, {"name": "conv2d_61/convolution/merged_input", "op": "Const", "attr": {"value": {"tensor": {"dtype": "DT_FLOAT", "tensorShape": {"dim": [{"size": "3"}, {"size": "3"}, {"size": "128"}, {"size": "128"}]}}}, "dtype": {"type": "DT_FLOAT"}}}, {"name": "batch_normalization_55/batchnorm/sub", "op": "Const", "attr": {"value": {"tensor": {"dtype": "DT_FLOAT", "tensorShape": {"dim": [{"size": "128"}]}}}, "dtype": {"type": "DT_FLOAT"}}}, {"name": "conv2d_62/kernel", "op": "Const", "attr": {"value": {"tensor": {"dtype": "DT_FLOAT", "tensorShape": {"dim": [{"size": "1"}, {"size": "1"}, {"size": "128"}, {"size": "512"}]}}}, "dtype": {"type": "DT_FLOAT"}}}, {"name": "batch_normalization_56/batchnorm/mul", "op": "Const", "attr": {"value": {"tensor": {"dtype": "DT_FLOAT", "tensorShape": {"dim": [{"size": "512"}]}}}, "dtype": {"type": "DT_FLOAT"}}}, {"name": "batch_normalization_56/batchnorm/sub", "op": "Const", "attr": {"dtype": {"type": "DT_FLOAT"}, "value": {"tensor": {"dtype": "DT_FLOAT", "tensorShape": {"dim": [{"size": "512"}]}}}}}, {"name": "conv2d_63/convolution/merged_input", "op": "Const", "attr": {"value": {"tensor": {"dtype": "DT_FLOAT", "tensorShape": {"dim": [{"size": "1"}, {"size": "1"}, {"size": "512"}, {"size": "128"}]}}}, "dtype": {"type": "DT_FLOAT"}}}, {"name": "batch_normalization_57/batchnorm/sub", "op": "Const", "attr": {"value": {"tensor": {"dtype": "DT_FLOAT", "tensorShape": {"dim": [{"size": "128"}]}}}, "dtype": {"type": "DT_FLOAT"}}}, {"name": "conv2d_64/convolution/merged_input", "op": "Const", "attr": {"value": {"tensor": {"dtype": "DT_FLOAT", "tensorShape": {"dim": [{"size": "3"}, {"size": "3"}, {"size": "128"}, {"size": "128"}]}}}, "dtype": {"type": "DT_FLOAT"}}}, {"name": "batch_normalization_58/batchnorm/sub", "op": "Const", "attr": {"value": {"tensor": {"dtype": "DT_FLOAT", "tensorShape": {"dim": [{"size": "128"}]}}}, "dtype": {"type": "DT_FLOAT"}}}, {"name": "conv2d_65/kernel", "op": "Const", "attr": {"value": {"tensor": {"dtype": "DT_FLOAT", "tensorShape": {"dim": [{"size": "1"}, {"size": "1"}, {"size": "128"}, {"size": "512"}]}}}, "dtype": {"type": "DT_FLOAT"}}}, {"name": "batch_normalization_59/batchnorm/mul", "op": "Const", "attr": {"value": {"tensor": {"dtype": "DT_FLOAT", "tensorShape": {"dim": [{"size": "512"}]}}}, "dtype": {"type": "DT_FLOAT"}}}, {"name": "batch_normalization_59/batchnorm/sub", "op": "Const", "attr": {"value": {"tensor": {"dtype": "DT_FLOAT", "tensorShape": {"dim": [{"size": "512"}]}}}, "dtype": {"type": "DT_FLOAT"}}}, {"name": "conv2d_66/convolution/merged_input", "op": "Const", "attr": {"value": {"tensor": {"dtype": "DT_FLOAT", "tensorShape": {"dim": [{"size": "1"}, {"size": "1"}, {"size": "512"}, {"size": "128"}]}}}, "dtype": {"type": "DT_FLOAT"}}}, {"name": "batch_normalization_60/batchnorm/sub", "op": "Const", "attr": {"value": {"tensor": {"dtype": "DT_FLOAT", "tensorShape": {"dim": [{"size": "128"}]}}}, "dtype": {"type": "DT_FLOAT"}}}, {"name": "conv2d_67/convolution/merged_input", "op": "Const", "attr": {"value": {"tensor": {"dtype": "DT_FLOAT", "tensorShape": {"dim": [{"size": "3"}, {"size": "3"}, {"size": "128"}, {"size": "128"}]}}}, "dtype": {"type": "DT_FLOAT"}}}, {"name": "batch_normalization_61/batchnorm/sub", "op": "Const", "attr": {"value": {"tensor": {"dtype": "DT_FLOAT", "tensorShape": {"dim": [{"size": "128"}]}}}, "dtype": {"type": "DT_FLOAT"}}}, {"name": "conv2d_68/kernel", "op": "Const", "attr": {"value": {"tensor": {"dtype": "DT_FLOAT", "tensorShape": {"dim": [{"size": "1"}, {"size": "1"}, {"size": "128"}, {"size": "512"}]}}}, "dtype": {"type": "DT_FLOAT"}}}, {"name": "batch_normalization_62/batchnorm/mul", "op": "Const", "attr": {"value": {"tensor": {"dtype": "DT_FLOAT", "tensorShape": {"dim": [{"size": "512"}]}}}, "dtype": {"type": "DT_FLOAT"}}}, {"name": "batch_normalization_62/batchnorm/sub", "op": "Const", "attr": {"dtype": {"type": "DT_FLOAT"}, "value": {"tensor": {"dtype": "DT_FLOAT", "tensorShape": {"dim": [{"size": "512"}]}}}}}, {"name": "conv2d_69/convolution/merged_input", "op": "Const", "attr": {"value": {"tensor": {"dtype": "DT_FLOAT", "tensorShape": {"dim": [{"size": "1"}, {"size": "1"}, {"size": "512"}, {"size": "128"}]}}}, "dtype": {"type": "DT_FLOAT"}}}, {"name": "batch_normalization_63/batchnorm/sub", "op": "Const", "attr": {"dtype": {"type": "DT_FLOAT"}, "value": {"tensor": {"dtype": "DT_FLOAT", "tensorShape": {"dim": [{"size": "128"}]}}}}}, {"name": "conv2d_70/convolution/merged_input", "op": "Const", "attr": {"value": {"tensor": {"dtype": "DT_FLOAT", "tensorShape": {"dim": [{"size": "3"}, {"size": "3"}, {"size": "128"}, {"size": "128"}]}}}, "dtype": {"type": "DT_FLOAT"}}}, {"name": "batch_normalization_64/batchnorm/sub", "op": "Const", "attr": {"value": {"tensor": {"dtype": "DT_FLOAT", "tensorShape": {"dim": [{"size": "128"}]}}}, "dtype": {"type": "DT_FLOAT"}}}, {"name": "conv2d_71/kernel", "op": "Const", "attr": {"value": {"tensor": {"dtype": "DT_FLOAT", "tensorShape": {"dim": [{"size": "1"}, {"size": "1"}, {"size": "128"}, {"size": "512"}]}}}, "dtype": {"type": "DT_FLOAT"}}}, {"name": "self_attention_1/gamma", "op": "Const", "attr": {"value": {"tensor": {"dtype": "DT_FLOAT", "tensorShape": {"dim": [{"size": "1"}]}}}, "dtype": {"type": "DT_FLOAT"}}}, {"name": "sub_pixel_conv2d_2/kernel", "op": "Const", "attr": {"value": {"tensor": {"dtype": "DT_FLOAT", "tensorShape": {"dim": [{"size": "1"}, {"size": "1"}, {"size": "512"}, {"size": "1024"}]}}}, "dtype": {"type": "DT_FLOAT"}}}, {"name": "dense_4/kernel", "op": "Const", "attr": {"value": {"tensor": {"dtype": "DT_FLOAT", "tensorShape": {"dim": [{"size": "256"}, {"size": "128"}]}}}, "dtype": {"type": "DT_FLOAT"}}}, {"name": "dense_5/kernel", "op": "Const", "attr": {"value": {"tensor": {"dtype": "DT_FLOAT", "tensorShape": {"dim": [{"size": "128"}, {"size": "256"}]}}}, "dtype": {"type": "DT_FLOAT"}}}, {"name": "conv2d_75/kernel", "op": "Const", "attr": {"value": {"tensor": {"dtype": "DT_FLOAT", "tensorShape": {"dim": [{"size": "1"}, {"size": "1"}, {"size": "514"}, {"size": "256"}]}}}, "dtype": {"type": "DT_FLOAT"}}}, {"name": "conv2d_76/convolution/merged_input", "op": "Const", "attr": {"value": {"tensor": {"dtype": "DT_FLOAT", "tensorShape": {"dim": [{"size": "3"}, {"size": "3"}, {"size": "256"}, {"size": "256"}]}}}, "dtype": {"type": "DT_FLOAT"}}}, {"name": "batch_normalization_68/batchnorm/mul_1", "op": "Const", "attr": {"value": {"tensor": {"dtype": "DT_FLOAT", "tensorShape": {"dim": [{"size": "256"}]}}}, "dtype": {"type": "DT_FLOAT"}}}, {"name": "dense_6/kernel", "op": "Const", "attr": {"value": {"tensor": {"dtype": "DT_FLOAT", "tensorShape": {"dim": [{"size": "128"}, {"size": "256"}]}}}, "dtype": {"type": "DT_FLOAT"}}}, {"name": "dense_6/bias", "op": "Const", "attr": {"value": {"tensor": {"dtype": "DT_FLOAT", "tensorShape": {"dim": [{"size": "256"}]}}}, "dtype": {"type": "DT_FLOAT"}}}, {"name": "batch_normalization_69/batchnorm/mul", "op": "Const", "attr": {"dtype": {"type": "DT_FLOAT"}, "value": {"tensor": {"dtype": "DT_FLOAT", "tensorShape": {"dim": [{"size": "256"}]}}}}}, {"name": "batch_normalization_69/batchnorm/sub", "op": "Const", "attr": {"dtype": {"type": "DT_FLOAT"}, "value": {"tensor": {"dtype": "DT_FLOAT", "tensorShape": {"dim": [{"size": "256"}]}}}}}, {"name": "conv2d_77/convolution/merged_input", "op": "Const", "attr": {"value": {"tensor": {"dtype": "DT_FLOAT", "tensorShape": {"dim": [{"size": "1"}, {"size": "1"}, {"size": "256"}, {"size": "64"}]}}}, "dtype": {"type": "DT_FLOAT"}}}, {"name": "batch_normalization_70/batchnorm/sub", "op": "Const", "attr": {"value": {"tensor": {"dtype": "DT_FLOAT", "tensorShape": {"dim": [{"size": "64"}]}}}, "dtype": {"type": "DT_FLOAT"}}}, {"name": "conv2d_78/convolution/merged_input", "op": "Const", "attr": {"dtype": {"type": "DT_FLOAT"}, "value": {"tensor": {"dtype": "DT_FLOAT", "tensorShape": {"dim": [{"size": "3"}, {"size": "3"}, {"size": "64"}, {"size": "64"}]}}}}}, {"name": "batch_normalization_71/batchnorm/sub", "op": "Const", "attr": {"value": {"tensor": {"dtype": "DT_FLOAT", "tensorShape": {"dim": [{"size": "64"}]}}}, "dtype": {"type": "DT_FLOAT"}}}, {"name": "conv2d_79/kernel", "op": "Const", "attr": {"value": {"tensor": {"dtype": "DT_FLOAT", "tensorShape": {"dim": [{"size": "1"}, {"size": "1"}, {"size": "64"}, {"size": "256"}]}}}, "dtype": {"type": "DT_FLOAT"}}}, {"name": "batch_normalization_72/batchnorm/mul", "op": "Const", "attr": {"value": {"tensor": {"dtype": "DT_FLOAT", "tensorShape": {"dim": [{"size": "256"}]}}}, "dtype": {"type": "DT_FLOAT"}}}, {"name": "batch_normalization_72/batchnorm/sub", "op": "Const", "attr": {"dtype": {"type": "DT_FLOAT"}, "value": {"tensor": {"dtype": "DT_FLOAT", "tensorShape": {"dim": [{"size": "256"}]}}}}}, {"name": "conv2d_80/convolution/merged_input", "op": "Const", "attr": {"value": {"tensor": {"dtype": "DT_FLOAT", "tensorShape": {"dim": [{"size": "1"}, {"size": "1"}, {"size": "256"}, {"size": "64"}]}}}, "dtype": {"type": "DT_FLOAT"}}}, {"name": "batch_normalization_73/batchnorm/sub", "op": "Const", "attr": {"dtype": {"type": "DT_FLOAT"}, "value": {"tensor": {"dtype": "DT_FLOAT", "tensorShape": {"dim": [{"size": "64"}]}}}}}, {"name": "conv2d_81/convolution/merged_input", "op": "Const", "attr": {"value": {"tensor": {"dtype": "DT_FLOAT", "tensorShape": {"dim": [{"size": "3"}, {"size": "3"}, {"size": "64"}, {"size": "64"}]}}}, "dtype": {"type": "DT_FLOAT"}}}, {"name": "batch_normalization_74/batchnorm/sub", "op": "Const", "attr": {"value": {"tensor": {"dtype": "DT_FLOAT", "tensorShape": {"dim": [{"size": "64"}]}}}, "dtype": {"type": "DT_FLOAT"}}}, {"name": "conv2d_82/kernel", "op": "Const", "attr": {"value": {"tensor": {"dtype": "DT_FLOAT", "tensorShape": {"dim": [{"size": "1"}, {"size": "1"}, {"size": "64"}, {"size": "256"}]}}}, "dtype": {"type": "DT_FLOAT"}}}, {"name": "self_attention_2/gamma", "op": "Const", "attr": {"value": {"tensor": {"dtype": "DT_FLOAT", "tensorShape": {"dim": [{"size": "1"}]}}}, "dtype": {"type": "DT_FLOAT"}}}, {"name": "sub_pixel_conv2d_4/kernel", "op": "Const", "attr": {"dtype": {"type": "DT_FLOAT"}, "value": {"tensor": {"dtype": "DT_FLOAT", "tensorShape": {"dim": [{"size": "1"}, {"size": "1"}, {"size": "256"}, {"size": "1024"}]}}}}}, {"name": "dense_8/kernel", "op": "Const", "attr": {"value": {"tensor": {"dtype": "DT_FLOAT", "tensorShape": {"dim": [{"size": "256"}, {"size": "128"}]}}}, "dtype": {"type": "DT_FLOAT"}}}, {"name": "dense_9/kernel", "op": "Const", "attr": {"value": {"tensor": {"dtype": "DT_FLOAT", "tensorShape": {"dim": [{"size": "128"}, {"size": "256"}]}}}, "dtype": {"type": "DT_FLOAT"}}}, {"name": "conv2d_87/kernel", "op": "Const", "attr": {"value": {"tensor": {"dtype": "DT_FLOAT", "tensorShape": {"dim": [{"size": "1"}, {"size": "1"}, {"size": "514"}, {"size": "256"}]}}}, "dtype": {"type": "DT_FLOAT"}}}, {"name": "conv2d_88/convolution/merged_input", "op": "Const", "attr": {"value": {"tensor": {"dtype": "DT_FLOAT", "tensorShape": {"dim": [{"size": "3"}, {"size": "3"}, {"size": "256"}, {"size": "256"}]}}}, "dtype": {"type": "DT_FLOAT"}}}, {"name": "batch_normalization_78/batchnorm/mul_1", "op": "Const", "attr": {"value": {"tensor": {"dtype": "DT_FLOAT", "tensorShape": {"dim": [{"size": "256"}]}}}, "dtype": {"type": "DT_FLOAT"}}}, {"name": "dense_10/kernel", "op": "Const", "attr": {"dtype": {"type": "DT_FLOAT"}, "value": {"tensor": {"dtype": "DT_FLOAT", "tensorShape": {"dim": [{"size": "128"}, {"size": "256"}]}}}}}, {"name": "dense_10/bias", "op": "Const", "attr": {"value": {"tensor": {"dtype": "DT_FLOAT", "tensorShape": {"dim": [{"size": "256"}]}}}, "dtype": {"type": "DT_FLOAT"}}}, {"name": "batch_normalization_79/batchnorm/mul", "op": "Const", "attr": {"value": {"tensor": {"dtype": "DT_FLOAT", "tensorShape": {"dim": [{"size": "256"}]}}}, "dtype": {"type": "DT_FLOAT"}}}, {"name": "batch_normalization_79/batchnorm/sub", "op": "Const", "attr": {"value": {"tensor": {"dtype": "DT_FLOAT", "tensorShape": {"dim": [{"size": "256"}]}}}, "dtype": {"type": "DT_FLOAT"}}}, {"name": "conv2d_89/convolution/merged_input", "op": "Const", "attr": {"value": {"tensor": {"dtype": "DT_FLOAT", "tensorShape": {"dim": [{"size": "1"}, {"size": "1"}, {"size": "256"}, {"size": "64"}]}}}, "dtype": {"type": "DT_FLOAT"}}}, {"name": "batch_normalization_80/batchnorm/sub", "op": "Const", "attr": {"value": {"tensor": {"dtype": "DT_FLOAT", "tensorShape": {"dim": [{"size": "64"}]}}}, "dtype": {"type": "DT_FLOAT"}}}, {"name": "conv2d_90/convolution/merged_input", "op": "Const", "attr": {"value": {"tensor": {"dtype": "DT_FLOAT", "tensorShape": {"dim": [{"size": "3"}, {"size": "3"}, {"size": "64"}, {"size": "64"}]}}}, "dtype": {"type": "DT_FLOAT"}}}, {"name": "batch_normalization_81/batchnorm/sub", "op": "Const", "attr": {"value": {"tensor": {"dtype": "DT_FLOAT", "tensorShape": {"dim": [{"size": "64"}]}}}, "dtype": {"type": "DT_FLOAT"}}}, {"name": "conv2d_91/kernel", "op": "Const", "attr": {"value": {"tensor": {"dtype": "DT_FLOAT", "tensorShape": {"dim": [{"size": "1"}, {"size": "1"}, {"size": "64"}, {"size": "256"}]}}}, "dtype": {"type": "DT_FLOAT"}}}, {"name": "batch_normalization_82/batchnorm/mul", "op": "Const", "attr": {"value": {"tensor": {"dtype": "DT_FLOAT", "tensorShape": {"dim": [{"size": "256"}]}}}, "dtype": {"type": "DT_FLOAT"}}}, {"name": "batch_normalization_82/batchnorm/sub", "op": "Const", "attr": {"value": {"tensor": {"dtype": "DT_FLOAT", "tensorShape": {"dim": [{"size": "256"}]}}}, "dtype": {"type": "DT_FLOAT"}}}, {"name": "conv2d_92/convolution/merged_input", "op": "Const", "attr": {"value": {"tensor": {"dtype": "DT_FLOAT", "tensorShape": {"dim": [{"size": "1"}, {"size": "1"}, {"size": "256"}, {"size": "64"}]}}}, "dtype": {"type": "DT_FLOAT"}}}, {"name": "batch_normalization_83/batchnorm/sub", "op": "Const", "attr": {"value": {"tensor": {"dtype": "DT_FLOAT", "tensorShape": {"dim": [{"size": "64"}]}}}, "dtype": {"type": "DT_FLOAT"}}}, {"name": "conv2d_93/convolution/merged_input", "op": "Const", "attr": {"dtype": {"type": "DT_FLOAT"}, "value": {"tensor": {"dtype": "DT_FLOAT", "tensorShape": {"dim": [{"size": "3"}, {"size": "3"}, {"size": "64"}, {"size": "64"}]}}}}}, {"name": "batch_normalization_84/batchnorm/sub", "op": "Const", "attr": {"value": {"tensor": {"dtype": "DT_FLOAT", "tensorShape": {"dim": [{"size": "64"}]}}}, "dtype": {"type": "DT_FLOAT"}}}, {"name": "conv2d_94/kernel", "op": "Const", "attr": {"value": {"tensor": {"dtype": "DT_FLOAT", "tensorShape": {"dim": [{"size": "1"}, {"size": "1"}, {"size": "64"}, {"size": "256"}]}}}, "dtype": {"type": "DT_FLOAT"}}}, {"name": "self_attention_3/gamma", "op": "Const", "attr": {"value": {"tensor": {"dtype": "DT_FLOAT", "tensorShape": {"dim": [{"size": "1"}]}}}, "dtype": {"type": "DT_FLOAT"}}}, {"name": "sub_pixel_conv2d_6/kernel", "op": "Const", "attr": {"value": {"tensor": {"dtype": "DT_FLOAT", "tensorShape": {"dim": [{"size": "1"}, {"size": "1"}, {"size": "256"}, {"size": "512"}]}}}, "dtype": {"type": "DT_FLOAT"}}}, {"name": "dense_12/kernel", "op": "Const", "attr": {"dtype": {"type": "DT_FLOAT"}, "value": {"tensor": {"dtype": "DT_FLOAT", "tensorShape": {"dim": [{"size": "128"}, {"size": "64"}]}}}}}, {"name": "dense_13/kernel", "op": "Const", "attr": {"value": {"tensor": {"dtype": "DT_FLOAT", "tensorShape": {"dim": [{"size": "64"}, {"size": "128"}]}}}, "dtype": {"type": "DT_FLOAT"}}}, {"name": "batch_normalization_16/batchnorm/mul", "op": "Const", "attr": {"value": {"tensor": {"dtype": "DT_FLOAT", "tensorShape": {"dim": [{"size": "64"}]}}}, "dtype": {"type": "DT_FLOAT"}}}, {"name": "batch_normalization_16/batchnorm/sub", "op": "Const", "attr": {"value": {"tensor": {"dtype": "DT_FLOAT", "tensorShape": {"dim": [{"size": "64"}]}}}, "dtype": {"type": "DT_FLOAT"}}}, {"name": "conv2d_18/convolution/merged_input", "op": "Const", "attr": {"value": {"tensor": {"dtype": "DT_FLOAT", "tensorShape": {"dim": [{"size": "1"}, {"size": "1"}, {"size": "64"}, {"size": "32"}]}}}, "dtype": {"type": "DT_FLOAT"}}}, {"name": "batch_normalization_17/batchnorm/sub", "op": "Const", "attr": {"value": {"tensor": {"dtype": "DT_FLOAT", "tensorShape": {"dim": [{"size": "32"}]}}}, "dtype": {"type": "DT_FLOAT"}}}, {"name": "conv2d_19/convolution/merged_input", "op": "Const", "attr": {"dtype": {"type": "DT_FLOAT"}, "value": {"tensor": {"dtype": "DT_FLOAT", "tensorShape": {"dim": [{"size": "3"}, {"size": "3"}, {"size": "32"}, {"size": "32"}]}}}}}, {"name": "batch_normalization_18/batchnorm/sub", "op": "Const", "attr": {"value": {"tensor": {"dtype": "DT_FLOAT", "tensorShape": {"dim": [{"size": "32"}]}}}, "dtype": {"type": "DT_FLOAT"}}}, {"name": "conv2d_20/kernel", "op": "Const", "attr": {"dtype": {"type": "DT_FLOAT"}, "value": {"tensor": {"dtype": "DT_FLOAT", "tensorShape": {"dim": [{"size": "1"}, {"size": "1"}, {"size": "32"}, {"size": "128"}]}}}}}, {"name": "conv2d_21/kernel", "op": "Const", "attr": {"value": {"tensor": {"dtype": "DT_FLOAT", "tensorShape": {"dim": [{"size": "1"}, {"size": "1"}, {"size": "64"}, {"size": "128"}]}}}, "dtype": {"type": "DT_FLOAT"}}}, {"name": "batch_normalization_19/batchnorm/mul", "op": "Const", "attr": {"value": {"tensor": {"dtype": "DT_FLOAT", "tensorShape": {"dim": [{"size": "128"}]}}}, "dtype": {"type": "DT_FLOAT"}}}, {"name": "batch_normalization_19/batchnorm/sub", "op": "Const", "attr": {"value": {"tensor": {"dtype": "DT_FLOAT", "tensorShape": {"dim": [{"size": "128"}]}}}, "dtype": {"type": "DT_FLOAT"}}}, {"name": "conv2d_22/convolution/merged_input", "op": "Const", "attr": {"value": {"tensor": {"dtype": "DT_FLOAT", "tensorShape": {"dim": [{"size": "1"}, {"size": "1"}, {"size": "128"}, {"size": "32"}]}}}, "dtype": {"type": "DT_FLOAT"}}}, {"name": "batch_normalization_20/batchnorm/sub", "op": "Const", "attr": {"value": {"tensor": {"dtype": "DT_FLOAT", "tensorShape": {"dim": [{"size": "32"}]}}}, "dtype": {"type": "DT_FLOAT"}}}, {"name": "conv2d_23/convolution/merged_input", "op": "Const", "attr": {"value": {"tensor": {"dtype": "DT_FLOAT", "tensorShape": {"dim": [{"size": "3"}, {"size": "3"}, {"size": "32"}, {"size": "32"}]}}}, "dtype": {"type": "DT_FLOAT"}}}, {"name": "batch_normalization_21/batchnorm/sub", "op": "Const", "attr": {"value": {"tensor": {"dtype": "DT_FLOAT", "tensorShape": {"dim": [{"size": "32"}]}}}, "dtype": {"type": "DT_FLOAT"}}}, {"name": "conv2d_24/kernel", "op": "Const", "attr": {"value": {"tensor": {"dtype": "DT_FLOAT", "tensorShape": {"dim": [{"size": "1"}, {"size": "1"}, {"size": "32"}, {"size": "128"}]}}}, "dtype": {"type": "DT_FLOAT"}}}, {"name": "batch_normalization_22/batchnorm/mul", "op": "Const", "attr": {"value": {"tensor": {"dtype": "DT_FLOAT", "tensorShape": {"dim": [{"size": "128"}]}}}, "dtype": {"type": "DT_FLOAT"}}}, {"name": "batch_normalization_22/batchnorm/sub", "op": "Const", "attr": {"dtype": {"type": "DT_FLOAT"}, "value": {"tensor": {"dtype": "DT_FLOAT", "tensorShape": {"dim": [{"size": "128"}]}}}}}, {"name": "conv2d_25/convolution/merged_input", "op": "Const", "attr": {"value": {"tensor": {"dtype": "DT_FLOAT", "tensorShape": {"dim": [{"size": "1"}, {"size": "1"}, {"size": "128"}, {"size": "32"}]}}}, "dtype": {"type": "DT_FLOAT"}}}, {"name": "batch_normalization_23/batchnorm/sub", "op": "Const", "attr": {"value": {"tensor": {"dtype": "DT_FLOAT", "tensorShape": {"dim": [{"size": "32"}]}}}, "dtype": {"type": "DT_FLOAT"}}}, {"name": "conv2d_26/convolution/merged_input", "op": "Const", "attr": {"value": {"tensor": {"dtype": "DT_FLOAT", "tensorShape": {"dim": [{"size": "3"}, {"size": "3"}, {"size": "32"}, {"size": "32"}]}}}, "dtype": {"type": "DT_FLOAT"}}}, {"name": "batch_normalization_24/batchnorm/sub", "op": "Const", "attr": {"dtype": {"type": "DT_FLOAT"}, "value": {"tensor": {"dtype": "DT_FLOAT", "tensorShape": {"dim": [{"size": "32"}]}}}}}, {"name": "conv2d_27/kernel", "op": "Const", "attr": {"value": {"tensor": {"dtype": "DT_FLOAT", "tensorShape": {"dim": [{"size": "1"}, {"size": "1"}, {"size": "32"}, {"size": "128"}]}}}, "dtype": {"type": "DT_FLOAT"}}}, {"name": "conv2d_98/kernel", "op": "Const", "attr": {"value": {"tensor": {"dtype": "DT_FLOAT", "tensorShape": {"dim": [{"size": "1"}, {"size": "1"}, {"size": "258"}, {"size": "128"}]}}}, "dtype": {"type": "DT_FLOAT"}}}, {"name": "conv2d_99/convolution/merged_input", "op": "Const", "attr": {"value": {"tensor": {"dtype": "DT_FLOAT", "tensorShape": {"dim": [{"size": "3"}, {"size": "3"}, {"size": "128"}, {"size": "128"}]}}}, "dtype": {"type": "DT_FLOAT"}}}, {"name": "batch_normalization_88/batchnorm/mul_1", "op": "Const", "attr": {"value": {"tensor": {"dtype": "DT_FLOAT", "tensorShape": {"dim": [{"size": "128"}]}}}, "dtype": {"type": "DT_FLOAT"}}}, {"name": "dense_14/kernel", "op": "Const", "attr": {"value": {"tensor": {"dtype": "DT_FLOAT", "tensorShape": {"dim": [{"size": "128"}, {"size": "128"}]}}}, "dtype": {"type": "DT_FLOAT"}}}, {"name": "dense_14/bias", "op": "Const", "attr": {"value": {"tensor": {"dtype": "DT_FLOAT", "tensorShape": {"dim": [{"size": "128"}]}}}, "dtype": {"type": "DT_FLOAT"}}}, {"name": "batch_normalization_89/batchnorm/mul", "op": "Const", "attr": {"value": {"tensor": {"dtype": "DT_FLOAT", "tensorShape": {"dim": [{"size": "128"}]}}}, "dtype": {"type": "DT_FLOAT"}}}, {"name": "batch_normalization_89/batchnorm/sub", "op": "Const", "attr": {"value": {"tensor": {"dtype": "DT_FLOAT", "tensorShape": {"dim": [{"size": "128"}]}}}, "dtype": {"type": "DT_FLOAT"}}}, {"name": "conv2d_100/convolution/merged_input", "op": "Const", "attr": {"value": {"tensor": {"dtype": "DT_FLOAT", "tensorShape": {"dim": [{"size": "1"}, {"size": "1"}, {"size": "128"}, {"size": "32"}]}}}, "dtype": {"type": "DT_FLOAT"}}}, {"name": "batch_normalization_90/batchnorm/sub", "op": "Const", "attr": {"dtype": {"type": "DT_FLOAT"}, "value": {"tensor": {"dtype": "DT_FLOAT", "tensorShape": {"dim": [{"size": "32"}]}}}}}, {"name": "conv2d_101/convolution/merged_input", "op": "Const", "attr": {"value": {"tensor": {"dtype": "DT_FLOAT", "tensorShape": {"dim": [{"size": "3"}, {"size": "3"}, {"size": "32"}, {"size": "32"}]}}}, "dtype": {"type": "DT_FLOAT"}}}, {"name": "batch_normalization_91/batchnorm/sub", "op": "Const", "attr": {"value": {"tensor": {"dtype": "DT_FLOAT", "tensorShape": {"dim": [{"size": "32"}]}}}, "dtype": {"type": "DT_FLOAT"}}}, {"name": "conv2d_102/kernel", "op": "Const", "attr": {"value": {"tensor": {"dtype": "DT_FLOAT", "tensorShape": {"dim": [{"size": "1"}, {"size": "1"}, {"size": "32"}, {"size": "128"}]}}}, "dtype": {"type": "DT_FLOAT"}}}, {"name": "batch_normalization_92/batchnorm/mul", "op": "Const", "attr": {"value": {"tensor": {"dtype": "DT_FLOAT", "tensorShape": {"dim": [{"size": "128"}]}}}, "dtype": {"type": "DT_FLOAT"}}}, {"name": "batch_normalization_92/batchnorm/sub", "op": "Const", "attr": {"value": {"tensor": {"dtype": "DT_FLOAT", "tensorShape": {"dim": [{"size": "128"}]}}}, "dtype": {"type": "DT_FLOAT"}}}, {"name": "conv2d_103/convolution/merged_input", "op": "Const", "attr": {"value": {"tensor": {"dtype": "DT_FLOAT", "tensorShape": {"dim": [{"size": "1"}, {"size": "1"}, {"size": "128"}, {"size": "32"}]}}}, "dtype": {"type": "DT_FLOAT"}}}, {"name": "batch_normalization_93/batchnorm/sub", "op": "Const", "attr": {"value": {"tensor": {"dtype": "DT_FLOAT", "tensorShape": {"dim": [{"size": "32"}]}}}, "dtype": {"type": "DT_FLOAT"}}}, {"name": "conv2d_104/convolution/merged_input", "op": "Const", "attr": {"value": {"tensor": {"dtype": "DT_FLOAT", "tensorShape": {"dim": [{"size": "3"}, {"size": "3"}, {"size": "32"}, {"size": "32"}]}}}, "dtype": {"type": "DT_FLOAT"}}}, {"name": "batch_normalization_94/batchnorm/sub", "op": "Const", "attr": {"value": {"tensor": {"dtype": "DT_FLOAT", "tensorShape": {"dim": [{"size": "32"}]}}}, "dtype": {"type": "DT_FLOAT"}}}, {"name": "conv2d_105/kernel", "op": "Const", "attr": {"value": {"tensor": {"dtype": "DT_FLOAT", "tensorShape": {"dim": [{"size": "1"}, {"size": "1"}, {"size": "32"}, {"size": "128"}]}}}, "dtype": {"type": "DT_FLOAT"}}}, {"name": "self_attention_4/gamma", "op": "Const", "attr": {"dtype": {"type": "DT_FLOAT"}, "value": {"tensor": {"dtype": "DT_FLOAT", "tensorShape": {"dim": [{"size": "1"}]}}}}}, {"name": "sub_pixel_conv2d_8/kernel", "op": "Const", "attr": {"value": {"tensor": {"dtype": "DT_FLOAT", "tensorShape": {"dim": [{"size": "1"}, {"size": "1"}, {"size": "128"}, {"size": "256"}]}}}, "dtype": {"type": "DT_FLOAT"}}}, {"name": "dense_16/kernel", "op": "Const", "attr": {"value": {"tensor": {"dtype": "DT_FLOAT", "tensorShape": {"dim": [{"size": "64"}, {"size": "32"}]}}}, "dtype": {"type": "DT_FLOAT"}}}, {"name": "dense_17/kernel", "op": "Const", "attr": {"dtype": {"type": "DT_FLOAT"}, "value": {"tensor": {"dtype": "DT_FLOAT", "tensorShape": {"dim": [{"size": "32"}, {"size": "64"}]}}}}}, {"name": "batch_normalization_7/batchnorm/mul", "op": "Const", "attr": {"value": {"tensor": {"dtype": "DT_FLOAT", "tensorShape": {"dim": [{"size": "32"}]}}}, "dtype": {"type": "DT_FLOAT"}}}, {"name": "batch_normalization_7/batchnorm/sub", "op": "Const", "attr": {"value": {"tensor": {"dtype": "DT_FLOAT", "tensorShape": {"dim": [{"size": "32"}]}}}, "dtype": {"type": "DT_FLOAT"}}}, {"name": "conv2d_8/convolution/merged_input", "op": "Const", "attr": {"value": {"tensor": {"dtype": "DT_FLOAT", "tensorShape": {"dim": [{"size": "1"}, {"size": "1"}, {"size": "32"}, {"size": "16"}]}}}, "dtype": {"type": "DT_FLOAT"}}}, {"name": "batch_normalization_8/batchnorm/sub", "op": "Const", "attr": {"value": {"tensor": {"dtype": "DT_FLOAT", "tensorShape": {"dim": [{"size": "16"}]}}}, "dtype": {"type": "DT_FLOAT"}}}, {"name": "conv2d_9/convolution/merged_input", "op": "Const", "attr": {"dtype": {"type": "DT_FLOAT"}, "value": {"tensor": {"dtype": "DT_FLOAT", "tensorShape": {"dim": [{"size": "3"}, {"size": "3"}, {"size": "16"}, {"size": "16"}]}}}}}, {"name": "batch_normalization_9/batchnorm/sub", "op": "Const", "attr": {"value": {"tensor": {"dtype": "DT_FLOAT", "tensorShape": {"dim": [{"size": "16"}]}}}, "dtype": {"type": "DT_FLOAT"}}}, {"name": "conv2d_10/kernel", "op": "Const", "attr": {"value": {"tensor": {"dtype": "DT_FLOAT", "tensorShape": {"dim": [{"size": "1"}, {"size": "1"}, {"size": "16"}, {"size": "64"}]}}}, "dtype": {"type": "DT_FLOAT"}}}, {"name": "leaky_re_lu_129/LeakyRelu/alpha", "op": "Const", "attr": {"value": {"tensor": {"dtype": "DT_FLOAT", "tensorShape": {}}}, "dtype": {"type": "DT_FLOAT"}}}, {"name": "batch_normalization_1/batchnorm/mul", "op": "Const", "attr": {"value": {"tensor": {"dtype": "DT_FLOAT", "tensorShape": {"dim": [{"size": "3"}]}}}, "dtype": {"type": "DT_FLOAT"}}}, {"name": "batch_normalization_1/batchnorm/sub", "op": "Const", "attr": {"value": {"tensor": {"dtype": "DT_FLOAT", "tensorShape": {"dim": [{"size": "3"}]}}}, "dtype": {"type": "DT_FLOAT"}}}, {"name": "conv2d_1/convolution/merged_input", "op": "Const", "attr": {"value": {"tensor": {"dtype": "DT_FLOAT", "tensorShape": {"dim": [{"size": "1"}, {"size": "1"}, {"size": "3"}, {"size": "8"}]}}}, "dtype": {"type": "DT_FLOAT"}}}, {"name": "batch_normalization_2/batchnorm/sub", "op": "Const", "attr": {"value": {"tensor": {"dtype": "DT_FLOAT", "tensorShape": {"dim": [{"size": "8"}]}}}, "dtype": {"type": "DT_FLOAT"}}}, {"name": "conv2d_2/convolution/merged_input", "op": "Const", "attr": {"value": {"tensor": {"dtype": "DT_FLOAT", "tensorShape": {"dim": [{"size": "3"}, {"size": "3"}, {"size": "8"}, {"size": "8"}]}}}, "dtype": {"type": "DT_FLOAT"}}}, {"name": "batch_normalization_3/batchnorm/sub", "op": "Const", "attr": {"value": {"tensor": {"dtype": "DT_FLOAT", "tensorShape": {"dim": [{"size": "8"}]}}}, "dtype": {"type": "DT_FLOAT"}}}, {"name": "conv2d_3/kernel", "op": "Const", "attr": {"value": {"tensor": {"dtype": "DT_FLOAT", "tensorShape": {"dim": [{"size": "1"}, {"size": "1"}, {"size": "8"}, {"size": "32"}]}}}, "dtype": {"type": "DT_FLOAT"}}}, {"name": "coordinate_channel2d_7/arange/start", "op": "Const", "attr": {"value": {"tensor": {"dtype": "DT_INT32", "tensorShape": {}}}, "dtype": {"type": "DT_INT32"}}}, {"name": "coordinate_channel2d_7/strided_slice/stack", "op": "Const", "attr": {"value": {"tensor": {"dtype": "DT_INT32", "tensorShape": {"dim": [{"size": "1"}]}}}, "dtype": {"type": "DT_INT32"}}}, {"name": "coordinate_channel2d_7/ExpandDims/dim", "op": "Const", "attr": {"value": {"tensor": {"dtype": "DT_INT32", "tensorShape": {}}}, "dtype": {"type": "DT_INT32"}}}, {"name": "coordinate_channel2d_7/transpose/perm", "op": "Const", "attr": {"value": {"tensor": {"dtype": "DT_INT32", "tensorShape": {"dim": [{"size": "4"}]}}}, "dtype": {"type": "DT_INT32"}}}, {"name": "conv2d_4/kernel", "op": "Const", "attr": {"value": {"tensor": {"dtype": "DT_FLOAT", "tensorShape": {"dim": [{"size": "1"}, {"size": "1"}, {"size": "3"}, {"size": "32"}]}}}, "dtype": {"type": "DT_FLOAT"}}}, {"name": "batch_normalization_4/batchnorm/mul", "op": "Const", "attr": {"value": {"tensor": {"dtype": "DT_FLOAT", "tensorShape": {"dim": [{"size": "32"}]}}}, "dtype": {"type": "DT_FLOAT"}}}, {"name": "batch_normalization_4/batchnorm/sub", "op": "Const", "attr": {"dtype": {"type": "DT_FLOAT"}, "value": {"tensor": {"dtype": "DT_FLOAT", "tensorShape": {"dim": [{"size": "32"}]}}}}}, {"name": "conv2d_5/convolution/merged_input", "op": "Const", "attr": {"value": {"tensor": {"dtype": "DT_FLOAT", "tensorShape": {"dim": [{"size": "1"}, {"size": "1"}, {"size": "32"}, {"size": "8"}]}}}, "dtype": {"type": "DT_FLOAT"}}}, {"name": "batch_normalization_5/batchnorm/sub", "op": "Const", "attr": {"value": {"tensor": {"dtype": "DT_FLOAT", "tensorShape": {"dim": [{"size": "8"}]}}}, "dtype": {"type": "DT_FLOAT"}}}, {"name": "conv2d_6/convolution/merged_input", "op": "Const", "attr": {"value": {"tensor": {"dtype": "DT_FLOAT", "tensorShape": {"dim": [{"size": "3"}, {"size": "3"}, {"size": "8"}, {"size": "8"}]}}}, "dtype": {"type": "DT_FLOAT"}}}, {"name": "batch_normalization_6/batchnorm/sub", "op": "Const", "attr": {"value": {"tensor": {"dtype": "DT_FLOAT", "tensorShape": {"dim": [{"size": "8"}]}}}, "dtype": {"type": "DT_FLOAT"}}}, {"name": "conv2d_7/kernel", "op": "Const", "attr": {"value": {"tensor": {"dtype": "DT_FLOAT", "tensorShape": {"dim": [{"size": "1"}, {"size": "1"}, {"size": "8"}, {"size": "32"}]}}}, "dtype": {"type": "DT_FLOAT"}}}, {"name": "conv2d_11/kernel", "op": "Const", "attr": {"value": {"tensor": {"dtype": "DT_FLOAT", "tensorShape": {"dim": [{"size": "1"}, {"size": "1"}, {"size": "32"}, {"size": "64"}]}}}, "dtype": {"type": "DT_FLOAT"}}}, {"name": "batch_normalization_10/batchnorm/mul", "op": "Const", "attr": {"value": {"tensor": {"dtype": "DT_FLOAT", "tensorShape": {"dim": [{"size": "64"}]}}}, "dtype": {"type": "DT_FLOAT"}}}, {"name": "batch_normalization_10/batchnorm/sub", "op": "Const", "attr": {"value": {"tensor": {"dtype": "DT_FLOAT", "tensorShape": {"dim": [{"size": "64"}]}}}, "dtype": {"type": "DT_FLOAT"}}}, {"name": "conv2d_12/convolution/merged_input", "op": "Const", "attr": {"value": {"tensor": {"dtype": "DT_FLOAT", "tensorShape": {"dim": [{"size": "1"}, {"size": "1"}, {"size": "64"}, {"size": "16"}]}}}, "dtype": {"type": "DT_FLOAT"}}}, {"name": "batch_normalization_11/batchnorm/sub", "op": "Const", "attr": {"value": {"tensor": {"dtype": "DT_FLOAT", "tensorShape": {"dim": [{"size": "16"}]}}}, "dtype": {"type": "DT_FLOAT"}}}, {"name": "conv2d_13/convolution/merged_input", "op": "Const", "attr": {"value": {"tensor": {"dtype": "DT_FLOAT", "tensorShape": {"dim": [{"size": "3"}, {"size": "3"}, {"size": "16"}, {"size": "16"}]}}}, "dtype": {"type": "DT_FLOAT"}}}, {"name": "batch_normalization_12/batchnorm/sub", "op": "Const", "attr": {"value": {"tensor": {"dtype": "DT_FLOAT", "tensorShape": {"dim": [{"size": "16"}]}}}, "dtype": {"type": "DT_FLOAT"}}}, {"name": "conv2d_14/kernel", "op": "Const", "attr": {"value": {"tensor": {"dtype": "DT_FLOAT", "tensorShape": {"dim": [{"size": "1"}, {"size": "1"}, {"size": "16"}, {"size": "64"}]}}}, "dtype": {"type": "DT_FLOAT"}}}, {"name": "batch_normalization_13/batchnorm/mul", "op": "Const", "attr": {"value": {"tensor": {"dtype": "DT_FLOAT", "tensorShape": {"dim": [{"size": "64"}]}}}, "dtype": {"type": "DT_FLOAT"}}}, {"name": "batch_normalization_13/batchnorm/sub", "op": "Const", "attr": {"value": {"tensor": {"dtype": "DT_FLOAT", "tensorShape": {"dim": [{"size": "64"}]}}}, "dtype": {"type": "DT_FLOAT"}}}, {"name": "conv2d_15/convolution/merged_input", "op": "Const", "attr": {"value": {"tensor": {"dtype": "DT_FLOAT", "tensorShape": {"dim": [{"size": "1"}, {"size": "1"}, {"size": "64"}, {"size": "16"}]}}}, "dtype": {"type": "DT_FLOAT"}}}, {"name": "batch_normalization_14/batchnorm/sub", "op": "Const", "attr": {"value": {"tensor": {"dtype": "DT_FLOAT", "tensorShape": {"dim": [{"size": "16"}]}}}, "dtype": {"type": "DT_FLOAT"}}}, {"name": "conv2d_16/convolution/merged_input", "op": "Const", "attr": {"value": {"tensor": {"dtype": "DT_FLOAT", "tensorShape": {"dim": [{"size": "3"}, {"size": "3"}, {"size": "16"}, {"size": "16"}]}}}, "dtype": {"type": "DT_FLOAT"}}}, {"name": "batch_normalization_15/batchnorm/sub", "op": "Const", "attr": {"value": {"tensor": {"dtype": "DT_FLOAT", "tensorShape": {"dim": [{"size": "16"}]}}}, "dtype": {"type": "DT_FLOAT"}}}, {"name": "conv2d_17/kernel", "op": "Const", "attr": {"value": {"tensor": {"dtype": "DT_FLOAT", "tensorShape": {"dim": [{"size": "1"}, {"size": "1"}, {"size": "16"}, {"size": "64"}]}}}, "dtype": {"type": "DT_FLOAT"}}}, {"name": "coordinate_channel2d_7/mul/y", "op": "Const", "attr": {"value": {"tensor": {"dtype": "DT_FLOAT", "tensorShape": {}}}, "dtype": {"type": "DT_FLOAT"}}}, {"name": "conv2d_110/kernel", "op": "Const", "attr": {"value": {"tensor": {"dtype": "DT_FLOAT", "tensorShape": {"dim": [{"size": "1"}, {"size": "1"}, {"size": "130"}, {"size": "64"}]}}}, "dtype": {"type": "DT_FLOAT"}}}, {"name": "conv2d_111/convolution/merged_input", "op": "Const", "attr": {"value": {"tensor": {"dtype": "DT_FLOAT", "tensorShape": {"dim": [{"size": "3"}, {"size": "3"}, {"size": "64"}, {"size": "64"}]}}}, "dtype": {"type": "DT_FLOAT"}}}, {"name": "batch_normalization_98/batchnorm/mul_1", "op": "Const", "attr": {"value": {"tensor": {"dtype": "DT_FLOAT", "tensorShape": {"dim": [{"size": "64"}]}}}, "dtype": {"type": "DT_FLOAT"}}}, {"name": "dense_18/kernel", "op": "Const", "attr": {"dtype": {"type": "DT_FLOAT"}, "value": {"tensor": {"dtype": "DT_FLOAT", "tensorShape": {"dim": [{"size": "128"}, {"size": "64"}]}}}}}, {"name": "dense_18/bias", "op": "Const", "attr": {"value": {"tensor": {"dtype": "DT_FLOAT", "tensorShape": {"dim": [{"size": "64"}]}}}, "dtype": {"type": "DT_FLOAT"}}}, {"name": "batch_normalization_99/batchnorm/mul", "op": "Const", "attr": {"value": {"tensor": {"dtype": "DT_FLOAT", "tensorShape": {"dim": [{"size": "64"}]}}}, "dtype": {"type": "DT_FLOAT"}}}, {"name": "batch_normalization_99/batchnorm/sub", "op": "Const", "attr": {"dtype": {"type": "DT_FLOAT"}, "value": {"tensor": {"dtype": "DT_FLOAT", "tensorShape": {"dim": [{"size": "64"}]}}}}}, {"name": "conv2d_112/convolution/merged_input", "op": "Const", "attr": {"value": {"tensor": {"dtype": "DT_FLOAT", "tensorShape": {"dim": [{"size": "1"}, {"size": "1"}, {"size": "64"}, {"size": "16"}]}}}, "dtype": {"type": "DT_FLOAT"}}}, {"name": "batch_normalization_100/batchnorm/sub", "op": "Const", "attr": {"value": {"tensor": {"dtype": "DT_FLOAT", "tensorShape": {"dim": [{"size": "16"}]}}}, "dtype": {"type": "DT_FLOAT"}}}, {"name": "conv2d_113/convolution/merged_input", "op": "Const", "attr": {"value": {"tensor": {"dtype": "DT_FLOAT", "tensorShape": {"dim": [{"size": "3"}, {"size": "3"}, {"size": "16"}, {"size": "16"}]}}}, "dtype": {"type": "DT_FLOAT"}}}, {"name": "batch_normalization_101/batchnorm/sub", "op": "Const", "attr": {"value": {"tensor": {"dtype": "DT_FLOAT", "tensorShape": {"dim": [{"size": "16"}]}}}, "dtype": {"type": "DT_FLOAT"}}}, {"name": "conv2d_114/kernel", "op": "Const", "attr": {"value": {"tensor": {"dtype": "DT_FLOAT", "tensorShape": {"dim": [{"size": "1"}, {"size": "1"}, {"size": "16"}, {"size": "64"}]}}}, "dtype": {"type": "DT_FLOAT"}}}, {"name": "batch_normalization_102/batchnorm/mul", "op": "Const", "attr": {"value": {"tensor": {"dtype": "DT_FLOAT", "tensorShape": {"dim": [{"size": "64"}]}}}, "dtype": {"type": "DT_FLOAT"}}}, {"name": "batch_normalization_102/batchnorm/sub", "op": "Const", "attr": {"dtype": {"type": "DT_FLOAT"}, "value": {"tensor": {"dtype": "DT_FLOAT", "tensorShape": {"dim": [{"size": "64"}]}}}}}, {"name": "conv2d_115/convolution/merged_input", "op": "Const", "attr": {"value": {"tensor": {"dtype": "DT_FLOAT", "tensorShape": {"dim": [{"size": "1"}, {"size": "1"}, {"size": "64"}, {"size": "16"}]}}}, "dtype": {"type": "DT_FLOAT"}}}, {"name": "batch_normalization_103/batchnorm/sub", "op": "Const", "attr": {"value": {"tensor": {"dtype": "DT_FLOAT", "tensorShape": {"dim": [{"size": "16"}]}}}, "dtype": {"type": "DT_FLOAT"}}}, {"name": "conv2d_116/convolution/merged_input", "op": "Const", "attr": {"value": {"tensor": {"dtype": "DT_FLOAT", "tensorShape": {"dim": [{"size": "3"}, {"size": "3"}, {"size": "16"}, {"size": "16"}]}}}, "dtype": {"type": "DT_FLOAT"}}}, {"name": "batch_normalization_104/batchnorm/sub", "op": "Const", "attr": {"value": {"tensor": {"dtype": "DT_FLOAT", "tensorShape": {"dim": [{"size": "16"}]}}}, "dtype": {"type": "DT_FLOAT"}}}, {"name": "conv2d_117/kernel", "op": "Const", "attr": {"value": {"tensor": {"dtype": "DT_FLOAT", "tensorShape": {"dim": [{"size": "1"}, {"size": "1"}, {"size": "16"}, {"size": "64"}]}}}, "dtype": {"type": "DT_FLOAT"}}}, {"name": "self_attention_5/gamma", "op": "Const", "attr": {"value": {"tensor": {"dtype": "DT_FLOAT", "tensorShape": {"dim": [{"size": "1"}]}}}, "dtype": {"type": "DT_FLOAT"}}}, {"name": "sub_pixel_conv2d_10/kernel", "op": "Const", "attr": {"value": {"tensor": {"dtype": "DT_FLOAT", "tensorShape": {"dim": [{"size": "1"}, {"size": "1"}, {"size": "64"}, {"size": "128"}]}}}, "dtype": {"type": "DT_FLOAT"}}}, {"name": "global_average_pooling2d_5/Mean/reduction_indices", "op": "Const", "attr": {"value": {"tensor": {"dtype": "DT_INT32", "tensorShape": {"dim": [{"size": "2"}]}}}, "dtype": {"type": "DT_INT32"}}}, {"name": "dense_20/kernel", "op": "Const", "attr": {"value": {"tensor": {"dtype": "DT_FLOAT", "tensorShape": {"dim": [{"size": "32"}, {"size": "16"}]}}}, "dtype": {"type": "DT_FLOAT"}}}, {"name": "dense_21/kernel", "op": "Const", "attr": {"value": {"tensor": {"dtype": "DT_FLOAT", "tensorShape": {"dim": [{"size": "16"}, {"size": "32"}]}}}, "dtype": {"type": "DT_FLOAT"}}}, {"name": "coordinate_channel2d_7/strided_slice_1/stack_1", "op": "Const", "attr": {"value": {"tensor": {"dtype": "DT_INT32", "tensorShape": {"dim": [{"size": "1"}]}}}, "dtype": {"type": "DT_INT32"}}}, {"name": "coordinate_channel2d_1/strided_slice_2/stack_1", "op": "Const", "attr": {"value": {"tensor": {"dtype": "DT_INT32", "tensorShape": {"dim": [{"size": "1"}]}}}, "dtype": {"type": "DT_INT32"}}}, {"name": "coordinate_channel2d_7/strided_slice/stack_1", "op": "Const", "attr": {"value": {"tensor": {"dtype": "DT_INT32", "tensorShape": {"dim": [{"size": "1"}]}}}, "dtype": {"type": "DT_INT32"}}}, {"name": "coordinate_channel2d_7/sub_1/y", "op": "Const", "attr": {"value": {"tensor": {"dtype": "DT_FLOAT", "tensorShape": {}}}, "dtype": {"type": "DT_FLOAT"}}}, {"name": "coordinate_channel2d_1/concat/axis", "op": "Const", "attr": {"value": {"tensor": {"dtype": "DT_INT32", "tensorShape": {}}}, "dtype": {"type": "DT_INT32"}}}, {"name": "conv2d_121/kernel", "op": "Const", "attr": {"value": {"tensor": {"dtype": "DT_FLOAT", "tensorShape": {"dim": [{"size": "1"}, {"size": "1"}, {"size": "66"}, {"size": "32"}]}}}, "dtype": {"type": "DT_FLOAT"}}}, {"name": "conv2d_122/convolution/merged_input", "op": "Const", "attr": {"value": {"tensor": {"dtype": "DT_FLOAT", "tensorShape": {"dim": [{"size": "3"}, {"size": "3"}, {"size": "32"}, {"size": "32"}]}}}, "dtype": {"type": "DT_FLOAT"}}}, {"name": "batch_normalization_108/batchnorm/mul_1", "op": "Const", "attr": {"value": {"tensor": {"dtype": "DT_FLOAT", "tensorShape": {"dim": [{"size": "32"}]}}}, "dtype": {"type": "DT_FLOAT"}}}, {"name": "dense_1/kernel", "op": "Const", "attr": {"value": {"tensor": {"dtype": "DT_FLOAT", "tensorShape": {"dim": [{"size": "3"}, {"size": "128"}]}}}, "dtype": {"type": "DT_FLOAT"}}}, {"name": "dense_1/bias", "op": "Const", "attr": {"value": {"tensor": {"dtype": "DT_FLOAT", "tensorShape": {"dim": [{"size": "128"}]}}}, "dtype": {"type": "DT_FLOAT"}}}, {"name": "dense_22/kernel", "op": "Const", "attr": {"value": {"tensor": {"dtype": "DT_FLOAT", "tensorShape": {"dim": [{"size": "128"}, {"size": "32"}]}}}, "dtype": {"type": "DT_FLOAT"}}}, {"name": "dense_22/bias", "op": "Const", "attr": {"value": {"tensor": {"dtype": "DT_FLOAT", "tensorShape": {"dim": [{"size": "32"}]}}}, "dtype": {"type": "DT_FLOAT"}}}, {"name": "multiply_16/ExpandDims/dim", "op": "Const", "attr": {"value": {"tensor": {"dtype": "DT_INT32", "tensorShape": {}}}, "dtype": {"type": "DT_INT32"}}}, {"name": "batch_normalization_109/batchnorm/mul", "op": "Const", "attr": {"value": {"tensor": {"dtype": "DT_FLOAT", "tensorShape": {"dim": [{"size": "32"}]}}}, "dtype": {"type": "DT_FLOAT"}}}, {"name": "batch_normalization_109/batchnorm/sub", "op": "Const", "attr": {"dtype": {"type": "DT_FLOAT"}, "value": {"tensor": {"dtype": "DT_FLOAT", "tensorShape": {"dim": [{"size": "32"}]}}}}}, {"name": "conv2d_123/convolution/merged_input", "op": "Const", "attr": {"value": {"tensor": {"dtype": "DT_FLOAT", "tensorShape": {"dim": [{"size": "1"}, {"size": "1"}, {"size": "32"}, {"size": "8"}]}}}, "dtype": {"type": "DT_FLOAT"}}}, {"name": "batch_normalization_110/batchnorm/sub", "op": "Const", "attr": {"value": {"tensor": {"dtype": "DT_FLOAT", "tensorShape": {"dim": [{"size": "8"}]}}}, "dtype": {"type": "DT_FLOAT"}}}, {"name": "conv2d_124/convolution/merged_input", "op": "Const", "attr": {"value": {"tensor": {"dtype": "DT_FLOAT", "tensorShape": {"dim": [{"size": "3"}, {"size": "3"}, {"size": "8"}, {"size": "8"}]}}}, "dtype": {"type": "DT_FLOAT"}}}, {"name": "batch_normalization_111/batchnorm/sub", "op": "Const", "attr": {"value": {"tensor": {"dtype": "DT_FLOAT", "tensorShape": {"dim": [{"size": "8"}]}}}, "dtype": {"type": "DT_FLOAT"}}}, {"name": "conv2d_125/kernel", "op": "Const", "attr": {"value": {"tensor": {"dtype": "DT_FLOAT", "tensorShape": {"dim": [{"size": "1"}, {"size": "1"}, {"size": "8"}, {"size": "32"}]}}}, "dtype": {"type": "DT_FLOAT"}}}, {"name": "batch_normalization_112/batchnorm/mul", "op": "Const", "attr": {"value": {"tensor": {"dtype": "DT_FLOAT", "tensorShape": {"dim": [{"size": "32"}]}}}, "dtype": {"type": "DT_FLOAT"}}}, {"name": "batch_normalization_112/batchnorm/sub", "op": "Const", "attr": {"value": {"tensor": {"dtype": "DT_FLOAT", "tensorShape": {"dim": [{"size": "32"}]}}}, "dtype": {"type": "DT_FLOAT"}}}, {"name": "conv2d_126/convolution/merged_input", "op": "Const", "attr": {"value": {"tensor": {"dtype": "DT_FLOAT", "tensorShape": {"dim": [{"size": "1"}, {"size": "1"}, {"size": "32"}, {"size": "8"}]}}}, "dtype": {"type": "DT_FLOAT"}}}, {"name": "batch_normalization_113/batchnorm/sub", "op": "Const", "attr": {"value": {"tensor": {"dtype": "DT_FLOAT", "tensorShape": {"dim": [{"size": "8"}]}}}, "dtype": {"type": "DT_FLOAT"}}}, {"name": "conv2d_127/convolution/merged_input", "op": "Const", "attr": {"value": {"tensor": {"dtype": "DT_FLOAT", "tensorShape": {"dim": [{"size": "3"}, {"size": "3"}, {"size": "8"}, {"size": "8"}]}}}, "dtype": {"type": "DT_FLOAT"}}}, {"name": "batch_normalization_114/batchnorm/sub", "op": "Const", "attr": {"value": {"tensor": {"dtype": "DT_FLOAT", "tensorShape": {"dim": [{"size": "8"}]}}}, "dtype": {"type": "DT_FLOAT"}}}, {"name": "conv2d_128/kernel", "op": "Const", "attr": {"value": {"tensor": {"dtype": "DT_FLOAT", "tensorShape": {"dim": [{"size": "1"}, {"size": "1"}, {"size": "8"}, {"size": "32"}]}}}, "dtype": {"type": "DT_FLOAT"}}}, {"name": "conv2d_132/kernel", "op": "Const", "attr": {"value": {"tensor": {"dtype": "DT_FLOAT", "tensorShape": {"dim": [{"size": "1"}, {"size": "1"}, {"size": "32"}, {"size": "16"}]}}}, "dtype": {"type": "DT_FLOAT"}}}, {"name": "batch_normalization_118/batchnorm/mul", "op": "Const", "attr": {"value": {"tensor": {"dtype": "DT_FLOAT", "tensorShape": {"dim": [{"size": "16"}]}}}, "dtype": {"type": "DT_FLOAT"}}}, {"name": "batch_normalization_118/batchnorm/sub", "op": "Const", "attr": {"value": {"tensor": {"dtype": "DT_FLOAT", "tensorShape": {"dim": [{"size": "16"}]}}}, "dtype": {"type": "DT_FLOAT"}}}, {"name": "conv2d_133/convolution/merged_input", "op": "Const", "attr": {"value": {"tensor": {"dtype": "DT_FLOAT", "tensorShape": {"dim": [{"size": "1"}, {"size": "1"}, {"size": "16"}, {"size": "4"}]}}}, "dtype": {"type": "DT_FLOAT"}}}, {"name": "batch_normalization_119/batchnorm/sub", "op": "Const", "attr": {"value": {"tensor": {"dtype": "DT_FLOAT", "tensorShape": {"dim": [{"size": "4"}]}}}, "dtype": {"type": "DT_FLOAT"}}}, {"name": "conv2d_134/convolution/merged_input", "op": "Const", "attr": {"value": {"tensor": {"dtype": "DT_FLOAT", "tensorShape": {"dim": [{"size": "3"}, {"size": "3"}, {"size": "4"}, {"size": "4"}]}}}, "dtype": {"type": "DT_FLOAT"}}}, {"name": "batch_normalization_120/batchnorm/sub", "op": "Const", "attr": {"dtype": {"type": "DT_FLOAT"}, "value": {"tensor": {"dtype": "DT_FLOAT", "tensorShape": {"dim": [{"size": "4"}]}}}}}, {"name": "conv2d_135/kernel", "op": "Const", "attr": {"dtype": {"type": "DT_FLOAT"}, "value": {"tensor": {"dtype": "DT_FLOAT", "tensorShape": {"dim": [{"size": "1"}, {"size": "1"}, {"size": "4"}, {"size": "16"}]}}}}}, {"name": "batch_normalization_121/batchnorm/mul", "op": "Const", "attr": {"value": {"tensor": {"dtype": "DT_FLOAT", "tensorShape": {"dim": [{"size": "16"}]}}}, "dtype": {"type": "DT_FLOAT"}}}, {"name": "batch_normalization_121/batchnorm/sub", "op": "Const", "attr": {"value": {"tensor": {"dtype": "DT_FLOAT", "tensorShape": {"dim": [{"size": "16"}]}}}, "dtype": {"type": "DT_FLOAT"}}}, {"name": "conv2d_136/convolution/merged_input", "op": "Const", "attr": {"value": {"tensor": {"dtype": "DT_FLOAT", "tensorShape": {"dim": [{"size": "1"}, {"size": "1"}, {"size": "16"}, {"size": "4"}]}}}, "dtype": {"type": "DT_FLOAT"}}}, {"name": "batch_normalization_122/batchnorm/sub", "op": "Const", "attr": {"value": {"tensor": {"dtype": "DT_FLOAT", "tensorShape": {"dim": [{"size": "4"}]}}}, "dtype": {"type": "DT_FLOAT"}}}, {"name": "conv2d_137/convolution/merged_input", "op": "Const", "attr": {"value": {"tensor": {"dtype": "DT_FLOAT", "tensorShape": {"dim": [{"size": "3"}, {"size": "3"}, {"size": "4"}, {"size": "4"}]}}}, "dtype": {"type": "DT_FLOAT"}}}, {"name": "batch_normalization_123/batchnorm/sub", "op": "Const", "attr": {"value": {"tensor": {"dtype": "DT_FLOAT", "tensorShape": {"dim": [{"size": "4"}]}}}, "dtype": {"type": "DT_FLOAT"}}}, {"name": "conv2d_138/kernel", "op": "Const", "attr": {"value": {"tensor": {"dtype": "DT_FLOAT", "tensorShape": {"dim": [{"size": "1"}, {"size": "1"}, {"size": "4"}, {"size": "16"}]}}}, "dtype": {"type": "DT_FLOAT"}}}, {"name": "conv2d_139/kernel", "op": "Const", "attr": {"dtype": {"type": "DT_FLOAT"}, "value": {"tensor": {"dtype": "DT_FLOAT", "tensorShape": {"dim": [{"size": "1"}, {"size": "1"}, {"size": "16"}, {"size": "1"}]}}}}}, {"name": "conv2d_139/bias", "op": "Const", "attr": {"value": {"tensor": {"dtype": "DT_FLOAT", "tensorShape": {"dim": [{"size": "1"}]}}}, "dtype": {"type": "DT_FLOAT"}}}, {"name": "input_1", "op": "Placeholder", "attr": {"dtype": {"type": "DT_FLOAT"}, "shape": {"shape": {"dim": [{"size": "-1"}, {"size": "3"}]}}}}, {"name": "input_2", "op": "Placeholder", "attr": {"shape": {"shape": {"dim": [{"size": "-1"}, {"size": "-1"}, {"size": "-1"}, {"size": "1"}]}}, "dtype": {"type": "DT_FLOAT"}}}, {"name": "dense_1/BiasAdd", "op": "_FusedMatMul", "input": ["input_1", "dense_1/kernel", "dense_1/bias"], "device": "/device:CPU:0", "attr": {"num_args": {"i": "1"}, "epsilon": {"f": 0.0}, "fused_ops": {"list": {"s": ["Qmlhc0FkZA=="]}}, "transpose_a": {"b": false}, "transpose_b": {"b": false}, "T": {"type": "DT_FLOAT"}}}, {"name": "coordinate_channel2d_1/Shape", "op": "Shape", "input": ["input_2"], "attr": {"T": {"type": "DT_FLOAT"}, "out_type": {"type": "DT_INT32"}}}, {"name": "dense_1/Tanh", "op": "Tanh", "input": ["dense_1/BiasAdd"], "attr": {"T": {"type": "DT_FLOAT"}}}, {"name": "coordinate_channel2d_1/strided_slice", "op": "StridedSlice", "input": ["coordinate_channel2d_1/Shape", "coordinate_channel2d_7/strided_slice/stack", "coordinate_channel2d_7/strided_slice/stack_1", "coordinate_channel2d_7/strided_slice/stack_1"], "attr": {"T": {"type": "DT_INT32"}, "Index": {"type": "DT_INT32"}, "shrink_axis_mask": {"i": "1"}, "ellipsis_mask": {"i": "0"}, "begin_mask": {"i": "0"}, "new_axis_mask": {"i": "0"}, "end_mask": {"i": "0"}}}, {"name": "coordinate_channel2d_1/strided_slice_1", "op": "StridedSlice", "input": ["coordinate_channel2d_1/Shape", "coordinate_channel2d_7/strided_slice/stack_1", "coordinate_channel2d_7/strided_slice_1/stack_1", "coordinate_channel2d_7/strided_slice/stack_1"], "attr": {"ellipsis_mask": {"i": "0"}, "begin_mask": {"i": "0"}, "new_axis_mask": {"i": "0"}, "end_mask": {"i": "0"}, "Index": {"type": "DT_INT32"}, "T": {"type": "DT_INT32"}, "shrink_axis_mask": {"i": "1"}}}, {"name": "coordinate_channel2d_1/strided_slice_2", "op": "StridedSlice", "input": ["coordinate_channel2d_1/Shape", "coordinate_channel2d_7/strided_slice_1/stack_1", "coordinate_channel2d_1/strided_slice_2/stack_1", "coordinate_channel2d_7/strided_slice/stack_1"], "attr": {"shrink_axis_mask": {"i": "1"}, "begin_mask": {"i": "0"}, "ellipsis_mask": {"i": "0"}, "new_axis_mask": {"i": "0"}, "end_mask": {"i": "0"}, "T": {"type": "DT_INT32"}, "Index": {"type": "DT_INT32"}}}, {"name": "dense_23/BiasAdd", "op": "_FusedMatMul", "input": ["dense_1/Tanh", "dense_23/kernel", "dense_23/bias"], "device": "/device:CPU:0", "attr": {"num_args": {"i": "1"}, "epsilon": {"f": 0.0}, "fused_ops": {"list": {"s": ["Qmlhc0FkZA=="]}}, "transpose_a": {"b": false}, "transpose_b": {"b": false}, "T": {"type": "DT_FLOAT"}}}, {"name": "dense_19/BiasAdd", "op": "_FusedMatMul", "input": ["dense_1/Tanh", "dense_19/kernel", "dense_19/bias"], "device": "/device:CPU:0", "attr": {"fused_ops": {"list": {"s": ["Qmlhc0FkZA=="]}}, "transpose_a": {"b": false}, "transpose_b": {"b": false}, "T": {"type": "DT_FLOAT"}, "num_args": {"i": "1"}, "epsilon": {"f": 0.0}}}, {"name": "dense_15/BiasAdd", "op": "_FusedMatMul", "input": ["dense_1/Tanh", "dense_15/kernel", "dense_15/bias"], "device": "/device:CPU:0", "attr": {"T": {"type": "DT_FLOAT"}, "num_args": {"i": "1"}, "epsilon": {"f": 0.0}, "fused_ops": {"list": {"s": ["Qmlhc0FkZA=="]}}, "transpose_a": {"b": false}, "transpose_b": {"b": false}}}, {"name": "dense_11/BiasAdd", "op": "_FusedMatMul", "input": ["dense_1/Tanh", "dense_11/kernel", "dense_11/bias"], "device": "/device:CPU:0", "attr": {"epsilon": {"f": 0.0}, "fused_ops": {"list": {"s": ["Qmlhc0FkZA=="]}}, "transpose_a": {"b": false}, "transpose_b": {"b": false}, "T": {"type": "DT_FLOAT"}, "num_args": {"i": "1"}}}, {"name": "dense_7/BiasAdd", "op": "_FusedMatMul", "input": ["dense_1/Tanh", "dense_7/kernel", "dense_7/bias"], "device": "/device:CPU:0", "attr": {"T": {"type": "DT_FLOAT"}, "num_args": {"i": "1"}, "epsilon": {"f": 0.0}, "fused_ops": {"list": {"s": ["Qmlhc0FkZA=="]}}, "transpose_a": {"b": false}, "transpose_b": {"b": false}}}, {"name": "dense_3/BiasAdd", "op": "_FusedMatMul", "input": ["dense_1/Tanh", "dense_3/kernel", "dense_3/bias"], "device": "/device:CPU:0", "attr": {"epsilon": {"f": 0.0}, "fused_ops": {"list": {"s": ["Qmlhc0FkZA=="]}}, "transpose_a": {"b": false}, "transpose_b": {"b": false}, "T": {"type": "DT_FLOAT"}, "num_args": {"i": "1"}}}, {"name": "dense_2/BiasAdd", "op": "_FusedMatMul", "input": ["dense_1/Tanh", "dense_2/kernel", "dense_2/bias"], "device": "/device:CPU:0", "attr": {"T": {"type": "DT_FLOAT"}, "num_args": {"i": "1"}, "epsilon": {"f": 0.0}, "fused_ops": {"list": {"s": ["Qmlhc0FkZA=="]}}, "transpose_a": {"b": false}, "transpose_b": {"b": false}}}, {"name": "dense_6/BiasAdd", "op": "_FusedMatMul", "input": ["dense_1/Tanh", "dense_6/kernel", "dense_6/bias"], "device": "/device:CPU:0", "attr": {"fused_ops": {"list": {"s": ["Qmlhc0FkZA=="]}}, "transpose_a": {"b": false}, "transpose_b": {"b": false}, "T": {"type": "DT_FLOAT"}, "num_args": {"i": "1"}, "epsilon": {"f": 0.0}}}, {"name": "dense_10/BiasAdd", "op": "_FusedMatMul", "input": ["dense_1/Tanh", "dense_10/kernel", "dense_10/bias"], "device": "/device:CPU:0", "attr": {"T": {"type": "DT_FLOAT"}, "num_args": {"i": "1"}, "epsilon": {"f": 0.0}, "fused_ops": {"list": {"s": ["Qmlhc0FkZA=="]}}, "transpose_a": {"b": false}, "transpose_b": {"b": false}}}, {"name": "dense_14/BiasAdd", "op": "_FusedMatMul", "input": ["dense_1/Tanh", "dense_14/kernel", "dense_14/bias"], "device": "/device:CPU:0", "attr": {"fused_ops": {"list": {"s": ["Qmlhc0FkZA=="]}}, "transpose_a": {"b": false}, "transpose_b": {"b": false}, "T": {"type": "DT_FLOAT"}, "num_args": {"i": "1"}, "epsilon": {"f": 0.0}}}, {"name": "dense_18/BiasAdd", "op": "_FusedMatMul", "input": ["dense_1/Tanh", "dense_18/kernel", "dense_18/bias"], "device": "/device:CPU:0", "attr": {"T": {"type": "DT_FLOAT"}, "num_args": {"i": "1"}, "epsilon": {"f": 0.0}, "fused_ops": {"list": {"s": ["Qmlhc0FkZA=="]}}, "transpose_a": {"b": false}, "transpose_b": {"b": false}}}, {"name": "dense_22/BiasAdd", "op": "_FusedMatMul", "input": ["dense_1/Tanh", "dense_22/kernel", "dense_22/bias"], "device": "/device:CPU:0", "attr": {"num_args": {"i": "1"}, "epsilon": {"f": 0.0}, "fused_ops": {"list": {"s": ["Qmlhc0FkZA=="]}}, "transpose_a": {"b": false}, "transpose_b": {"b": false}, "T": {"type": "DT_FLOAT"}}}, {"name": "coordinate_channel2d_1/stack_1", "op": "Pack", "input": ["coordinate_channel2d_1/strided_slice", "multiply_16/ExpandDims/dim"], "attr": {"T": {"type": "DT_INT32"}, "axis": {"i": "0"}, "N": {"i": "2"}}}, {"name": "coordinate_channel2d_1/arange", "op": "Range", "input": ["coordinate_channel2d_7/arange/start", "coordinate_channel2d_1/strided_slice_1", "multiply_16/ExpandDims/dim"], "attr": {"Tidx": {"type": "DT_INT32"}}}, {"name": "coordinate_channel2d_1/sub", "op": "Sub", "input": ["coordinate_channel2d_1/strided_slice_1", "multiply_16/ExpandDims/dim"], "attr": {"T": {"type": "DT_INT32"}}}, {"name": "coordinate_channel2d_1/stack_2", "op": "Pack", "input": ["coordinate_channel2d_1/strided_slice", "coordinate_channel2d_1/strided_slice_1"], "attr": {"T": {"type": "DT_INT32"}, "axis": {"i": "0"}, "N": {"i": "2"}}}, {"name": "coordinate_channel2d_1/stack", "op": "Pack", "input": ["coordinate_channel2d_1/strided_slice", "coordinate_channel2d_1/strided_slice_2"], "attr": {"T": {"type": "DT_INT32"}, "axis": {"i": "0"}, "N": {"i": "2"}}}, {"name": "coordinate_channel2d_1/arange_1", "op": "Range", "input": ["coordinate_channel2d_7/arange/start", "coordinate_channel2d_1/strided_slice_2", "multiply_16/ExpandDims/dim"], "attr": {"Tidx": {"type": "DT_INT32"}}}, {"name": "coordinate_channel2d_1/sub_2", "op": "Sub", "input": ["coordinate_channel2d_1/strided_slice_2", "multiply_16/ExpandDims/dim"], "attr": {"T": {"type": "DT_INT32"}}}, {"name": "add_50/ExpandDims", "op": "ExpandDims", "input": ["dense_23/BiasAdd", "multiply_16/ExpandDims/dim"], "attr": {"Tdim": {"type": "DT_INT32"}, "T": {"type": "DT_FLOAT"}}}, {"name": "add_44/ExpandDims", "op": "ExpandDims", "input": ["dense_19/BiasAdd", "multiply_16/ExpandDims/dim"], "attr": {"Tdim": {"type": "DT_INT32"}, "T": {"type": "DT_FLOAT"}}}, {"name": "add_38/ExpandDims", "op": "ExpandDims", "input": ["dense_15/BiasAdd", "multiply_16/ExpandDims/dim"], "attr": {"Tdim": {"type": "DT_INT32"}, "T": {"type": "DT_FLOAT"}}}, {"name": "add_32/ExpandDims", "op": "ExpandDims", "input": ["dense_11/BiasAdd", "multiply_16/ExpandDims/dim"], "attr": {"T": {"type": "DT_FLOAT"}, "Tdim": {"type": "DT_INT32"}}}, {"name": "add_26/ExpandDims", "op": "ExpandDims", "input": ["dense_7/BiasAdd", "multiply_16/ExpandDims/dim"], "attr": {"Tdim": {"type": "DT_INT32"}, "T": {"type": "DT_FLOAT"}}}, {"name": "add_18/ExpandDims", "op": "ExpandDims", "input": ["dense_3/BiasAdd", "multiply_16/ExpandDims/dim"], "attr": {"Tdim": {"type": "DT_INT32"}, "T": {"type": "DT_FLOAT"}}}, {"name": "multiply_1/ExpandDims", "op": "ExpandDims", "input": ["dense_2/BiasAdd", "multiply_16/ExpandDims/dim"], "attr": {"T": {"type": "DT_FLOAT"}, "Tdim": {"type": "DT_INT32"}}}, {"name": "multiply_4/ExpandDims", "op": "ExpandDims", "input": ["dense_6/BiasAdd", "multiply_16/ExpandDims/dim"], "attr": {"T": {"type": "DT_FLOAT"}, "Tdim": {"type": "DT_INT32"}}}, {"name": "multiply_7/ExpandDims", "op": "ExpandDims", "input": ["dense_10/BiasAdd", "multiply_16/ExpandDims/dim"], "attr": {"T": {"type": "DT_FLOAT"}, "Tdim": {"type": "DT_INT32"}}}, {"name": "multiply_10/ExpandDims", "op": "ExpandDims", "input": ["dense_14/BiasAdd", "multiply_16/ExpandDims/dim"], "attr": {"Tdim": {"type": "DT_INT32"}, "T": {"type": "DT_FLOAT"}}}, {"name": "multiply_13/ExpandDims", "op": "ExpandDims", "input": ["dense_18/BiasAdd", "multiply_16/ExpandDims/dim"], "attr": {"Tdim": {"type": "DT_INT32"}, "T": {"type": "DT_FLOAT"}}}, {"name": "multiply_16/ExpandDims", "op": "ExpandDims", "input": ["dense_22/BiasAdd", "multiply_16/ExpandDims/dim"], "attr": {"T": {"type": "DT_FLOAT"}, "Tdim": {"type": "DT_INT32"}}}, {"name": "coordinate_channel2d_1/ExpandDims_1", "op": "ExpandDims", "input": ["coordinate_channel2d_1/arange", "coordinate_channel2d_7/arange/start"], "attr": {"Tdim": {"type": "DT_INT32"}, "T": {"type": "DT_INT32"}}}, {"name": "coordinate_channel2d_1/Cast_1", "op": "Cast", "input": ["coordinate_channel2d_1/sub"], "attr": {"SrcT": {"type": "DT_INT32"}, "Truncate": {"b": false}, "DstT": {"type": "DT_FLOAT"}}}, {"name": "coordinate_channel2d_1/ones_1", "op": "Fill", "input": ["coordinate_channel2d_1/stack_2", "multiply_16/ExpandDims/dim"], "attr": {"T": {"type": "DT_INT32"}, "index_type": {"type": "DT_INT32"}}}, {"name": "coordinate_channel2d_1/ones", "op": "Fill", "input": ["coordinate_channel2d_1/stack", "multiply_16/ExpandDims/dim"], "attr": {"index_type": {"type": "DT_INT32"}, "T": {"type": "DT_INT32"}}}, {"name": "coordinate_channel2d_1/ExpandDims_5", "op": "ExpandDims", "input": ["coordinate_channel2d_1/arange_1", "coordinate_channel2d_7/arange/start"], "attr": {"Tdim": {"type": "DT_INT32"}, "T": {"type": "DT_INT32"}}}, {"name": "coordinate_channel2d_1/Cast_3", "op": "Cast", "input": ["coordinate_channel2d_1/sub_2"], "attr": {"SrcT": {"type": "DT_INT32"}, "Truncate": {"b": false}, "DstT": {"type": "DT_FLOAT"}}}, {"name": "add_50/ExpandDims_1", "op": "ExpandDims", "input": ["add_50/ExpandDims", "multiply_16/ExpandDims/dim"], "attr": {"Tdim": {"type": "DT_INT32"}, "T": {"type": "DT_FLOAT"}}}, {"name": "add_44/ExpandDims_1", "op": "ExpandDims", "input": ["add_44/ExpandDims", "multiply_16/ExpandDims/dim"], "attr": {"Tdim": {"type": "DT_INT32"}, "T": {"type": "DT_FLOAT"}}}, {"name": "add_38/ExpandDims_1", "op": "ExpandDims", "input": ["add_38/ExpandDims", "multiply_16/ExpandDims/dim"], "attr": {"T": {"type": "DT_FLOAT"}, "Tdim": {"type": "DT_INT32"}}}, {"name": "add_32/ExpandDims_1", "op": "ExpandDims", "input": ["add_32/ExpandDims", "multiply_16/ExpandDims/dim"], "attr": {"Tdim": {"type": "DT_INT32"}, "T": {"type": "DT_FLOAT"}}}, {"name": "add_26/ExpandDims_1", "op": "ExpandDims", "input": ["add_26/ExpandDims", "multiply_16/ExpandDims/dim"], "attr": {"Tdim": {"type": "DT_INT32"}, "T": {"type": "DT_FLOAT"}}}, {"name": "add_18/ExpandDims_1", "op": "ExpandDims", "input": ["add_18/ExpandDims", "multiply_16/ExpandDims/dim"], "attr": {"T": {"type": "DT_FLOAT"}, "Tdim": {"type": "DT_INT32"}}}, {"name": "multiply_1/ExpandDims_1", "op": "ExpandDims", "input": ["multiply_1/ExpandDims", "multiply_16/ExpandDims/dim"], "attr": {"Tdim": {"type": "DT_INT32"}, "T": {"type": "DT_FLOAT"}}}, {"name": "multiply_4/ExpandDims_1", "op": "ExpandDims", "input": ["multiply_4/ExpandDims", "multiply_16/ExpandDims/dim"], "attr": {"Tdim": {"type": "DT_INT32"}, "T": {"type": "DT_FLOAT"}}}, {"name": "multiply_7/ExpandDims_1", "op": "ExpandDims", "input": ["multiply_7/ExpandDims", "multiply_16/ExpandDims/dim"], "attr": {"Tdim": {"type": "DT_INT32"}, "T": {"type": "DT_FLOAT"}}}, {"name": "multiply_10/ExpandDims_1", "op": "ExpandDims", "input": ["multiply_10/ExpandDims", "multiply_16/ExpandDims/dim"], "attr": {"Tdim": {"type": "DT_INT32"}, "T": {"type": "DT_FLOAT"}}}, {"name": "multiply_13/ExpandDims_1", "op": "ExpandDims", "input": ["multiply_13/ExpandDims", "multiply_16/ExpandDims/dim"], "attr": {"Tdim": {"type": "DT_INT32"}, "T": {"type": "DT_FLOAT"}}}, {"name": "multiply_16/ExpandDims_1", "op": "ExpandDims", "input": ["multiply_16/ExpandDims", "multiply_16/ExpandDims/dim"], "attr": {"Tdim": {"type": "DT_INT32"}, "T": {"type": "DT_FLOAT"}}}, {"name": "coordinate_channel2d_1/Tile", "op": "Tile", "input": ["coordinate_channel2d_1/ExpandDims_1", "coordinate_channel2d_1/stack_1"], "attr": {"Tmultiples": {"type": "DT_INT32"}, "T": {"type": "DT_INT32"}}}, {"name": "coordinate_channel2d_1/ExpandDims_4", "op": "ExpandDims", "input": ["coordinate_channel2d_1/ones_1", "multiply_16/ExpandDims/dim"], "attr": {"Tdim": {"type": "DT_INT32"}, "T": {"type": "DT_INT32"}}}, {"name": "coordinate_channel2d_1/ExpandDims", "op": "ExpandDims", "input": ["coordinate_channel2d_1/ones", "coordinate_channel2d_7/ExpandDims/dim"], "attr": {"Tdim": {"type": "DT_INT32"}, "T": {"type": "DT_INT32"}}}, {"name": "coordinate_channel2d_1/Tile_1", "op": "Tile", "input": ["coordinate_channel2d_1/ExpandDims_5", "coordinate_channel2d_1/stack_1"], "attr": {"Tmultiples": {"type": "DT_INT32"}, "T": {"type": "DT_INT32"}}}, {"name": "coordinate_channel2d_1/ExpandDims_2", "op": "ExpandDims", "input": ["coordinate_channel2d_1/Tile", "multiply_16/ExpandDims/dim"], "attr": {"Tdim": {"type": "DT_INT32"}, "T": {"type": "DT_INT32"}}}, {"name": "coordinate_channel2d_1/ExpandDims_6", "op": "ExpandDims", "input": ["coordinate_channel2d_1/Tile_1", "coordinate_channel2d_7/ExpandDims/dim"], "attr": {"Tdim": {"type": "DT_INT32"}, "T": {"type": "DT_INT32"}}}, {"name": "coordinate_channel2d_1/MatMul", "op": "BatchMatMul", "input": ["coordinate_channel2d_1/ExpandDims", "coordinate_channel2d_1/ExpandDims_2"], "attr": {"adj_y": {"b": false}, "T": {"type": "DT_INT32"}, "adj_x": {"b": false}}}, {"name": "coordinate_channel2d_1/MatMul_1", "op": "BatchMatMul", "input": ["coordinate_channel2d_1/ExpandDims_6", "coordinate_channel2d_1/ExpandDims_4"], "attr": {"adj_y": {"b": false}, "T": {"type": "DT_INT32"}, "adj_x": {"b": false}}}, {"name": "coordinate_channel2d_1/ExpandDims_3", "op": "ExpandDims", "input": ["coordinate_channel2d_1/MatMul", "coordinate_channel2d_7/ExpandDims/dim"], "attr": {"Tdim": {"type": "DT_INT32"}, "T": {"type": "DT_INT32"}}}, {"name": "coordinate_channel2d_1/ExpandDims_7", "op": "ExpandDims", "input": ["coordinate_channel2d_1/MatMul_1", "coordinate_channel2d_7/ExpandDims/dim"], "attr": {"Tdim": {"type": "DT_INT32"}, "T": {"type": "DT_INT32"}}}, {"name": "coordinate_channel2d_1/transpose", "op": "Transpose", "input": ["coordinate_channel2d_1/ExpandDims_3", "coordinate_channel2d_7/transpose/perm"], "attr": {"T": {"type": "DT_INT32"}, "Tperm": {"type": "DT_INT32"}}}, {"name": "coordinate_channel2d_1/transpose_1", "op": "Transpose", "input": ["coordinate_channel2d_1/ExpandDims_7", "coordinate_channel2d_7/transpose/perm"], "attr": {"Tperm": {"type": "DT_INT32"}, "T": {"type": "DT_INT32"}}}, {"name": "coordinate_channel2d_1/Cast", "op": "Cast", "input": ["coordinate_channel2d_1/transpose"], "attr": {"SrcT": {"type": "DT_INT32"}, "Truncate": {"b": false}, "DstT": {"type": "DT_FLOAT"}}}, {"name": "coordinate_channel2d_1/Cast_2", "op": "Cast", "input": ["coordinate_channel2d_1/transpose_1"], "attr": {"SrcT": {"type": "DT_INT32"}, "Truncate": {"b": false}, "DstT": {"type": "DT_FLOAT"}}}, {"name": "coordinate_channel2d_1/truediv", "op": "RealDiv", "input": ["coordinate_channel2d_1/Cast", "coordinate_channel2d_1/Cast_1"], "attr": {"T": {"type": "DT_FLOAT"}}}, {"name": "coordinate_channel2d_1/truediv_1", "op": "RealDiv", "input": ["coordinate_channel2d_1/Cast_2", "coordinate_channel2d_1/Cast_3"], "attr": {"T": {"type": "DT_FLOAT"}}}, {"name": "coordinate_channel2d_1/mul", "op": "Mul", "input": ["coordinate_channel2d_1/truediv", "coordinate_channel2d_7/mul/y"], "attr": {"T": {"type": "DT_FLOAT"}}}, {"name": "coordinate_channel2d_1/mul_1", "op": "Mul", "input": ["coordinate_channel2d_1/truediv_1", "coordinate_channel2d_7/mul/y"], "attr": {"T": {"type": "DT_FLOAT"}}}, {"name": "coordinate_channel2d_1/sub_1", "op": "Sub", "input": ["coordinate_channel2d_1/mul", "coordinate_channel2d_7/sub_1/y"], "attr": {"T": {"type": "DT_FLOAT"}}}, {"name": "coordinate_channel2d_1/sub_3", "op": "Sub", "input": ["coordinate_channel2d_1/mul_1", "coordinate_channel2d_7/sub_1/y"], "attr": {"T": {"type": "DT_FLOAT"}}}, {"name": "coordinate_channel2d_1/concat", "op": "ConcatV2", "input": ["input_2", "coordinate_channel2d_1/sub_1", "coordinate_channel2d_1/sub_3", "coordinate_channel2d_1/concat/axis"], "attr": {"T": {"type": "DT_FLOAT"}, "N": {"i": "3"}, "Tidx": {"type": "DT_INT32"}}}, {"name": "batch_normalization_1/batchnorm/mul_1", "op": "Mul", "input": ["batch_normalization_1/batchnorm/mul", "coordinate_channel2d_1/concat"], "attr": {"T": {"type": "DT_FLOAT"}}}, {"name": "conv2d_4/convolution", "op": "Conv2D", "input": ["coordinate_channel2d_1/concat", "conv2d_4/kernel"], "device": "/device:CPU:0", "attr": {"padding": {"s": "VkFMSUQ="}, "dilations": {"list": {"i": ["1", "1", "1", "1"]}}, "T": {"type": "DT_FLOAT"}, "strides": {"list": {"i": ["1", "1", "1", "1"]}}, "data_format": {"s": "TkhXQw=="}, "explicit_paddings": {"list": {}}, "use_cudnn_on_gpu": {"b": true}}}, {"name": "batch_normalization_1/batchnorm/add_1", "op": "Add", "input": ["batch_normalization_1/batchnorm/mul_1", "batch_normalization_1/batchnorm/sub"], "attr": {"T": {"type": "DT_FLOAT"}}}, {"name": "leaky_re_lu_1/LeakyRelu/mul", "op": "Mul", "input": ["batch_normalization_1/batchnorm/add_1", "leaky_re_lu_129/LeakyRelu/alpha"], "attr": {"T": {"type": "DT_FLOAT"}}}, {"name": "leaky_re_lu_1/LeakyRelu/Maximum", "op": "Maximum", "input": ["leaky_re_lu_1/LeakyRelu/mul", "batch_normalization_1/batchnorm/add_1"], "attr": {"T": {"type": "DT_FLOAT"}}}, {"name": "batch_normalization_2/batchnorm/mul_1", "op": "Conv2D", "input": ["leaky_re_lu_1/LeakyRelu/Maximum", "conv2d_1/convolution/merged_input"], "device": "/device:CPU:0", "attr": {"padding": {"s": "VkFMSUQ="}, "dilations": {"list": {"i": ["1", "1", "1", "1"]}}, "T": {"type": "DT_FLOAT"}, "data_format": {"s": "TkhXQw=="}, "strides": {"list": {"i": ["1", "1", "1", "1"]}}, "use_cudnn_on_gpu": {"b": true}, "explicit_paddings": {"list": {}}}}, {"name": "batch_normalization_2/batchnorm/add_1", "op": "Add", "input": ["batch_normalization_2/batchnorm/mul_1", "batch_normalization_2/batchnorm/sub"], "attr": {"T": {"type": "DT_FLOAT"}}}, {"name": "leaky_re_lu_2/LeakyRelu/mul", "op": "Mul", "input": ["batch_normalization_2/batchnorm/add_1", "leaky_re_lu_129/LeakyRelu/alpha"], "attr": {"T": {"type": "DT_FLOAT"}}}, {"name": "leaky_re_lu_2/LeakyRelu/Maximum", "op": "Maximum", "input": ["leaky_re_lu_2/LeakyRelu/mul", "batch_normalization_2/batchnorm/add_1"], "attr": {"T": {"type": "DT_FLOAT"}}}, {"name": "batch_normalization_3/batchnorm/mul_1", "op": "Conv2D", "input": ["leaky_re_lu_2/LeakyRelu/Maximum", "conv2d_2/convolution/merged_input"], "device": "/device:CPU:0", "attr": {"dilations": {"list": {"i": ["1", "1", "1", "1"]}}, "T": {"type": "DT_FLOAT"}, "data_format": {"s": "TkhXQw=="}, "strides": {"list": {"i": ["1", "1", "1", "1"]}}, "explicit_paddings": {"list": {}}, "use_cudnn_on_gpu": {"b": true}, "padding": {"s": "U0FNRQ=="}}}, {"name": "batch_normalization_3/batchnorm/add_1", "op": "Add", "input": ["batch_normalization_3/batchnorm/mul_1", "batch_normalization_3/batchnorm/sub"], "attr": {"T": {"type": "DT_FLOAT"}}}, {"name": "leaky_re_lu_3/LeakyRelu/mul", "op": "Mul", "input": ["batch_normalization_3/batchnorm/add_1", "leaky_re_lu_129/LeakyRelu/alpha"], "attr": {"T": {"type": "DT_FLOAT"}}}, {"name": "leaky_re_lu_3/LeakyRelu/Maximum", "op": "Maximum", "input": ["leaky_re_lu_3/LeakyRelu/mul", "batch_normalization_3/batchnorm/add_1"], "attr": {"T": {"type": "DT_FLOAT"}}}, {"name": "conv2d_3/convolution", "op": "Conv2D", "input": ["leaky_re_lu_3/LeakyRelu/Maximum", "conv2d_3/kernel"], "device": "/device:CPU:0", "attr": {"dilations": {"list": {"i": ["1", "1", "1", "1"]}}, "T": {"type": "DT_FLOAT"}, "strides": {"list": {"i": ["1", "1", "1", "1"]}}, "data_format": {"s": "TkhXQw=="}, "explicit_paddings": {"list": {}}, "use_cudnn_on_gpu": {"b": true}, "padding": {"s": "VkFMSUQ="}}}, {"name": "add_1/add", "op": "Add", "input": ["conv2d_3/convolution", "conv2d_4/convolution"], "attr": {"T": {"type": "DT_FLOAT"}}}, {"name": "batch_normalization_4/batchnorm/mul_1", "op": "Mul", "input": ["add_1/add", "batch_normalization_4/batchnorm/mul"], "attr": {"T": {"type": "DT_FLOAT"}}}, {"name": "batch_normalization_4/batchnorm/add_1", "op": "Add", "input": ["batch_normalization_4/batchnorm/mul_1", "batch_normalization_4/batchnorm/sub"], "attr": {"T": {"type": "DT_FLOAT"}}}, {"name": "leaky_re_lu_4/LeakyRelu/mul", "op": "Mul", "input": ["batch_normalization_4/batchnorm/add_1", "leaky_re_lu_129/LeakyRelu/alpha"], "attr": {"T": {"type": "DT_FLOAT"}}}, {"name": "leaky_re_lu_4/LeakyRelu/Maximum", "op": "Maximum", "input": ["leaky_re_lu_4/LeakyRelu/mul", "batch_normalization_4/batchnorm/add_1"], "attr": {"T": {"type": "DT_FLOAT"}}}, {"name": "batch_normalization_5/batchnorm/mul_1", "op": "Conv2D", "input": ["leaky_re_lu_4/LeakyRelu/Maximum", "conv2d_5/convolution/merged_input"], "device": "/device:CPU:0", "attr": {"use_cudnn_on_gpu": {"b": true}, "explicit_paddings": {"list": {}}, "padding": {"s": "VkFMSUQ="}, "dilations": {"list": {"i": ["1", "1", "1", "1"]}}, "T": {"type": "DT_FLOAT"}, "strides": {"list": {"i": ["1", "1", "1", "1"]}}, "data_format": {"s": "TkhXQw=="}}}, {"name": "batch_normalization_5/batchnorm/add_1", "op": "Add", "input": ["batch_normalization_5/batchnorm/mul_1", "batch_normalization_5/batchnorm/sub"], "attr": {"T": {"type": "DT_FLOAT"}}}, {"name": "leaky_re_lu_5/LeakyRelu/mul", "op": "Mul", "input": ["batch_normalization_5/batchnorm/add_1", "leaky_re_lu_129/LeakyRelu/alpha"], "attr": {"T": {"type": "DT_FLOAT"}}}, {"name": "leaky_re_lu_5/LeakyRelu/Maximum", "op": "Maximum", "input": ["leaky_re_lu_5/LeakyRelu/mul", "batch_normalization_5/batchnorm/add_1"], "attr": {"T": {"type": "DT_FLOAT"}}}, {"name": "batch_normalization_6/batchnorm/mul_1", "op": "Conv2D", "input": ["leaky_re_lu_5/LeakyRelu/Maximum", "conv2d_6/convolution/merged_input"], "device": "/device:CPU:0", "attr": {"data_format": {"s": "TkhXQw=="}, "strides": {"list": {"i": ["1", "1", "1", "1"]}}, "use_cudnn_on_gpu": {"b": true}, "explicit_paddings": {"list": {}}, "padding": {"s": "U0FNRQ=="}, "dilations": {"list": {"i": ["1", "1", "1", "1"]}}, "T": {"type": "DT_FLOAT"}}}, {"name": "batch_normalization_6/batchnorm/add_1", "op": "Add", "input": ["batch_normalization_6/batchnorm/mul_1", "batch_normalization_6/batchnorm/sub"], "attr": {"T": {"type": "DT_FLOAT"}}}, {"name": "leaky_re_lu_6/LeakyRelu/mul", "op": "Mul", "input": ["batch_normalization_6/batchnorm/add_1", "leaky_re_lu_129/LeakyRelu/alpha"], "attr": {"T": {"type": "DT_FLOAT"}}}, {"name": "leaky_re_lu_6/LeakyRelu/Maximum", "op": "Maximum", "input": ["leaky_re_lu_6/LeakyRelu/mul", "batch_normalization_6/batchnorm/add_1"], "attr": {"T": {"type": "DT_FLOAT"}}}, {"name": "conv2d_7/convolution", "op": "Conv2D", "input": ["leaky_re_lu_6/LeakyRelu/Maximum", "conv2d_7/kernel"], "device": "/device:CPU:0", "attr": {"padding": {"s": "VkFMSUQ="}, "dilations": {"list": {"i": ["1", "1", "1", "1"]}}, "T": {"type": "DT_FLOAT"}, "strides": {"list": {"i": ["1", "1", "1", "1"]}}, "data_format": {"s": "TkhXQw=="}, "explicit_paddings": {"list": {}}, "use_cudnn_on_gpu": {"b": true}}}, {"name": "add_2/add", "op": "Add", "input": ["add_1/add", "conv2d_7/convolution"], "attr": {"T": {"type": "DT_FLOAT"}}}, {"name": "batch_normalization_7/batchnorm/mul_1", "op": "Mul", "input": ["add_2/add", "batch_normalization_7/batchnorm/mul"], "attr": {"T": {"type": "DT_FLOAT"}}}, {"name": "conv2d_11/convolution", "op": "Conv2D", "input": ["add_2/add", "conv2d_11/kernel"], "device": "/device:CPU:0", "attr": {"padding": {"s": "VkFMSUQ="}, "dilations": {"list": {"i": ["1", "1", "1", "1"]}}, "T": {"type": "DT_FLOAT"}, "data_format": {"s": "TkhXQw=="}, "strides": {"list": {"i": ["1", "2", "2", "1"]}}, "explicit_paddings": {"list": {}}, "use_cudnn_on_gpu": {"b": true}}}, {"name": "batch_normalization_7/batchnorm/add_1", "op": "Add", "input": ["batch_normalization_7/batchnorm/mul_1", "batch_normalization_7/batchnorm/sub"], "attr": {"T": {"type": "DT_FLOAT"}}}, {"name": "leaky_re_lu_7/LeakyRelu/mul", "op": "Mul", "input": ["batch_normalization_7/batchnorm/add_1", "leaky_re_lu_129/LeakyRelu/alpha"], "attr": {"T": {"type": "DT_FLOAT"}}}, {"name": "leaky_re_lu_7/LeakyRelu/Maximum", "op": "Maximum", "input": ["leaky_re_lu_7/LeakyRelu/mul", "batch_normalization_7/batchnorm/add_1"], "attr": {"T": {"type": "DT_FLOAT"}}}, {"name": "batch_normalization_8/batchnorm/mul_1", "op": "Conv2D", "input": ["leaky_re_lu_7/LeakyRelu/Maximum", "conv2d_8/convolution/merged_input"], "device": "/device:CPU:0", "attr": {"padding": {"s": "VkFMSUQ="}, "dilations": {"list": {"i": ["1", "1", "1", "1"]}}, "T": {"type": "DT_FLOAT"}, "data_format": {"s": "TkhXQw=="}, "strides": {"list": {"i": ["1", "1", "1", "1"]}}, "explicit_paddings": {"list": {}}, "use_cudnn_on_gpu": {"b": true}}}, {"name": "batch_normalization_8/batchnorm/add_1", "op": "Add", "input": ["batch_normalization_8/batchnorm/mul_1", "batch_normalization_8/batchnorm/sub"], "attr": {"T": {"type": "DT_FLOAT"}}}, {"name": "leaky_re_lu_8/LeakyRelu/mul", "op": "Mul", "input": ["batch_normalization_8/batchnorm/add_1", "leaky_re_lu_129/LeakyRelu/alpha"], "attr": {"T": {"type": "DT_FLOAT"}}}, {"name": "leaky_re_lu_8/LeakyRelu/Maximum", "op": "Maximum", "input": ["leaky_re_lu_8/LeakyRelu/mul", "batch_normalization_8/batchnorm/add_1"], "attr": {"T": {"type": "DT_FLOAT"}}}, {"name": "batch_normalization_9/batchnorm/mul_1", "op": "Conv2D", "input": ["leaky_re_lu_8/LeakyRelu/Maximum", "conv2d_9/convolution/merged_input"], "device": "/device:CPU:0", "attr": {"dilations": {"list": {"i": ["1", "1", "1", "1"]}}, "T": {"type": "DT_FLOAT"}, "strides": {"list": {"i": ["1", "2", "2", "1"]}}, "data_format": {"s": "TkhXQw=="}, "explicit_paddings": {"list": {}}, "use_cudnn_on_gpu": {"b": true}, "padding": {"s": "U0FNRQ=="}}}, {"name": "batch_normalization_9/batchnorm/add_1", "op": "Add", "input": ["batch_normalization_9/batchnorm/mul_1", "batch_normalization_9/batchnorm/sub"], "attr": {"T": {"type": "DT_FLOAT"}}}, {"name": "leaky_re_lu_9/LeakyRelu/mul", "op": "Mul", "input": ["batch_normalization_9/batchnorm/add_1", "leaky_re_lu_129/LeakyRelu/alpha"], "attr": {"T": {"type": "DT_FLOAT"}}}, {"name": "leaky_re_lu_9/LeakyRelu/Maximum", "op": "Maximum", "input": ["leaky_re_lu_9/LeakyRelu/mul", "batch_normalization_9/batchnorm/add_1"], "attr": {"T": {"type": "DT_FLOAT"}}}, {"name": "conv2d_10/convolution", "op": "Conv2D", "input": ["leaky_re_lu_9/LeakyRelu/Maximum", "conv2d_10/kernel"], "device": "/device:CPU:0", "attr": {"padding": {"s": "VkFMSUQ="}, "dilations": {"list": {"i": ["1", "1", "1", "1"]}}, "T": {"type": "DT_FLOAT"}, "strides": {"list": {"i": ["1", "1", "1", "1"]}}, "data_format": {"s": "TkhXQw=="}, "use_cudnn_on_gpu": {"b": true}, "explicit_paddings": {"list": {}}}}, {"name": "add_3/add", "op": "Add", "input": ["conv2d_10/convolution", "conv2d_11/convolution"], "attr": {"T": {"type": "DT_FLOAT"}}}, {"name": "batch_normalization_10/batchnorm/mul_1", "op": "Mul", "input": ["add_3/add", "batch_normalization_10/batchnorm/mul"], "attr": {"T": {"type": "DT_FLOAT"}}}, {"name": "batch_normalization_10/batchnorm/add_1", "op": "Add", "input": ["batch_normalization_10/batchnorm/mul_1", "batch_normalization_10/batchnorm/sub"], "attr": {"T": {"type": "DT_FLOAT"}}}, {"name": "leaky_re_lu_10/LeakyRelu/mul", "op": "Mul", "input": ["batch_normalization_10/batchnorm/add_1", "leaky_re_lu_129/LeakyRelu/alpha"], "attr": {"T": {"type": "DT_FLOAT"}}}, {"name": "leaky_re_lu_10/LeakyRelu/Maximum", "op": "Maximum", "input": ["leaky_re_lu_10/LeakyRelu/mul", "batch_normalization_10/batchnorm/add_1"], "attr": {"T": {"type": "DT_FLOAT"}}}, {"name": "batch_normalization_11/batchnorm/mul_1", "op": "Conv2D", "input": ["leaky_re_lu_10/LeakyRelu/Maximum", "conv2d_12/convolution/merged_input"], "device": "/device:CPU:0", "attr": {"dilations": {"list": {"i": ["1", "1", "1", "1"]}}, "T": {"type": "DT_FLOAT"}, "data_format": {"s": "TkhXQw=="}, "strides": {"list": {"i": ["1", "1", "1", "1"]}}, "explicit_paddings": {"list": {}}, "use_cudnn_on_gpu": {"b": true}, "padding": {"s": "VkFMSUQ="}}}, {"name": "batch_normalization_11/batchnorm/add_1", "op": "Add", "input": ["batch_normalization_11/batchnorm/mul_1", "batch_normalization_11/batchnorm/sub"], "attr": {"T": {"type": "DT_FLOAT"}}}, {"name": "leaky_re_lu_11/LeakyRelu/mul", "op": "Mul", "input": ["batch_normalization_11/batchnorm/add_1", "leaky_re_lu_129/LeakyRelu/alpha"], "attr": {"T": {"type": "DT_FLOAT"}}}, {"name": "leaky_re_lu_11/LeakyRelu/Maximum", "op": "Maximum", "input": ["leaky_re_lu_11/LeakyRelu/mul", "batch_normalization_11/batchnorm/add_1"], "attr": {"T": {"type": "DT_FLOAT"}}}, {"name": "batch_normalization_12/batchnorm/mul_1", "op": "Conv2D", "input": ["leaky_re_lu_11/LeakyRelu/Maximum", "conv2d_13/convolution/merged_input"], "device": "/device:CPU:0", "attr": {"dilations": {"list": {"i": ["1", "1", "1", "1"]}}, "T": {"type": "DT_FLOAT"}, "strides": {"list": {"i": ["1", "1", "1", "1"]}}, "data_format": {"s": "TkhXQw=="}, "explicit_paddings": {"list": {}}, "use_cudnn_on_gpu": {"b": true}, "padding": {"s": "U0FNRQ=="}}}, {"name": "batch_normalization_12/batchnorm/add_1", "op": "Add", "input": ["batch_normalization_12/batchnorm/mul_1", "batch_normalization_12/batchnorm/sub"], "attr": {"T": {"type": "DT_FLOAT"}}}, {"name": "leaky_re_lu_12/LeakyRelu/mul", "op": "Mul", "input": ["batch_normalization_12/batchnorm/add_1", "leaky_re_lu_129/LeakyRelu/alpha"], "attr": {"T": {"type": "DT_FLOAT"}}}, {"name": "leaky_re_lu_12/LeakyRelu/Maximum", "op": "Maximum", "input": ["leaky_re_lu_12/LeakyRelu/mul", "batch_normalization_12/batchnorm/add_1"], "attr": {"T": {"type": "DT_FLOAT"}}}, {"name": "conv2d_14/convolution", "op": "Conv2D", "input": ["leaky_re_lu_12/LeakyRelu/Maximum", "conv2d_14/kernel"], "device": "/device:CPU:0", "attr": {"dilations": {"list": {"i": ["1", "1", "1", "1"]}}, "T": {"type": "DT_FLOAT"}, "data_format": {"s": "TkhXQw=="}, "strides": {"list": {"i": ["1", "1", "1", "1"]}}, "use_cudnn_on_gpu": {"b": true}, "explicit_paddings": {"list": {}}, "padding": {"s": "VkFMSUQ="}}}, {"name": "add_4/add", "op": "Add", "input": ["add_3/add", "conv2d_14/convolution"], "attr": {"T": {"type": "DT_FLOAT"}}}, {"name": "batch_normalization_13/batchnorm/mul_1", "op": "Mul", "input": ["add_4/add", "batch_normalization_13/batchnorm/mul"], "attr": {"T": {"type": "DT_FLOAT"}}}, {"name": "batch_normalization_13/batchnorm/add_1", "op": "Add", "input": ["batch_normalization_13/batchnorm/mul_1", "batch_normalization_13/batchnorm/sub"], "attr": {"T": {"type": "DT_FLOAT"}}}, {"name": "leaky_re_lu_13/LeakyRelu/mul", "op": "Mul", "input": ["batch_normalization_13/batchnorm/add_1", "leaky_re_lu_129/LeakyRelu/alpha"], "attr": {"T": {"type": "DT_FLOAT"}}}, {"name": "leaky_re_lu_13/LeakyRelu/Maximum", "op": "Maximum", "input": ["leaky_re_lu_13/LeakyRelu/mul", "batch_normalization_13/batchnorm/add_1"], "attr": {"T": {"type": "DT_FLOAT"}}}, {"name": "batch_normalization_14/batchnorm/mul_1", "op": "Conv2D", "input": ["leaky_re_lu_13/LeakyRelu/Maximum", "conv2d_15/convolution/merged_input"], "device": "/device:CPU:0", "attr": {"padding": {"s": "VkFMSUQ="}, "dilations": {"list": {"i": ["1", "1", "1", "1"]}}, "T": {"type": "DT_FLOAT"}, "strides": {"list": {"i": ["1", "1", "1", "1"]}}, "data_format": {"s": "TkhXQw=="}, "explicit_paddings": {"list": {}}, "use_cudnn_on_gpu": {"b": true}}}, {"name": "batch_normalization_14/batchnorm/add_1", "op": "Add", "input": ["batch_normalization_14/batchnorm/mul_1", "batch_normalization_14/batchnorm/sub"], "attr": {"T": {"type": "DT_FLOAT"}}}, {"name": "leaky_re_lu_14/LeakyRelu/mul", "op": "Mul", "input": ["batch_normalization_14/batchnorm/add_1", "leaky_re_lu_129/LeakyRelu/alpha"], "attr": {"T": {"type": "DT_FLOAT"}}}, {"name": "leaky_re_lu_14/LeakyRelu/Maximum", "op": "Maximum", "input": ["leaky_re_lu_14/LeakyRelu/mul", "batch_normalization_14/batchnorm/add_1"], "attr": {"T": {"type": "DT_FLOAT"}}}, {"name": "batch_normalization_15/batchnorm/mul_1", "op": "Conv2D", "input": ["leaky_re_lu_14/LeakyRelu/Maximum", "conv2d_16/convolution/merged_input"], "device": "/device:CPU:0", "attr": {"padding": {"s": "U0FNRQ=="}, "dilations": {"list": {"i": ["1", "1", "1", "1"]}}, "T": {"type": "DT_FLOAT"}, "data_format": {"s": "TkhXQw=="}, "strides": {"list": {"i": ["1", "1", "1", "1"]}}, "use_cudnn_on_gpu": {"b": true}, "explicit_paddings": {"list": {}}}}, {"name": "batch_normalization_15/batchnorm/add_1", "op": "Add", "input": ["batch_normalization_15/batchnorm/mul_1", "batch_normalization_15/batchnorm/sub"], "attr": {"T": {"type": "DT_FLOAT"}}}, {"name": "leaky_re_lu_15/LeakyRelu/mul", "op": "Mul", "input": ["batch_normalization_15/batchnorm/add_1", "leaky_re_lu_129/LeakyRelu/alpha"], "attr": {"T": {"type": "DT_FLOAT"}}}, {"name": "leaky_re_lu_15/LeakyRelu/Maximum", "op": "Maximum", "input": ["leaky_re_lu_15/LeakyRelu/mul", "batch_normalization_15/batchnorm/add_1"], "attr": {"T": {"type": "DT_FLOAT"}}}, {"name": "conv2d_17/convolution", "op": "Conv2D", "input": ["leaky_re_lu_15/LeakyRelu/Maximum", "conv2d_17/kernel"], "device": "/device:CPU:0", "attr": {"padding": {"s": "VkFMSUQ="}, "dilations": {"list": {"i": ["1", "1", "1", "1"]}}, "T": {"type": "DT_FLOAT"}, "data_format": {"s": "TkhXQw=="}, "strides": {"list": {"i": ["1", "1", "1", "1"]}}, "explicit_paddings": {"list": {}}, "use_cudnn_on_gpu": {"b": true}}}, {"name": "add_5/add", "op": "Add", "input": ["add_4/add", "conv2d_17/convolution"], "attr": {"T": {"type": "DT_FLOAT"}}}, {"name": "batch_normalization_16/batchnorm/mul_1", "op": "Mul", "input": ["add_5/add", "batch_normalization_16/batchnorm/mul"], "attr": {"T": {"type": "DT_FLOAT"}}}, {"name": "conv2d_21/convolution", "op": "Conv2D", "input": ["add_5/add", "conv2d_21/kernel"], "device": "/device:CPU:0", "attr": {"use_cudnn_on_gpu": {"b": true}, "explicit_paddings": {"list": {}}, "padding": {"s": "VkFMSUQ="}, "dilations": {"list": {"i": ["1", "1", "1", "1"]}}, "T": {"type": "DT_FLOAT"}, "strides": {"list": {"i": ["1", "2", "2", "1"]}}, "data_format": {"s": "TkhXQw=="}}}, {"name": "batch_normalization_16/batchnorm/add_1", "op": "Add", "input": ["batch_normalization_16/batchnorm/mul_1", "batch_normalization_16/batchnorm/sub"], "attr": {"T": {"type": "DT_FLOAT"}}}, {"name": "leaky_re_lu_16/LeakyRelu/mul", "op": "Mul", "input": ["batch_normalization_16/batchnorm/add_1", "leaky_re_lu_129/LeakyRelu/alpha"], "attr": {"T": {"type": "DT_FLOAT"}}}, {"name": "leaky_re_lu_16/LeakyRelu/Maximum", "op": "Maximum", "input": ["leaky_re_lu_16/LeakyRelu/mul", "batch_normalization_16/batchnorm/add_1"], "attr": {"T": {"type": "DT_FLOAT"}}}, {"name": "batch_normalization_17/batchnorm/mul_1", "op": "Conv2D", "input": ["leaky_re_lu_16/LeakyRelu/Maximum", "conv2d_18/convolution/merged_input"], "device": "/device:CPU:0", "attr": {"dilations": {"list": {"i": ["1", "1", "1", "1"]}}, "T": {"type": "DT_FLOAT"}, "strides": {"list": {"i": ["1", "1", "1", "1"]}}, "data_format": {"s": "TkhXQw=="}, "use_cudnn_on_gpu": {"b": true}, "explicit_paddings": {"list": {}}, "padding": {"s": "VkFMSUQ="}}}, {"name": "batch_normalization_17/batchnorm/add_1", "op": "Add", "input": ["batch_normalization_17/batchnorm/mul_1", "batch_normalization_17/batchnorm/sub"], "attr": {"T": {"type": "DT_FLOAT"}}}, {"name": "leaky_re_lu_17/LeakyRelu/mul", "op": "Mul", "input": ["batch_normalization_17/batchnorm/add_1", "leaky_re_lu_129/LeakyRelu/alpha"], "attr": {"T": {"type": "DT_FLOAT"}}}, {"name": "leaky_re_lu_17/LeakyRelu/Maximum", "op": "Maximum", "input": ["leaky_re_lu_17/LeakyRelu/mul", "batch_normalization_17/batchnorm/add_1"], "attr": {"T": {"type": "DT_FLOAT"}}}, {"name": "batch_normalization_18/batchnorm/mul_1", "op": "Conv2D", "input": ["leaky_re_lu_17/LeakyRelu/Maximum", "conv2d_19/convolution/merged_input"], "device": "/device:CPU:0", "attr": {"dilations": {"list": {"i": ["1", "1", "1", "1"]}}, "T": {"type": "DT_FLOAT"}, "strides": {"list": {"i": ["1", "2", "2", "1"]}}, "data_format": {"s": "TkhXQw=="}, "explicit_paddings": {"list": {}}, "use_cudnn_on_gpu": {"b": true}, "padding": {"s": "U0FNRQ=="}}}, {"name": "batch_normalization_18/batchnorm/add_1", "op": "Add", "input": ["batch_normalization_18/batchnorm/mul_1", "batch_normalization_18/batchnorm/sub"], "attr": {"T": {"type": "DT_FLOAT"}}}, {"name": "leaky_re_lu_18/LeakyRelu/mul", "op": "Mul", "input": ["batch_normalization_18/batchnorm/add_1", "leaky_re_lu_129/LeakyRelu/alpha"], "attr": {"T": {"type": "DT_FLOAT"}}}, {"name": "leaky_re_lu_18/LeakyRelu/Maximum", "op": "Maximum", "input": ["leaky_re_lu_18/LeakyRelu/mul", "batch_normalization_18/batchnorm/add_1"], "attr": {"T": {"type": "DT_FLOAT"}}}, {"name": "conv2d_20/convolution", "op": "Conv2D", "input": ["leaky_re_lu_18/LeakyRelu/Maximum", "conv2d_20/kernel"], "device": "/device:CPU:0", "attr": {"dilations": {"list": {"i": ["1", "1", "1", "1"]}}, "T": {"type": "DT_FLOAT"}, "data_format": {"s": "TkhXQw=="}, "strides": {"list": {"i": ["1", "1", "1", "1"]}}, "explicit_paddings": {"list": {}}, "use_cudnn_on_gpu": {"b": true}, "padding": {"s": "VkFMSUQ="}}}, {"name": "add_6/add", "op": "Add", "input": ["conv2d_20/convolution", "conv2d_21/convolution"], "attr": {"T": {"type": "DT_FLOAT"}}}, {"name": "batch_normalization_19/batchnorm/mul_1", "op": "Mul", "input": ["add_6/add", "batch_normalization_19/batchnorm/mul"], "attr": {"T": {"type": "DT_FLOAT"}}}, {"name": "batch_normalization_19/batchnorm/add_1", "op": "Add", "input": ["batch_normalization_19/batchnorm/mul_1", "batch_normalization_19/batchnorm/sub"], "attr": {"T": {"type": "DT_FLOAT"}}}, {"name": "leaky_re_lu_19/LeakyRelu/mul", "op": "Mul", "input": ["batch_normalization_19/batchnorm/add_1", "leaky_re_lu_129/LeakyRelu/alpha"], "attr": {"T": {"type": "DT_FLOAT"}}}, {"name": "leaky_re_lu_19/LeakyRelu/Maximum", "op": "Maximum", "input": ["leaky_re_lu_19/LeakyRelu/mul", "batch_normalization_19/batchnorm/add_1"], "attr": {"T": {"type": "DT_FLOAT"}}}, {"name": "batch_normalization_20/batchnorm/mul_1", "op": "Conv2D", "input": ["leaky_re_lu_19/LeakyRelu/Maximum", "conv2d_22/convolution/merged_input"], "device": "/device:CPU:0", "attr": {"dilations": {"list": {"i": ["1", "1", "1", "1"]}}, "T": {"type": "DT_FLOAT"}, "data_format": {"s": "TkhXQw=="}, "strides": {"list": {"i": ["1", "1", "1", "1"]}}, "explicit_paddings": {"list": {}}, "use_cudnn_on_gpu": {"b": true}, "padding": {"s": "VkFMSUQ="}}}, {"name": "batch_normalization_20/batchnorm/add_1", "op": "Add", "input": ["batch_normalization_20/batchnorm/mul_1", "batch_normalization_20/batchnorm/sub"], "attr": {"T": {"type": "DT_FLOAT"}}}, {"name": "leaky_re_lu_20/LeakyRelu/mul", "op": "Mul", "input": ["batch_normalization_20/batchnorm/add_1", "leaky_re_lu_129/LeakyRelu/alpha"], "attr": {"T": {"type": "DT_FLOAT"}}}, {"name": "leaky_re_lu_20/LeakyRelu/Maximum", "op": "Maximum", "input": ["leaky_re_lu_20/LeakyRelu/mul", "batch_normalization_20/batchnorm/add_1"], "attr": {"T": {"type": "DT_FLOAT"}}}, {"name": "batch_normalization_21/batchnorm/mul_1", "op": "Conv2D", "input": ["leaky_re_lu_20/LeakyRelu/Maximum", "conv2d_23/convolution/merged_input"], "device": "/device:CPU:0", "attr": {"data_format": {"s": "TkhXQw=="}, "strides": {"list": {"i": ["1", "1", "1", "1"]}}, "explicit_paddings": {"list": {}}, "use_cudnn_on_gpu": {"b": true}, "padding": {"s": "U0FNRQ=="}, "dilations": {"list": {"i": ["1", "1", "1", "1"]}}, "T": {"type": "DT_FLOAT"}}}, {"name": "batch_normalization_21/batchnorm/add_1", "op": "Add", "input": ["batch_normalization_21/batchnorm/mul_1", "batch_normalization_21/batchnorm/sub"], "attr": {"T": {"type": "DT_FLOAT"}}}, {"name": "leaky_re_lu_21/LeakyRelu/mul", "op": "Mul", "input": ["batch_normalization_21/batchnorm/add_1", "leaky_re_lu_129/LeakyRelu/alpha"], "attr": {"T": {"type": "DT_FLOAT"}}}, {"name": "leaky_re_lu_21/LeakyRelu/Maximum", "op": "Maximum", "input": ["leaky_re_lu_21/LeakyRelu/mul", "batch_normalization_21/batchnorm/add_1"], "attr": {"T": {"type": "DT_FLOAT"}}}, {"name": "conv2d_24/convolution", "op": "Conv2D", "input": ["leaky_re_lu_21/LeakyRelu/Maximum", "conv2d_24/kernel"], "device": "/device:CPU:0", "attr": {"dilations": {"list": {"i": ["1", "1", "1", "1"]}}, "T": {"type": "DT_FLOAT"}, "strides": {"list": {"i": ["1", "1", "1", "1"]}}, "data_format": {"s": "TkhXQw=="}, "use_cudnn_on_gpu": {"b": true}, "explicit_paddings": {"list": {}}, "padding": {"s": "VkFMSUQ="}}}, {"name": "add_7/add", "op": "Add", "input": ["add_6/add", "conv2d_24/convolution"], "attr": {"T": {"type": "DT_FLOAT"}}}, {"name": "batch_normalization_22/batchnorm/mul_1", "op": "Mul", "input": ["add_7/add", "batch_normalization_22/batchnorm/mul"], "attr": {"T": {"type": "DT_FLOAT"}}}, {"name": "batch_normalization_22/batchnorm/add_1", "op": "Add", "input": ["batch_normalization_22/batchnorm/mul_1", "batch_normalization_22/batchnorm/sub"], "attr": {"T": {"type": "DT_FLOAT"}}}, {"name": "leaky_re_lu_22/LeakyRelu/mul", "op": "Mul", "input": ["batch_normalization_22/batchnorm/add_1", "leaky_re_lu_129/LeakyRelu/alpha"], "attr": {"T": {"type": "DT_FLOAT"}}}, {"name": "leaky_re_lu_22/LeakyRelu/Maximum", "op": "Maximum", "input": ["leaky_re_lu_22/LeakyRelu/mul", "batch_normalization_22/batchnorm/add_1"], "attr": {"T": {"type": "DT_FLOAT"}}}, {"name": "batch_normalization_23/batchnorm/mul_1", "op": "Conv2D", "input": ["leaky_re_lu_22/LeakyRelu/Maximum", "conv2d_25/convolution/merged_input"], "device": "/device:CPU:0", "attr": {"dilations": {"list": {"i": ["1", "1", "1", "1"]}}, "T": {"type": "DT_FLOAT"}, "data_format": {"s": "TkhXQw=="}, "strides": {"list": {"i": ["1", "1", "1", "1"]}}, "use_cudnn_on_gpu": {"b": true}, "explicit_paddings": {"list": {}}, "padding": {"s": "VkFMSUQ="}}}, {"name": "batch_normalization_23/batchnorm/add_1", "op": "Add", "input": ["batch_normalization_23/batchnorm/mul_1", "batch_normalization_23/batchnorm/sub"], "attr": {"T": {"type": "DT_FLOAT"}}}, {"name": "leaky_re_lu_23/LeakyRelu/mul", "op": "Mul", "input": ["batch_normalization_23/batchnorm/add_1", "leaky_re_lu_129/LeakyRelu/alpha"], "attr": {"T": {"type": "DT_FLOAT"}}}, {"name": "leaky_re_lu_23/LeakyRelu/Maximum", "op": "Maximum", "input": ["leaky_re_lu_23/LeakyRelu/mul", "batch_normalization_23/batchnorm/add_1"], "attr": {"T": {"type": "DT_FLOAT"}}}, {"name": "batch_normalization_24/batchnorm/mul_1", "op": "Conv2D", "input": ["leaky_re_lu_23/LeakyRelu/Maximum", "conv2d_26/convolution/merged_input"], "device": "/device:CPU:0", "attr": {"padding": {"s": "U0FNRQ=="}, "dilations": {"list": {"i": ["1", "1", "1", "1"]}}, "T": {"type": "DT_FLOAT"}, "strides": {"list": {"i": ["1", "1", "1", "1"]}}, "data_format": {"s": "TkhXQw=="}, "use_cudnn_on_gpu": {"b": true}, "explicit_paddings": {"list": {}}}}, {"name": "batch_normalization_24/batchnorm/add_1", "op": "Add", "input": ["batch_normalization_24/batchnorm/mul_1", "batch_normalization_24/batchnorm/sub"], "attr": {"T": {"type": "DT_FLOAT"}}}, {"name": "leaky_re_lu_24/LeakyRelu/mul", "op": "Mul", "input": ["batch_normalization_24/batchnorm/add_1", "leaky_re_lu_129/LeakyRelu/alpha"], "attr": {"T": {"type": "DT_FLOAT"}}}, {"name": "leaky_re_lu_24/LeakyRelu/Maximum", "op": "Maximum", "input": ["leaky_re_lu_24/LeakyRelu/mul", "batch_normalization_24/batchnorm/add_1"], "attr": {"T": {"type": "DT_FLOAT"}}}, {"name": "conv2d_27/convolution", "op": "Conv2D", "input": ["leaky_re_lu_24/LeakyRelu/Maximum", "conv2d_27/kernel"], "device": "/device:CPU:0", "attr": {"dilations": {"list": {"i": ["1", "1", "1", "1"]}}, "T": {"type": "DT_FLOAT"}, "data_format": {"s": "TkhXQw=="}, "strides": {"list": {"i": ["1", "1", "1", "1"]}}, "explicit_paddings": {"list": {}}, "use_cudnn_on_gpu": {"b": true}, "padding": {"s": "VkFMSUQ="}}}, {"name": "add_8/add", "op": "Add", "input": ["add_7/add", "conv2d_27/convolution"], "attr": {"T": {"type": "DT_FLOAT"}}}, {"name": "batch_normalization_25/batchnorm/mul_1", "op": "Mul", "input": ["add_8/add", "batch_normalization_25/batchnorm/mul"], "attr": {"T": {"type": "DT_FLOAT"}}}, {"name": "conv2d_31/convolution", "op": "Conv2D", "input": ["add_8/add", "conv2d_31/kernel"], "device": "/device:CPU:0", "attr": {"dilations": {"list": {"i": ["1", "1", "1", "1"]}}, "T": {"type": "DT_FLOAT"}, "data_format": {"s": "TkhXQw=="}, "strides": {"list": {"i": ["1", "2", "2", "1"]}}, "explicit_paddings": {"list": {}}, "use_cudnn_on_gpu": {"b": true}, "padding": {"s": "VkFMSUQ="}}}, {"name": "batch_normalization_25/batchnorm/add_1", "op": "Add", "input": ["batch_normalization_25/batchnorm/mul_1", "batch_normalization_25/batchnorm/sub"], "attr": {"T": {"type": "DT_FLOAT"}}}, {"name": "leaky_re_lu_25/LeakyRelu/mul", "op": "Mul", "input": ["batch_normalization_25/batchnorm/add_1", "leaky_re_lu_129/LeakyRelu/alpha"], "attr": {"T": {"type": "DT_FLOAT"}}}, {"name": "leaky_re_lu_25/LeakyRelu/Maximum", "op": "Maximum", "input": ["leaky_re_lu_25/LeakyRelu/mul", "batch_normalization_25/batchnorm/add_1"], "attr": {"T": {"type": "DT_FLOAT"}}}, {"name": "batch_normalization_26/batchnorm/mul_1", "op": "Conv2D", "input": ["leaky_re_lu_25/LeakyRelu/Maximum", "conv2d_28/convolution/merged_input"], "device": "/device:CPU:0", "attr": {"dilations": {"list": {"i": ["1", "1", "1", "1"]}}, "T": {"type": "DT_FLOAT"}, "strides": {"list": {"i": ["1", "1", "1", "1"]}}, "data_format": {"s": "TkhXQw=="}, "use_cudnn_on_gpu": {"b": true}, "explicit_paddings": {"list": {}}, "padding": {"s": "VkFMSUQ="}}}, {"name": "batch_normalization_26/batchnorm/add_1", "op": "Add", "input": ["batch_normalization_26/batchnorm/mul_1", "batch_normalization_26/batchnorm/sub"], "attr": {"T": {"type": "DT_FLOAT"}}}, {"name": "leaky_re_lu_26/LeakyRelu/mul", "op": "Mul", "input": ["batch_normalization_26/batchnorm/add_1", "leaky_re_lu_129/LeakyRelu/alpha"], "attr": {"T": {"type": "DT_FLOAT"}}}, {"name": "leaky_re_lu_26/LeakyRelu/Maximum", "op": "Maximum", "input": ["leaky_re_lu_26/LeakyRelu/mul", "batch_normalization_26/batchnorm/add_1"], "attr": {"T": {"type": "DT_FLOAT"}}}, {"name": "batch_normalization_27/batchnorm/mul_1", "op": "Conv2D", "input": ["leaky_re_lu_26/LeakyRelu/Maximum", "conv2d_29/convolution/merged_input"], "device": "/device:CPU:0", "attr": {"dilations": {"list": {"i": ["1", "1", "1", "1"]}}, "T": {"type": "DT_FLOAT"}, "data_format": {"s": "TkhXQw=="}, "strides": {"list": {"i": ["1", "2", "2", "1"]}}, "explicit_paddings": {"list": {}}, "use_cudnn_on_gpu": {"b": true}, "padding": {"s": "U0FNRQ=="}}}, {"name": "batch_normalization_27/batchnorm/add_1", "op": "Add", "input": ["batch_normalization_27/batchnorm/mul_1", "batch_normalization_27/batchnorm/sub"], "attr": {"T": {"type": "DT_FLOAT"}}}, {"name": "leaky_re_lu_27/LeakyRelu/mul", "op": "Mul", "input": ["batch_normalization_27/batchnorm/add_1", "leaky_re_lu_129/LeakyRelu/alpha"], "attr": {"T": {"type": "DT_FLOAT"}}}, {"name": "leaky_re_lu_27/LeakyRelu/Maximum", "op": "Maximum", "input": ["leaky_re_lu_27/LeakyRelu/mul", "batch_normalization_27/batchnorm/add_1"], "attr": {"T": {"type": "DT_FLOAT"}}}, {"name": "conv2d_30/convolution", "op": "Conv2D", "input": ["leaky_re_lu_27/LeakyRelu/Maximum", "conv2d_30/kernel"], "device": "/device:CPU:0", "attr": {"padding": {"s": "VkFMSUQ="}, "dilations": {"list": {"i": ["1", "1", "1", "1"]}}, "T": {"type": "DT_FLOAT"}, "strides": {"list": {"i": ["1", "1", "1", "1"]}}, "data_format": {"s": "TkhXQw=="}, "explicit_paddings": {"list": {}}, "use_cudnn_on_gpu": {"b": true}}}, {"name": "add_9/add", "op": "Add", "input": ["conv2d_30/convolution", "conv2d_31/convolution"], "attr": {"T": {"type": "DT_FLOAT"}}}, {"name": "batch_normalization_28/batchnorm/mul_1", "op": "Mul", "input": ["add_9/add", "batch_normalization_28/batchnorm/mul"], "attr": {"T": {"type": "DT_FLOAT"}}}, {"name": "batch_normalization_28/batchnorm/add_1", "op": "Add", "input": ["batch_normalization_28/batchnorm/mul_1", "batch_normalization_28/batchnorm/sub"], "attr": {"T": {"type": "DT_FLOAT"}}}, {"name": "leaky_re_lu_28/LeakyRelu/mul", "op": "Mul", "input": ["batch_normalization_28/batchnorm/add_1", "leaky_re_lu_129/LeakyRelu/alpha"], "attr": {"T": {"type": "DT_FLOAT"}}}, {"name": "leaky_re_lu_28/LeakyRelu/Maximum", "op": "Maximum", "input": ["leaky_re_lu_28/LeakyRelu/mul", "batch_normalization_28/batchnorm/add_1"], "attr": {"T": {"type": "DT_FLOAT"}}}, {"name": "batch_normalization_29/batchnorm/mul_1", "op": "Conv2D", "input": ["leaky_re_lu_28/LeakyRelu/Maximum", "conv2d_32/convolution/merged_input"], "device": "/device:CPU:0", "attr": {"dilations": {"list": {"i": ["1", "1", "1", "1"]}}, "T": {"type": "DT_FLOAT"}, "strides": {"list": {"i": ["1", "1", "1", "1"]}}, "data_format": {"s": "TkhXQw=="}, "use_cudnn_on_gpu": {"b": true}, "explicit_paddings": {"list": {}}, "padding": {"s": "VkFMSUQ="}}}, {"name": "batch_normalization_29/batchnorm/add_1", "op": "Add", "input": ["batch_normalization_29/batchnorm/mul_1", "batch_normalization_29/batchnorm/sub"], "attr": {"T": {"type": "DT_FLOAT"}}}, {"name": "leaky_re_lu_29/LeakyRelu/mul", "op": "Mul", "input": ["batch_normalization_29/batchnorm/add_1", "leaky_re_lu_129/LeakyRelu/alpha"], "attr": {"T": {"type": "DT_FLOAT"}}}, {"name": "leaky_re_lu_29/LeakyRelu/Maximum", "op": "Maximum", "input": ["leaky_re_lu_29/LeakyRelu/mul", "batch_normalization_29/batchnorm/add_1"], "attr": {"T": {"type": "DT_FLOAT"}}}, {"name": "batch_normalization_30/batchnorm/mul_1", "op": "Conv2D", "input": ["leaky_re_lu_29/LeakyRelu/Maximum", "conv2d_33/convolution/merged_input"], "device": "/device:CPU:0", "attr": {"data_format": {"s": "TkhXQw=="}, "strides": {"list": {"i": ["1", "1", "1", "1"]}}, "explicit_paddings": {"list": {}}, "use_cudnn_on_gpu": {"b": true}, "padding": {"s": "U0FNRQ=="}, "dilations": {"list": {"i": ["1", "1", "1", "1"]}}, "T": {"type": "DT_FLOAT"}}}, {"name": "batch_normalization_30/batchnorm/add_1", "op": "Add", "input": ["batch_normalization_30/batchnorm/mul_1", "batch_normalization_30/batchnorm/sub"], "attr": {"T": {"type": "DT_FLOAT"}}}, {"name": "leaky_re_lu_30/LeakyRelu/mul", "op": "Mul", "input": ["batch_normalization_30/batchnorm/add_1", "leaky_re_lu_129/LeakyRelu/alpha"], "attr": {"T": {"type": "DT_FLOAT"}}}, {"name": "leaky_re_lu_30/LeakyRelu/Maximum", "op": "Maximum", "input": ["leaky_re_lu_30/LeakyRelu/mul", "batch_normalization_30/batchnorm/add_1"], "attr": {"T": {"type": "DT_FLOAT"}}}, {"name": "conv2d_34/convolution", "op": "Conv2D", "input": ["leaky_re_lu_30/LeakyRelu/Maximum", "conv2d_34/kernel"], "device": "/device:CPU:0", "attr": {"T": {"type": "DT_FLOAT"}, "data_format": {"s": "TkhXQw=="}, "strides": {"list": {"i": ["1", "1", "1", "1"]}}, "explicit_paddings": {"list": {}}, "use_cudnn_on_gpu": {"b": true}, "padding": {"s": "VkFMSUQ="}, "dilations": {"list": {"i": ["1", "1", "1", "1"]}}}}, {"name": "add_10/add", "op": "Add", "input": ["add_9/add", "conv2d_34/convolution"], "attr": {"T": {"type": "DT_FLOAT"}}}, {"name": "batch_normalization_31/batchnorm/mul_1", "op": "Mul", "input": ["add_10/add", "batch_normalization_31/batchnorm/mul"], "attr": {"T": {"type": "DT_FLOAT"}}}, {"name": "batch_normalization_31/batchnorm/add_1", "op": "Add", "input": ["batch_normalization_31/batchnorm/mul_1", "batch_normalization_31/batchnorm/sub"], "attr": {"T": {"type": "DT_FLOAT"}}}, {"name": "leaky_re_lu_31/LeakyRelu/mul", "op": "Mul", "input": ["batch_normalization_31/batchnorm/add_1", "leaky_re_lu_129/LeakyRelu/alpha"], "attr": {"T": {"type": "DT_FLOAT"}}}, {"name": "leaky_re_lu_31/LeakyRelu/Maximum", "op": "Maximum", "input": ["leaky_re_lu_31/LeakyRelu/mul", "batch_normalization_31/batchnorm/add_1"], "attr": {"T": {"type": "DT_FLOAT"}}}, {"name": "batch_normalization_32/batchnorm/mul_1", "op": "Conv2D", "input": ["leaky_re_lu_31/LeakyRelu/Maximum", "conv2d_35/convolution/merged_input"], "device": "/device:CPU:0", "attr": {"padding": {"s": "VkFMSUQ="}, "dilations": {"list": {"i": ["1", "1", "1", "1"]}}, "T": {"type": "DT_FLOAT"}, "data_format": {"s": "TkhXQw=="}, "strides": {"list": {"i": ["1", "1", "1", "1"]}}, "use_cudnn_on_gpu": {"b": true}, "explicit_paddings": {"list": {}}}}, {"name": "batch_normalization_32/batchnorm/add_1", "op": "Add", "input": ["batch_normalization_32/batchnorm/mul_1", "batch_normalization_32/batchnorm/sub"], "attr": {"T": {"type": "DT_FLOAT"}}}, {"name": "leaky_re_lu_32/LeakyRelu/mul", "op": "Mul", "input": ["batch_normalization_32/batchnorm/add_1", "leaky_re_lu_129/LeakyRelu/alpha"], "attr": {"T": {"type": "DT_FLOAT"}}}, {"name": "leaky_re_lu_32/LeakyRelu/Maximum", "op": "Maximum", "input": ["leaky_re_lu_32/LeakyRelu/mul", "batch_normalization_32/batchnorm/add_1"], "attr": {"T": {"type": "DT_FLOAT"}}}, {"name": "batch_normalization_33/batchnorm/mul_1", "op": "Conv2D", "input": ["leaky_re_lu_32/LeakyRelu/Maximum", "conv2d_36/convolution/merged_input"], "device": "/device:CPU:0", "attr": {"padding": {"s": "U0FNRQ=="}, "dilations": {"list": {"i": ["1", "1", "1", "1"]}}, "T": {"type": "DT_FLOAT"}, "strides": {"list": {"i": ["1", "1", "1", "1"]}}, "data_format": {"s": "TkhXQw=="}, "explicit_paddings": {"list": {}}, "use_cudnn_on_gpu": {"b": true}}}, {"name": "batch_normalization_33/batchnorm/add_1", "op": "Add", "input": ["batch_normalization_33/batchnorm/mul_1", "batch_normalization_33/batchnorm/sub"], "attr": {"T": {"type": "DT_FLOAT"}}}, {"name": "leaky_re_lu_33/LeakyRelu/mul", "op": "Mul", "input": ["batch_normalization_33/batchnorm/add_1", "leaky_re_lu_129/LeakyRelu/alpha"], "attr": {"T": {"type": "DT_FLOAT"}}}, {"name": "leaky_re_lu_33/LeakyRelu/Maximum", "op": "Maximum", "input": ["leaky_re_lu_33/LeakyRelu/mul", "batch_normalization_33/batchnorm/add_1"], "attr": {"T": {"type": "DT_FLOAT"}}}, {"name": "conv2d_37/convolution", "op": "Conv2D", "input": ["leaky_re_lu_33/LeakyRelu/Maximum", "conv2d_37/kernel"], "device": "/device:CPU:0", "attr": {"dilations": {"list": {"i": ["1", "1", "1", "1"]}}, "T": {"type": "DT_FLOAT"}, "strides": {"list": {"i": ["1", "1", "1", "1"]}}, "data_format": {"s": "TkhXQw=="}, "use_cudnn_on_gpu": {"b": true}, "explicit_paddings": {"list": {}}, "padding": {"s": "VkFMSUQ="}}}, {"name": "add_11/add", "op": "Add", "input": ["add_10/add", "conv2d_37/convolution"], "attr": {"T": {"type": "DT_FLOAT"}}}, {"name": "batch_normalization_34/batchnorm/mul_1", "op": "Mul", "input": ["add_11/add", "batch_normalization_34/batchnorm/mul"], "attr": {"T": {"type": "DT_FLOAT"}}}, {"name": "conv2d_41/convolution", "op": "Conv2D", "input": ["add_11/add", "conv2d_41/kernel"], "device": "/device:CPU:0", "attr": {"data_format": {"s": "TkhXQw=="}, "strides": {"list": {"i": ["1", "2", "2", "1"]}}, "use_cudnn_on_gpu": {"b": true}, "explicit_paddings": {"list": {}}, "padding": {"s": "VkFMSUQ="}, "dilations": {"list": {"i": ["1", "1", "1", "1"]}}, "T": {"type": "DT_FLOAT"}}}, {"name": "batch_normalization_34/batchnorm/add_1", "op": "Add", "input": ["batch_normalization_34/batchnorm/mul_1", "batch_normalization_34/batchnorm/sub"], "attr": {"T": {"type": "DT_FLOAT"}}}, {"name": "leaky_re_lu_34/LeakyRelu/mul", "op": "Mul", "input": ["batch_normalization_34/batchnorm/add_1", "leaky_re_lu_129/LeakyRelu/alpha"], "attr": {"T": {"type": "DT_FLOAT"}}}, {"name": "leaky_re_lu_34/LeakyRelu/Maximum", "op": "Maximum", "input": ["leaky_re_lu_34/LeakyRelu/mul", "batch_normalization_34/batchnorm/add_1"], "attr": {"T": {"type": "DT_FLOAT"}}}, {"name": "batch_normalization_35/batchnorm/mul_1", "op": "Conv2D", "input": ["leaky_re_lu_34/LeakyRelu/Maximum", "conv2d_38/convolution/merged_input"], "device": "/device:CPU:0", "attr": {"padding": {"s": "VkFMSUQ="}, "dilations": {"list": {"i": ["1", "1", "1", "1"]}}, "T": {"type": "DT_FLOAT"}, "data_format": {"s": "TkhXQw=="}, "strides": {"list": {"i": ["1", "1", "1", "1"]}}, "use_cudnn_on_gpu": {"b": true}, "explicit_paddings": {"list": {}}}}, {"name": "batch_normalization_35/batchnorm/add_1", "op": "Add", "input": ["batch_normalization_35/batchnorm/mul_1", "batch_normalization_35/batchnorm/sub"], "attr": {"T": {"type": "DT_FLOAT"}}}, {"name": "leaky_re_lu_35/LeakyRelu/mul", "op": "Mul", "input": ["batch_normalization_35/batchnorm/add_1", "leaky_re_lu_129/LeakyRelu/alpha"], "attr": {"T": {"type": "DT_FLOAT"}}}, {"name": "leaky_re_lu_35/LeakyRelu/Maximum", "op": "Maximum", "input": ["leaky_re_lu_35/LeakyRelu/mul", "batch_normalization_35/batchnorm/add_1"], "attr": {"T": {"type": "DT_FLOAT"}}}, {"name": "batch_normalization_36/batchnorm/mul_1", "op": "Conv2D", "input": ["leaky_re_lu_35/LeakyRelu/Maximum", "conv2d_39/convolution/merged_input"], "device": "/device:CPU:0", "attr": {"padding": {"s": "U0FNRQ=="}, "dilations": {"list": {"i": ["1", "1", "1", "1"]}}, "T": {"type": "DT_FLOAT"}, "strides": {"list": {"i": ["1", "2", "2", "1"]}}, "data_format": {"s": "TkhXQw=="}, "explicit_paddings": {"list": {}}, "use_cudnn_on_gpu": {"b": true}}}, {"name": "batch_normalization_36/batchnorm/add_1", "op": "Add", "input": ["batch_normalization_36/batchnorm/mul_1", "batch_normalization_36/batchnorm/sub"], "attr": {"T": {"type": "DT_FLOAT"}}}, {"name": "leaky_re_lu_36/LeakyRelu/mul", "op": "Mul", "input": ["batch_normalization_36/batchnorm/add_1", "leaky_re_lu_129/LeakyRelu/alpha"], "attr": {"T": {"type": "DT_FLOAT"}}}, {"name": "leaky_re_lu_36/LeakyRelu/Maximum", "op": "Maximum", "input": ["leaky_re_lu_36/LeakyRelu/mul", "batch_normalization_36/batchnorm/add_1"], "attr": {"T": {"type": "DT_FLOAT"}}}, {"name": "conv2d_40/convolution", "op": "Conv2D", "input": ["leaky_re_lu_36/LeakyRelu/Maximum", "conv2d_40/kernel"], "device": "/device:CPU:0", "attr": {"dilations": {"list": {"i": ["1", "1", "1", "1"]}}, "T": {"type": "DT_FLOAT"}, "data_format": {"s": "TkhXQw=="}, "strides": {"list": {"i": ["1", "1", "1", "1"]}}, "use_cudnn_on_gpu": {"b": true}, "explicit_paddings": {"list": {}}, "padding": {"s": "VkFMSUQ="}}}, {"name": "add_12/add", "op": "Add", "input": ["conv2d_40/convolution", "conv2d_41/convolution"], "attr": {"T": {"type": "DT_FLOAT"}}}, {"name": "batch_normalization_37/batchnorm/mul_1", "op": "Mul", "input": ["add_12/add", "batch_normalization_37/batchnorm/mul"], "attr": {"T": {"type": "DT_FLOAT"}}}, {"name": "batch_normalization_37/batchnorm/add_1", "op": "Add", "input": ["batch_normalization_37/batchnorm/mul_1", "batch_normalization_37/batchnorm/sub"], "attr": {"T": {"type": "DT_FLOAT"}}}, {"name": "leaky_re_lu_37/LeakyRelu/mul", "op": "Mul", "input": ["batch_normalization_37/batchnorm/add_1", "leaky_re_lu_129/LeakyRelu/alpha"], "attr": {"T": {"type": "DT_FLOAT"}}}, {"name": "leaky_re_lu_37/LeakyRelu/Maximum", "op": "Maximum", "input": ["leaky_re_lu_37/LeakyRelu/mul", "batch_normalization_37/batchnorm/add_1"], "attr": {"T": {"type": "DT_FLOAT"}}}, {"name": "batch_normalization_38/batchnorm/mul_1", "op": "Conv2D", "input": ["leaky_re_lu_37/LeakyRelu/Maximum", "conv2d_42/convolution/merged_input"], "device": "/device:CPU:0", "attr": {"padding": {"s": "VkFMSUQ="}, "dilations": {"list": {"i": ["1", "1", "1", "1"]}}, "T": {"type": "DT_FLOAT"}, "strides": {"list": {"i": ["1", "1", "1", "1"]}}, "data_format": {"s": "TkhXQw=="}, "explicit_paddings": {"list": {}}, "use_cudnn_on_gpu": {"b": true}}}, {"name": "batch_normalization_38/batchnorm/add_1", "op": "Add", "input": ["batch_normalization_38/batchnorm/mul_1", "batch_normalization_38/batchnorm/sub"], "attr": {"T": {"type": "DT_FLOAT"}}}, {"name": "leaky_re_lu_38/LeakyRelu/mul", "op": "Mul", "input": ["batch_normalization_38/batchnorm/add_1", "leaky_re_lu_129/LeakyRelu/alpha"], "attr": {"T": {"type": "DT_FLOAT"}}}, {"name": "leaky_re_lu_38/LeakyRelu/Maximum", "op": "Maximum", "input": ["leaky_re_lu_38/LeakyRelu/mul", "batch_normalization_38/batchnorm/add_1"], "attr": {"T": {"type": "DT_FLOAT"}}}, {"name": "batch_normalization_39/batchnorm/mul_1", "op": "Conv2D", "input": ["leaky_re_lu_38/LeakyRelu/Maximum", "conv2d_43/convolution/merged_input"], "device": "/device:CPU:0", "attr": {"padding": {"s": "U0FNRQ=="}, "dilations": {"list": {"i": ["1", "1", "1", "1"]}}, "T": {"type": "DT_FLOAT"}, "data_format": {"s": "TkhXQw=="}, "strides": {"list": {"i": ["1", "1", "1", "1"]}}, "explicit_paddings": {"list": {}}, "use_cudnn_on_gpu": {"b": true}}}, {"name": "batch_normalization_39/batchnorm/add_1", "op": "Add", "input": ["batch_normalization_39/batchnorm/mul_1", "batch_normalization_39/batchnorm/sub"], "attr": {"T": {"type": "DT_FLOAT"}}}, {"name": "leaky_re_lu_39/LeakyRelu/mul", "op": "Mul", "input": ["batch_normalization_39/batchnorm/add_1", "leaky_re_lu_129/LeakyRelu/alpha"], "attr": {"T": {"type": "DT_FLOAT"}}}, {"name": "leaky_re_lu_39/LeakyRelu/Maximum", "op": "Maximum", "input": ["leaky_re_lu_39/LeakyRelu/mul", "batch_normalization_39/batchnorm/add_1"], "attr": {"T": {"type": "DT_FLOAT"}}}, {"name": "conv2d_44/convolution", "op": "Conv2D", "input": ["leaky_re_lu_39/LeakyRelu/Maximum", "conv2d_44/kernel"], "device": "/device:CPU:0", "attr": {"T": {"type": "DT_FLOAT"}, "data_format": {"s": "TkhXQw=="}, "strides": {"list": {"i": ["1", "1", "1", "1"]}}, "explicit_paddings": {"list": {}}, "use_cudnn_on_gpu": {"b": true}, "padding": {"s": "VkFMSUQ="}, "dilations": {"list": {"i": ["1", "1", "1", "1"]}}}}, {"name": "add_13/add", "op": "Add", "input": ["add_12/add", "conv2d_44/convolution"], "attr": {"T": {"type": "DT_FLOAT"}}}, {"name": "batch_normalization_40/batchnorm/mul_1", "op": "Mul", "input": ["add_13/add", "batch_normalization_40/batchnorm/mul"], "attr": {"T": {"type": "DT_FLOAT"}}}, {"name": "batch_normalization_40/batchnorm/add_1", "op": "Add", "input": ["batch_normalization_40/batchnorm/mul_1", "batch_normalization_40/batchnorm/sub"], "attr": {"T": {"type": "DT_FLOAT"}}}, {"name": "leaky_re_lu_40/LeakyRelu/mul", "op": "Mul", "input": ["batch_normalization_40/batchnorm/add_1", "leaky_re_lu_129/LeakyRelu/alpha"], "attr": {"T": {"type": "DT_FLOAT"}}}, {"name": "leaky_re_lu_40/LeakyRelu/Maximum", "op": "Maximum", "input": ["leaky_re_lu_40/LeakyRelu/mul", "batch_normalization_40/batchnorm/add_1"], "attr": {"T": {"type": "DT_FLOAT"}}}, {"name": "batch_normalization_41/batchnorm/mul_1", "op": "Conv2D", "input": ["leaky_re_lu_40/LeakyRelu/Maximum", "conv2d_45/convolution/merged_input"], "device": "/device:CPU:0", "attr": {"padding": {"s": "VkFMSUQ="}, "dilations": {"list": {"i": ["1", "1", "1", "1"]}}, "T": {"type": "DT_FLOAT"}, "strides": {"list": {"i": ["1", "1", "1", "1"]}}, "data_format": {"s": "TkhXQw=="}, "use_cudnn_on_gpu": {"b": true}, "explicit_paddings": {"list": {}}}}, {"name": "batch_normalization_41/batchnorm/add_1", "op": "Add", "input": ["batch_normalization_41/batchnorm/mul_1", "batch_normalization_41/batchnorm/sub"], "attr": {"T": {"type": "DT_FLOAT"}}}, {"name": "leaky_re_lu_41/LeakyRelu/mul", "op": "Mul", "input": ["batch_normalization_41/batchnorm/add_1", "leaky_re_lu_129/LeakyRelu/alpha"], "attr": {"T": {"type": "DT_FLOAT"}}}, {"name": "leaky_re_lu_41/LeakyRelu/Maximum", "op": "Maximum", "input": ["leaky_re_lu_41/LeakyRelu/mul", "batch_normalization_41/batchnorm/add_1"], "attr": {"T": {"type": "DT_FLOAT"}}}, {"name": "batch_normalization_42/batchnorm/mul_1", "op": "Conv2D", "input": ["leaky_re_lu_41/LeakyRelu/Maximum", "conv2d_46/convolution/merged_input"], "device": "/device:CPU:0", "attr": {"strides": {"list": {"i": ["1", "1", "1", "1"]}}, "data_format": {"s": "TkhXQw=="}, "explicit_paddings": {"list": {}}, "use_cudnn_on_gpu": {"b": true}, "padding": {"s": "U0FNRQ=="}, "dilations": {"list": {"i": ["1", "1", "1", "1"]}}, "T": {"type": "DT_FLOAT"}}}, {"name": "batch_normalization_42/batchnorm/add_1", "op": "Add", "input": ["batch_normalization_42/batchnorm/mul_1", "batch_normalization_42/batchnorm/sub"], "attr": {"T": {"type": "DT_FLOAT"}}}, {"name": "leaky_re_lu_42/LeakyRelu/mul", "op": "Mul", "input": ["batch_normalization_42/batchnorm/add_1", "leaky_re_lu_129/LeakyRelu/alpha"], "attr": {"T": {"type": "DT_FLOAT"}}}, {"name": "leaky_re_lu_42/LeakyRelu/Maximum", "op": "Maximum", "input": ["leaky_re_lu_42/LeakyRelu/mul", "batch_normalization_42/batchnorm/add_1"], "attr": {"T": {"type": "DT_FLOAT"}}}, {"name": "conv2d_47/convolution", "op": "Conv2D", "input": ["leaky_re_lu_42/LeakyRelu/Maximum", "conv2d_47/kernel"], "device": "/device:CPU:0", "attr": {"use_cudnn_on_gpu": {"b": true}, "explicit_paddings": {"list": {}}, "padding": {"s": "VkFMSUQ="}, "dilations": {"list": {"i": ["1", "1", "1", "1"]}}, "T": {"type": "DT_FLOAT"}, "strides": {"list": {"i": ["1", "1", "1", "1"]}}, "data_format": {"s": "TkhXQw=="}}}, {"name": "add_14/add", "op": "Add", "input": ["add_13/add", "conv2d_47/convolution"], "attr": {"T": {"type": "DT_FLOAT"}}}, {"name": "batch_normalization_43/batchnorm/mul_1", "op": "Mul", "input": ["add_14/add", "batch_normalization_43/batchnorm/mul"], "attr": {"T": {"type": "DT_FLOAT"}}}, {"name": "conv2d_51/convolution", "op": "Conv2D", "input": ["add_14/add", "conv2d_51/kernel"], "device": "/device:CPU:0", "attr": {"dilations": {"list": {"i": ["1", "1", "1", "1"]}}, "T": {"type": "DT_FLOAT"}, "strides": {"list": {"i": ["1", "2", "2", "1"]}}, "data_format": {"s": "TkhXQw=="}, "use_cudnn_on_gpu": {"b": true}, "explicit_paddings": {"list": {}}, "padding": {"s": "VkFMSUQ="}}}, {"name": "batch_normalization_43/batchnorm/add_1", "op": "Add", "input": ["batch_normalization_43/batchnorm/mul_1", "batch_normalization_43/batchnorm/sub"], "attr": {"T": {"type": "DT_FLOAT"}}}, {"name": "leaky_re_lu_43/LeakyRelu/mul", "op": "Mul", "input": ["batch_normalization_43/batchnorm/add_1", "leaky_re_lu_129/LeakyRelu/alpha"], "attr": {"T": {"type": "DT_FLOAT"}}}, {"name": "leaky_re_lu_43/LeakyRelu/Maximum", "op": "Maximum", "input": ["leaky_re_lu_43/LeakyRelu/mul", "batch_normalization_43/batchnorm/add_1"], "attr": {"T": {"type": "DT_FLOAT"}}}, {"name": "batch_normalization_44/batchnorm/mul_1", "op": "Conv2D", "input": ["leaky_re_lu_43/LeakyRelu/Maximum", "conv2d_48/convolution/merged_input"], "device": "/device:CPU:0", "attr": {"dilations": {"list": {"i": ["1", "1", "1", "1"]}}, "T": {"type": "DT_FLOAT"}, "data_format": {"s": "TkhXQw=="}, "strides": {"list": {"i": ["1", "1", "1", "1"]}}, "use_cudnn_on_gpu": {"b": true}, "explicit_paddings": {"list": {}}, "padding": {"s": "VkFMSUQ="}}}, {"name": "batch_normalization_44/batchnorm/add_1", "op": "Add", "input": ["batch_normalization_44/batchnorm/mul_1", "batch_normalization_44/batchnorm/sub"], "attr": {"T": {"type": "DT_FLOAT"}}}, {"name": "leaky_re_lu_44/LeakyRelu/mul", "op": "Mul", "input": ["batch_normalization_44/batchnorm/add_1", "leaky_re_lu_129/LeakyRelu/alpha"], "attr": {"T": {"type": "DT_FLOAT"}}}, {"name": "leaky_re_lu_44/LeakyRelu/Maximum", "op": "Maximum", "input": ["leaky_re_lu_44/LeakyRelu/mul", "batch_normalization_44/batchnorm/add_1"], "attr": {"T": {"type": "DT_FLOAT"}}}, {"name": "batch_normalization_45/batchnorm/mul_1", "op": "Conv2D", "input": ["leaky_re_lu_44/Leaky…
": "uint8"}}, {"name": "conv2d_30/kernel", "shape": [1, 1, 64, 256], "dtype": "float32", "quantization": {"min": -0.1876808826829873, "scale": 0.0015383678908441581, "dtype": "uint8"}}, {"name": "conv2d_31/kernel", "shape": [1, 1, 128, 256], "dtype": "float32", "quantization": {"min": -0.1642699004388323, "scale": 0.0013464745937609205, "dtype": "uint8"}}, {"name": "batch_normalization_28/batchnorm/mul", "shape": [256], "dtype": "float32", "quantization": {"min": 0.7057126760482788, "scale": 0.005922605944614784, "dtype": "uint8"}}, {"name": "batch_normalization_28/batchnorm/sub", "shape": [256], "dtype": "float32", "quantization": {"min": -2.3213853181577195, "scale": 0.017856810139674766, "dtype": "uint8"}}, {"name": "conv2d_32/convolution/merged_input", "shape": [1, 1, 256, 64], "dtype": "float32", "quantization": {"min": -0.1545502835629033, "scale": 0.0013439155092426374, "dtype": "uint8"}}, {"name": "batch_normalization_29/batchnorm/sub", "shape": [64], "dtype": "float32", "quantization": {"min": -0.647148936402564, "scale": 0.004044680852516025, "dtype": "uint8"}}, {"name": "conv2d_33/convolution/merged_input", "shape": [3, 3, 64, 64], "dtype": "float32", "quantization": {"min": -0.11171719297474506, "scale": 0.0008796629368090162, "dtype": "uint8"}}, {"name": "batch_normalization_30/batchnorm/sub", "shape": [64], "dtype": "float32", "quantization": {"min": -0.6375411989642125, "scale": 0.004366720540850771, "dtype": "uint8"}}, {"name": "conv2d_34/kernel", "shape": [1, 1, 64, 256], "dtype": "float32", "quantization": {"min": -0.2072655112135644, "scale": 0.0016988976328980688, "dtype": "uint8"}}, {"name": "batch_normalization_31/batchnorm/mul", "shape": [256], "dtype": "float32", "quantization": {"min": 0.5477610230445862, "scale": 0.004478747938193527, "dtype": "uint8"}}, {"name": "batch_normalization_31/batchnorm/sub", "shape": [256], "dtype": "float32", "quantization": {"min": -1.7547913719626034, "scale": 0.014623261433021695, "dtype": "uint8"}}, {"name": "conv2d_35/convolution/merged_input", "shape": [1, 1, 256, 64], "dtype": "float32", "quantization": {"min": -0.16556088521200069, "scale": 0.001368271778611576, "dtype": "uint8"}}, {"name": "batch_normalization_32/batchnorm/sub", "shape": [64], "dtype": "float32", "quantization": {"min": -0.7292777278844048, "scale": 0.004215478195863612, "dtype": "uint8"}}, {"name": "conv2d_36/convolution/merged_input", "shape": [3, 3, 64, 64], "dtype": "float32", "quantization": {"min": -0.10744503993614048, "scale": 0.0008394143745010975, "dtype": "uint8"}}, {"name": "batch_normalization_33/batchnorm/sub", "shape": [64], "dtype": "float32", "quantization": {"min": -0.48982130394262424, "scale": 0.003575337984982659, "dtype": "uint8"}}, {"name": "conv2d_37/kernel", "shape": [1, 1, 64, 256], "dtype": "float32", "quantization": {"min": -0.20201736495775335, "scale": 0.001590687913053176, "dtype": "uint8"}}, {"name": "conv2d_41/kernel", "shape": [1, 1, 256, 256], "dtype": "float32", "quantization": {"min": -0.1717565522474401, "scale": 0.0012914026484769933, "dtype": "uint8"}}, {"name": "batch_normalization_37/batchnorm/mul", "shape": [256], "dtype": "float32", "quantization": {"min": 0.4319879114627838, "scale": 0.0036348028510224586, "dtype": "uint8"}}, {"name": "batch_normalization_37/batchnorm/sub", "shape": [256], "dtype": "float32", "quantization": {"min": -2.961882507099825, "scale": 0.021939870422961666, "dtype": "uint8"}}, {"name": "conv2d_42/convolution/merged_input", "shape": [1, 1, 256, 64], "dtype": "float32", "quantization": {"min": -0.14911205575746647, "scale": 0.001274462015021081, "dtype": "uint8"}}, {"name": "batch_normalization_38/batchnorm/sub", "shape": [64], "dtype": "float32", "quantization": {"min": -0.5190683869754567, "scale": 0.005898504397448372, "dtype": "uint8"}}, {"name": "conv2d_43/convolution/merged_input", "shape": [3, 3, 64, 64], "dtype": "float32", "quantization": {"min": -0.10467603352724338, "scale": 0.000887085029891893, "dtype": "uint8"}}, {"name": "batch_normalization_39/batchnorm/sub", "shape": [64], "dtype": "float32", "quantization": {"min": -0.6928670735920177, "scale": 0.005289061630473418, "dtype": "uint8"}}, {"name": "conv2d_44/kernel", "shape": [1, 1, 64, 256], "dtype": "float32", "quantization": {"min": -0.20921316123476216, "scale": 0.001714861977334116, "dtype": "uint8"}}, {"name": "batch_normalization_40/batchnorm/mul", "shape": [256], "dtype": "float32", "quantization": {"min": 0.37380915880203247, "scale": 0.003308132349276075, "dtype": "uint8"}}, {"name": "batch_normalization_40/batchnorm/sub", "shape": [256], "dtype": "float32", "quantization": {"min": -3.004409122467041, "scale": 0.01963666093115713, "dtype": "uint8"}}, {"name": "conv2d_45/convolution/merged_input", "shape": [1, 1, 256, 64], "dtype": "float32", "quantization": {"min": -0.1727088858683904, "scale": 0.0014513351753646252, "dtype": "uint8"}}, {"name": "batch_normalization_41/batchnorm/sub", "shape": [64], "dtype": "float32", "quantization": {"min": -0.6194732792237226, "scale": 0.004393427512224983, "dtype": "uint8"}}, {"name": "conv2d_46/convolution/merged_input", "shape": [3, 3, 64, 64], "dtype": "float32", "quantization": {"min": -0.12225279387305764, "scale": 0.0010630677728091968, "dtype": "uint8"}}, {"name": "batch_normalization_42/batchnorm/sub", "shape": [64], "dtype": "float32", "quantization": {"min": -0.5429653485616048, "scale": 0.00399239226883533, "dtype": "uint8"}}, {"name": "conv2d_47/kernel", "shape": [1, 1, 64, 256], "dtype": "float32", "quantization": {"min": -0.2200567565127915, "scale": 0.0016798225687999352, "dtype": "uint8"}}, {"name": "conv2d_51/kernel", "shape": [1, 1, 256, 512], "dtype": "float32", "quantization": {"min": -0.13170633099827112, "scale": 0.001053650647986169, "dtype": "uint8"}}, {"name": "batch_normalization_46/batchnorm/mul", "shape": [512], "dtype": "float32", "quantization": {"min": 0.2464049756526947, "scale": 0.00457878451721341, "dtype": "uint8"}}, {"name": "batch_normalization_46/batchnorm/sub", "shape": [512], "dtype": "float32", "quantization": {"min": -2.5498705546061196, "scale": 0.018749048195633233, "dtype": "uint8"}}, {"name": "conv2d_52/convolution/merged_input", "shape": [1, 1, 512, 128], "dtype": "float32", "quantization": {"min": -0.10022657978184084, "scale": 0.0008018126382547267, "dtype": "uint8"}}, {"name": "batch_normalization_47/batchnorm/sub", "shape": [128], "dtype": "float32", "quantization": {"min": -0.7622216350892012, "scale": 0.0053677579935859235, "dtype": "uint8"}}, {"name": "conv2d_53/convolution/merged_input", "shape": [3, 3, 128, 128], "dtype": "float32", "quantization": {"min": -0.05980390603928004, "scale": 0.0005111444960622226, "dtype": "uint8"}}, {"name": "batch_normalization_48/batchnorm/sub", "shape": [128], "dtype": "float32", "quantization": {"min": -0.7766467636706782, "scale": 0.004854042272941739, "dtype": "uint8"}}, {"name": "conv2d_54/kernel", "shape": [1, 1, 128, 512], "dtype": "float32", "quantization": {"min": -0.17971619981176712, "scale": 0.0013117970789180082, "dtype": "uint8"}}, {"name": "batch_normalization_49/batchnorm/mul", "shape": [512], "dtype": "float32", "quantization": {"min": 0.23264271020889282, "scale": 0.0038608011077432072, "dtype": "uint8"}}, {"name": "batch_normalization_49/batchnorm/sub", "shape": [512], "dtype": "float32", "quantization": {"min": -2.3735283010146198, "scale": 0.016714988035314224, "dtype": "uint8"}}, {"name": "conv2d_55/convolution/merged_input", "shape": [1, 1, 512, 128], "dtype": "float32", "quantization": {"min": -0.10204851700394761, "scale": 0.0008163881360315809, "dtype": "uint8"}}, {"name": "batch_normalization_50/batchnorm/sub", "shape": [128], "dtype": "float32", "quantization": {"min": -0.5566976848770591, "scale": 0.005015294458351883, "dtype": "uint8"}}, {"name": "conv2d_56/convolution/merged_input", "shape": [3, 3, 128, 128], "dtype": "float32", "quantization": {"min": -0.056636540591716765, "scale": 0.0005102391044298808, "dtype": "uint8"}}, {"name": "batch_normalization_51/batchnorm/sub", "shape": [128], "dtype": "float32", "quantization": {"min": -0.4864948553197524, "scale": 0.0033784364952760583, "dtype": "uint8"}}, {"name": "conv2d_57/kernel", "shape": [1, 1, 128, 512], "dtype": "float32", "quantization": {"min": -0.15769247915230544, "scale": 0.0012319724933773863, "dtype": "uint8"}}, {"name": "conv2d_58/kernel", "shape": [1, 1, 514, 512], "dtype": "float32", "quantization": {"min": -0.14605944016400504, "scale": 0.0011065109103333716, "dtype": "uint8"}}, {"name": "conv2d_59/convolution/merged_input", "shape": [3, 3, 512, 512], "dtype": "float32", "quantization": {"min": -0.015753661928807988, "scale": 0.00011934592370309081, "dtype": "uint8"}}, {"name": "batch_normalization_52/batchnorm/mul_1", "shape": [512], "dtype": "float32", "quantization": {"min": -1.443237896526561, "scale": 0.012230829631581026, "dtype": "uint8"}}, {"name": "dense_2/kernel", "shape": [128, 512], "dtype": "float32", "quantization": {"min": -0.2225932997815749, "scale": 0.0017255294556711234, "dtype": "uint8"}}, {"name": "dense_2/bias", "shape": [512], "dtype": "float32", "quantization": {"min": -0.0680294296320747, "scale": 0.0005193086231456084, "dtype": "uint8"}}, {"name": "batch_normalization_53/batchnorm/mul", "shape": [512], "dtype": "float32", "quantization": {"min": 0.2693241536617279, "scale": 0.006733526084937301, "dtype": "uint8"}}, {"name": "batch_normalization_53/batchnorm/sub", "shape": [512], "dtype": "float32", "quantization": {"min": -0.9969052202561323, "scale": 0.012307471855013978, "dtype": "uint8"}}, {"name": "conv2d_60/convolution/merged_input", "shape": [1, 1, 512, 128], "dtype": "float32", "quantization": {"min": -0.11365859426704107, "scale": 0.0008676228570003136, "dtype": "uint8"}}, {"name": "batch_normalization_54/batchnorm/sub", "shape": [128], "dtype": "float32", "quantization": {"min": -0.6153488079706827, "scale": 0.005170998386308258, "dtype": "uint8"}}, {"name": "conv2d_61/convolution/merged_input", "shape": [3, 3, 128, 128], "dtype": "float32", "quantization": {"min": -0.07813377783578986, "scale": 0.0006056882002774407, "dtype": "uint8"}}, {"name": "batch_normalization_55/batchnorm/sub", "shape": [128], "dtype": "float32", "quantization": {"min": -0.68661528895883, "scale": 0.004401380057428397, "dtype": "uint8"}}, {"name": "conv2d_62/kernel", "shape": [1, 1, 128, 512], "dtype": "float32", "quantization": {"min": -0.1521137931767632, "scale": 0.0012366975055021399, "dtype": "uint8"}}, {"name": "batch_normalization_56/batchnorm/mul", "shape": [512], "dtype": "float32", "quantization": {"min": 0.25677332282066345, "scale": 0.004496804055045633, "dtype": "uint8"}}, {"name": "batch_normalization_56/batchnorm/sub", "shape": [512], "dtype": "float32", "quantization": {"min": -0.9691631808000452, "scale": 0.009143048875472124, "dtype": "uint8"}}, {"name": "conv2d_63/convolution/merged_input", "shape": [1, 1, 512, 128], "dtype": "float32", "quantization": {"min": -0.11606739110806409, "scale": 0.0009211697706989214, "dtype": "uint8"}}, {"name": "batch_normalization_57/batchnorm/sub", "shape": [128], "dtype": "float32", "quantization": {"min": -0.6226997831288507, "scale": 0.004612590986139634, "dtype": "uint8"}}, {"name": "conv2d_64/convolution/merged_input", "shape": [3, 3, 128, 128], "dtype": "float32", "quantization": {"min": -0.06759033740735522, "scale": 0.0005450833661883486, "dtype": "uint8"}}, {"name": "batch_normalization_58/batchnorm/sub", "shape": [128], "dtype": "float32", "quantization": {"min": -0.7436417130862966, "scale": 0.0047669340582454905, "dtype": "uint8"}}, {"name": "conv2d_65/kernel", "shape": [1, 1, 128, 512], "dtype": "float32", "quantization": {"min": -0.1557508546932071, "scale": 0.0012766463499443205, "dtype": "uint8"}}, {"name": "batch_normalization_59/batchnorm/mul", "shape": [512], "dtype": "float32", "quantization": {"min": 0.24275235831737518, "scale": 0.004276628412452399, "dtype": "uint8"}}, {"name": "batch_normalization_59/batchnorm/sub", "shape": [512], "dtype": "float32", "quantization": {"min": -0.982252268931445, "scale": 0.007985790804320691, "dtype": "uint8"}}, {"name": "conv2d_66/convolution/merged_input", "shape": [1, 1, 512, 128], "dtype": "float32", "quantization": {"min": -0.09585384250271554, "scale": 0.0008335116739366569, "dtype": "uint8"}}, {"name": "batch_normalization_60/batchnorm/sub", "shape": [128], "dtype": "float32", "quantization": {"min": -0.5545852333891625, "scale": 0.004699874859230191, "dtype": "uint8"}}, {"name": "conv2d_67/convolution/merged_input", "shape": [3, 3, 128, 128], "dtype": "float32", "quantization": {"min": -0.05579274144827151, "scale": 0.00048097190903682337, "dtype": "uint8"}}, {"name": "batch_normalization_61/batchnorm/sub", "shape": [128], "dtype": "float32", "quantization": {"min": -0.5801516581984127, "scale": 0.004203997523176904, "dtype": "uint8"}}, {"name": "conv2d_68/kernel", "shape": [1, 1, 128, 512], "dtype": "float32", "quantization": {"min": -0.14507329873010225, "scale": 0.00126150694547915, "dtype": "uint8"}}, {"name": "batch_normalization_62/batchnorm/mul", "shape": [512], "dtype": "float32", "quantization": {"min": 0.24869443476200104, "scale": 0.003464857211299971, "dtype": "uint8"}}, {"name": "batch_normalization_62/batchnorm/sub", "shape": [512], "dtype": "float32", "quantization": {"min": -0.9879385092679192, "scale": 0.007599526994368609, "dtype": "uint8"}}, {"name": "conv2d_69/convolution/merged_input", "shape": [1, 1, 512, 128], "dtype": "float32", "quantization": {"min": -0.11038338991941189, "scale": 0.0010034853629037445, "dtype": "uint8"}}, {"name": "batch_normalization_63/batchnorm/sub", "shape": [128], "dtype": "float32", "quantization": {"min": -0.6464912681018605, "scale": 0.004973009754629696, "dtype": "uint8"}}, {"name": "conv2d_70/convolution/merged_input", "shape": [3, 3, 128, 128], "dtype": "float32", "quantization": {"min": -0.05932764072044223, "scale": 0.0004903110803342333, "dtype": "uint8"}}, {"name": "batch_normalization_64/batchnorm/sub", "shape": [128], "dtype": "float32", "quantization": {"min": -0.7351510424239963, "scale": 0.004773708067688288, "dtype": "uint8"}}, {"name": "conv2d_71/kernel", "shape": [1, 1, 128, 512], "dtype": "float32", "quantization": {"min": -0.15761241492103129, "scale": 0.001313436791008594, "dtype": "uint8"}}, {"name": "self_attention_1/gamma", "shape": [1], "dtype": "float32", "quantization": {"min": -0.0220259390771389, "scale": 1.0, "dtype": "uint8"}}, {"name": "sub_pixel_conv2d_2/kernel", "shape": [1, 1, 512, 1024], "dtype": "float32", "quantization": {"min": -0.1471137606045779, "scale": 0.0010897315600339103, "dtype": "uint8"}}, {"name": "dense_4/kernel", "shape": [256, 128], "dtype": "float32", "quantization": {"min": -0.24167074876673078, "scale": 0.0019648028355018763, "dtype": "uint8"}}, {"name": "dense_5/kernel", "shape": [128, 256], "dtype": "float32", "quantization": {"min": -0.25755968573046667, "scale": 0.0017762736946928734, "dtype": "uint8"}}, {"name": "conv2d_75/kernel", "shape": [1, 1, 514, 256], "dtype": "float32", "quantization": {"min": -0.21394861959943584, "scale": 0.0015966314895480287, "dtype": "uint8"}}, {"name": "conv2d_76/convolution/merged_input", "shape": [3, 3, 256, 256], "dtype": "float32", "quantization": {"min": -0.03015629981516623, "scale": 0.0002374511796469782, "dtype": "uint8"}}, {"name": "batch_normalization_68/batchnorm/mul_1", "shape": [256], "dtype": "float32", "quantization": {"min": -1.5453642933976417, "scale": 0.013437950377370797, "dtype": "uint8"}}, {"name": "dense_6/kernel", "shape": [128, 256], "dtype": "float32", "quantization": {"min": -0.2884080420522129, "scale": 0.0022357212562187046, "dtype": "uint8"}}, {"name": "dense_6/bias", "shape": [256], "dtype": "float32", "quantization": {"min": -0.09870643300168654, "scale": 0.0008436447265101414, "dtype": "uint8"}}, {"name": "batch_normalization_69/batchnorm/mul", "shape": [256], "dtype": "float32", "quantization": {"min": 0.14316287636756897, "scale": 0.004257917754790362, "dtype": "uint8"}}, {"name": "batch_normalization_69/batchnorm/sub", "shape": [256], "dtype": "float32", "quantization": {"min": -1.3164440678615197, "scale": 0.010284719280168123, "dtype": "uint8"}}, {"name": "conv2d_77/convolution/merged_input", "shape": [1, 1, 256, 64], "dtype": "float32", "quantization": {"min": -0.17196585711310894, "scale": 0.001457337772144991, "dtype": "uint8"}}, {"name": "batch_normalization_70/batchnorm/sub", "shape": [64], "dtype": "float32", "quantization": {"min": -0.7107979269588695, "scale": 0.005553108804366168, "dtype": "uint8"}}, {"name": "conv2d_78/convolution/merged_input", "shape": [3, 3, 64, 64], "dtype": "float32", "quantization": {"min": -0.1624365644127715, "scale": 0.0012399737741432939, "dtype": "uint8"}}, {"name": "batch_normalization_71/batchnorm/sub", "shape": [64], "dtype": "float32", "quantization": {"min": -0.8503614804323981, "scale": 0.005988461129805621, "dtype": "uint8"}}, {"name": "conv2d_79/kernel", "shape": [1, 1, 64, 256], "dtype": "float32", "quantization": {"min": -0.21698510085835176, "scale": 0.001854573511609844, "dtype": "uint8"}}, {"name": "batch_normalization_72/batchnorm/mul", "shape": [256], "dtype": "float32", "quantization": {"min": 0.14647002518177032, "scale": 0.0037588294230255425, "dtype": "uint8"}}, {"name": "batch_normalization_72/batchnorm/sub", "shape": [256], "dtype": "float32", "quantization": {"min": -1.3901163793077655, "scale": 0.010374002830654967, "dtype": "uint8"}}, {"name": "conv2d_80/convolution/merged_input", "shape": [1, 1, 256, 64], "dtype": "float32", "quantization": {"min": -0.19597428125493668, "scale": 0.0014846536458707324, "dtype": "uint8"}}, {"name": "batch_normalization_73/batchnorm/sub", "shape": [64], "dtype": "float32", "quantization": {"min": -0.6694233540226431, "scale": 0.004318860348533181, "dtype": "uint8"}}, {"name": "conv2d_81/convolution/merged_input", "shape": [3, 3, 64, 64], "dtype": "float32", "quantization": {"min": -0.14868573669125051, "scale": 0.0011894858935300042, "dtype": "uint8"}}, {"name": "batch_normalization_74/batchnorm/sub", "shape": [64], "dtype": "float32", "quantization": {"min": -1.151680065603817, "scale": 0.00710913620743097, "dtype": "uint8"}}, {"name": "conv2d_82/kernel", "shape": [1, 1, 64, 256], "dtype": "float32", "quantization": {"min": -0.21075338423252105, "scale": 0.0017710368422900928, "dtype": "uint8"}}, {"name": "self_attention_2/gamma", "shape": [1], "dtype": "float32", "quantization": {"min": 0.09889182448387146, "scale": 1.0, "dtype": "uint8"}}, {"name": "sub_pixel_conv2d_4/kernel", "shape": [1, 1, 256, 1024], "dtype": "float32", "quantization": {"min": -0.1546629334197325, "scale": 0.0011542009956696454, "dtype": "uint8"}}, {"name": "dense_8/kernel", "shape": [256, 128], "dtype": "float32", "quantization": {"min": -0.3070266323931077, "scale": 0.002224830669515273, "dtype": "uint8"}}, {"name": "dense_9/kernel", "shape": [128, 256], "dtype": "float32", "quantization": {"min": -0.24302665112065333, "scale": 0.0019598923477472043, "dtype": "uint8"}}, {"name": "conv2d_87/kernel", "shape": [1, 1, 514, 256], "dtype": "float32", "quantization": {"min": -0.25697955080107143, "scale": 0.0018355682200076532, "dtype": "uint8"}}, {"name": "conv2d_88/convolution/merged_input", "shape": [3, 3, 256, 256], "dtype": "float32", "quantization": {"min": -0.032825663627362715, "scale": 0.00028297985885657515, "dtype": "uint8"}}, {"name": "batch_normalization_78/batchnorm/mul_1", "shape": [256], "dtype": "float32", "quantization": {"min": -1.5816628269120758, "scale": 0.013635024369931689, "dtype": "uint8"}}, {"name": "dense_10/kernel", "shape": [128, 256], "dtype": "float32", "quantization": {"min": -0.2502847271807054, "scale": 0.002018425219199237, "dtype": "uint8"}}, {"name": "dense_10/bias", "shape": [256], "dtype": "float32", "quantization": {"min": -0.10060574371440738, "scale": 0.0008246372435607162, "dtype": "uint8"}}, {"name": "batch_normalization_79/batchnorm/mul", "shape": [256], "dtype": "float32", "quantization": {"min": 0.46809491515159607, "scale": 0.003132858580234004, "dtype": "uint8"}}, {"name": "batch_normalization_79/batchnorm/sub", "shape": [256], "dtype": "float32", "quantization": {"min": -0.7041772206624348, "scale": 0.008802215258280436, "dtype": "uint8"}}, {"name": "conv2d_89/convolution/merged_input", "shape": [1, 1, 256, 64], "dtype": "float32", "quantization": {"min": -0.17288339780826195, "scale": 0.0015716672528023814, "dtype": "uint8"}}, {"name": "batch_normalization_80/batchnorm/sub", "shape": [64], "dtype": "float32", "quantization": {"min": -0.5775427993606119, "scale": 0.004620342394884895, "dtype": "uint8"}}, {"name": "conv2d_90/convolution/merged_input", "shape": [3, 3, 64, 64], "dtype": "float32", "quantization": {"min": -0.12685739392159032, "scale": 0.0011226318046158436, "dtype": "uint8"}}, {"name": "batch_normalization_81/batchnorm/sub", "shape": [64], "dtype": "float32", "quantization": {"min": -0.6634244287715239, "scale": 0.004575340888079475, "dtype": "uint8"}}, {"name": "conv2d_91/kernel", "shape": [1, 1, 64, 256], "dtype": "float32", "quantization": {"min": -0.19979245989930394, "scale": 0.0017838612491009281, "dtype": "uint8"}}, {"name": "batch_normalization_82/batchnorm/mul", "shape": [256], "dtype": "float32", "quantization": {"min": 0.38239559531211853, "scale": 0.0030764931557225247, "dtype": "uint8"}}, {"name": "batch_normalization_82/batchnorm/sub", "shape": [256], "dtype": "float32", "quantization": {"min": -0.6809200214404686, "scale": 0.00636373851813522, "dtype": "uint8"}}, {"name": "conv2d_92/convolution/merged_input", "shape": [1, 1, 256, 64], "dtype": "float32", "quantization": {"min": -0.17763891220092773, "scale": 0.001586061716079712, "dtype": "uint8"}}, {"name": "batch_normalization_83/batchnorm/sub", "shape": [64], "dtype": "float32", "quantization": {"min": -0.8227989407146677, "scale": 0.0053428502643809595, "dtype": "uint8"}}, {"name": "conv2d_93/convolution/merged_input", "shape": [3, 3, 64, 64], "dtype": "float32", "quantization": {"min": -0.13126083004708383, "scale": 0.0012743769907483868, "dtype": "uint8"}}, {"name": "batch_normalization_84/batchnorm/sub", "shape": [64], "dtype": "float32", "quantization": {"min": -0.9908246849097457, "scale": 0.006271042309555353, "dtype": "uint8"}}, {"name": "conv2d_94/kernel", "shape": [1, 1, 64, 256], "dtype": "float32", "quantization": {"min": -0.21772267526271297, "scale": 0.0017846120923173195, "dtype": "uint8"}}, {"name": "self_attention_3/gamma", "shape": [1], "dtype": "float32", "quantization": {"min": -0.0006696796044707298, "scale": 1.0, "dtype": "uint8"}}, {"name": "sub_pixel_conv2d_6/kernel", "shape": [1, 1, 256, 512], "dtype": "float32", "quantization": {"min": -0.15959630783866435, "scale": 0.0013525110833785114, "dtype": "uint8"}}, {"name": "dense_12/kernel", "shape": [128, 64], "dtype": "float32", "quantization": {"min": -0.3899237868832607, "scale": 0.0029098790065914975, "dtype": "uint8"}}, {"name": "dense_13/kernel", "shape": [64, 128], "dtype": "float32", "quantization": {"min": -0.33103734137965185, "scale": 0.0025464410875357833, "dtype": "uint8"}}, {"name": "batch_normalization_16/batchnorm/mul", "shape": [64], "dtype": "float32", "quantization": {"min": 0.9238802194595337, "scale": 0.005598349197238099, "dtype": "uint8"}}, {"name": "batch_normalization_16/batchnorm/sub", "shape": [64], "dtype": "float32", "quantization": {"min": -1.2643401412402882, "scale": 0.008428934274935254, "dtype": "uint8"}}, {"name": "conv2d_18/convolution/merged_input", "shape": [1, 1, 64, 32], "dtype": "float32", "quantization": {"min": -0.3906023902051589, "scale": 0.00320165893610786, "dtype": "uint8"}}, {"name": "batch_normalization_17/batchnorm/sub", "shape": [32], "dtype": "float32", "quantization": {"min": -0.3708216807421516, "scale": 0.004522215618806727, "dtype": "uint8"}}, {"name": "conv2d_19/convolution/merged_input", "shape": [3, 3, 32, 32], "dtype": "float32", "quantization": {"min": -0.16607287350822897, "scale": 0.0011695272782269645, "dtype": "uint8"}}, {"name": "batch_normalization_18/batchnorm/sub", "shape": [32], "dtype": "float32", "quantization": {"min": -0.378994855226255, "scale": 0.002707106108758964, "dtype": "uint8"}}, {"name": "conv2d_20/kernel", "shape": [1, 1, 32, 128], "dtype": "float32", "quantization": {"min": -0.23390920886806413, "scale": 0.0018418047942367255, "dtype": "uint8"}}, {"name": "conv2d_21/kernel", "shape": [1, 1, 64, 128], "dtype": "float32", "quantization": {"min": -0.21212778126492218, "scale": 0.0016835538195628746, "dtype": "uint8"}}, {"name": "batch_normalization_19/batchnorm/mul", "shape": [128], "dtype": "float32", "quantization": {"min": 0.6425133943557739, "scale": 0.009603617705550849, "dtype": "uint8"}}, {"name": "batch_normalization_19/batchnorm/sub", "shape": [128], "dtype": "float32", "quantization": {"min": -1.106932910750894, "scale": 0.011411679492277258, "dtype": "uint8"}}, {"name": "conv2d_22/convolution/merged_input", "shape": [1, 1, 128, 32], "dtype": "float32", "quantization": {"min": -0.2573598332264844, "scale": 0.0019950374668719724, "dtype": "uint8"}}, {"name": "batch_normalization_20/batchnorm/sub", "shape": [32], "dtype": "float32", "quantization": {"min": -0.4883272761223363, "scale": 0.0035644326724258123, "dtype": "uint8"}}, {"name": "conv2d_23/convolution/merged_input", "shape": [3, 3, 32, 32], "dtype": "float32", "quantization": {"min": -0.11130864640661314, "scale": 0.0008904691712529052, "dtype": "uint8"}}, {"name": "batch_normalization_21/batchnorm/sub", "shape": [32], "dtype": "float32", "quantization": {"min": -0.3962469362745098, "scale": 0.003095679189644608, "dtype": "uint8"}}, {"name": "conv2d_24/kernel", "shape": [1, 1, 32, 128], "dtype": "float32", "quantization": {"min": -0.24632775549795113, "scale": 0.0019244355898277432, "dtype": "uint8"}}, {"name": "batch_normalization_22/batchnorm/mul", "shape": [128], "dtype": "float32", "quantization": {"min": 0.5493819117546082, "scale": 0.008482606036990296, "dtype": "uint8"}}, {"name": "batch_normalization_22/batchnorm/sub", "shape": [128], "dtype": "float32", "quantization": {"min": -1.2881561849631515, "scale": 0.013279960669723211, "dtype": "uint8"}}, {"name": "conv2d_25/convolution/merged_input", "shape": [1, 1, 128, 32], "dtype": "float32", "quantization": {"min": -0.2509366647869933, "scale": 0.0020074933182959464, "dtype": "uint8"}}, {"name": "batch_normalization_23/batchnorm/sub", "shape": [32], "dtype": "float32", "quantization": {"min": -0.43265820017047957, "scale": 0.002983849656348135, "dtype": "uint8"}}, {"name": "conv2d_26/convolution/merged_input", "shape": [3, 3, 32, 32], "dtype": "float32", "quantization": {"min": -0.1885673018062816, "scale": 0.0013469092986162971, "dtype": "uint8"}}, {"name": "batch_normalization_24/batchnorm/sub", "shape": [32], "dtype": "float32", "quantization": {"min": -0.42944811757873086, "scale": 0.0033814812407774084, "dtype": "uint8"}}, {"name": "conv2d_27/kernel", "shape": [1, 1, 32, 128], "dtype": "float32", "quantization": {"min": -0.2711528955721388, "scale": 0.0020235290714338714, "dtype": "uint8"}}, {"name": "conv2d_98/kernel", "shape": [1, 1, 258, 128], "dtype": "float32", "quantization": {"min": -0.30280917403744717, "scale": 0.0021784832664564543, "dtype": "uint8"}}, {"name": "conv2d_99/convolution/merged_input", "shape": [3, 3, 128, 128], "dtype": "float32", "quantization": {"min": -0.04817663470611853, "scale": 0.0004263419000541463, "dtype": "uint8"}}, {"name": "batch_normalization_88/batchnorm/mul_1", "shape": [128], "dtype": "float32", "quantization": {"min": -1.670379276369132, "scale": 0.01452503718581854, "dtype": "uint8"}}, {"name": "dense_14/kernel", "shape": [128, 128], "dtype": "float32", "quantization": {"min": -0.264402311222226, "scale": 0.0020338639324786615, "dtype": "uint8"}}, {"name": "dense_14/bias", "shape": [128], "dtype": "float32", "quantization": {"min": -0.13410691989987505, "scale": 0.0009248753096543107, "dtype": "uint8"}}, {"name": "batch_normalization_89/batchnorm/mul", "shape": [128], "dtype": "float32", "quantization": {"min": 0.2922751009464264, "scale": 0.006234807944765278, "dtype": "uint8"}}, {"name": "batch_normalization_89/batchnorm/sub", "shape": [128], "dtype": "float32", "quantization": {"min": -1.8263157180711336, "scale": 0.014969800967796177, "dtype": "uint8"}}, {"name": "conv2d_100/convolution/merged_input", "shape": [1, 1, 128, 32], "dtype": "float32", "quantization": {"min": -0.2773891612595203, "scale": 0.002391285872926899, "dtype": "uint8"}}, {"name": "batch_normalization_90/batchnorm/sub", "shape": [32], "dtype": "float32", "quantization": {"min": -0.5133232698721044, "scale": 0.004173359917659386, "dtype": "uint8"}}, {"name": "conv2d_101/convolution/merged_input", "shape": [3, 3, 32, 32], "dtype": "float32", "quantization": {"min": -0.20547257743629754, "scale": 0.001786718064663457, "dtype": "uint8"}}, {"name": "batch_normalization_91/batchnorm/sub", "shape": [32], "dtype": "float32", "quantization": {"min": -0.5657781657050638, "scale": 0.0045627271427827725, "dtype": "uint8"}}, {"name": "conv2d_102/kernel", "shape": [1, 1, 32, 128], "dtype": "float32", "quantization": {"min": -0.2913700851739622, "scale": 0.00217440362070121, "dtype": "uint8"}}, {"name": "batch_normalization_92/batchnorm/mul", "shape": [128], "dtype": "float32", "quantization": {"min": 0.29741841554641724, "scale": 0.004970823316013112, "dtype": "uint8"}}, {"name": "batch_normalization_92/batchnorm/sub", "shape": [128], "dtype": "float32", "quantization": {"min": -1.6020563536999273, "scale": 0.012323510413076364, "dtype": "uint8"}}, {"name": "conv2d_103/convolution/merged_input", "shape": [1, 1, 128, 32], "dtype": "float32", "quantization": {"min": -0.30231216783617054, "scale": 0.0023077264720318363, "dtype": "uint8"}}, {"name": "batch_normalization_93/batchnorm/sub", "shape": [32], "dtype": "float32", "quantization": {"min": -0.3544768632627001, "scale": 0.0032225169387518193, "dtype": "uint8"}}, {"name": "conv2d_104/convolution/merged_input", "shape": [3, 3, 32, 32], "dtype": "float32", "quantization": {"min": -0.27588861549601834, "scale": 0.00209006526890923, "dtype": "uint8"}}, {"name": "batch_normalization_94/batchnorm/sub", "shape": [32], "dtype": "float32", "quantization": {"min": -0.723486183905134, "scale": 0.006637487925735174, "dtype": "uint8"}}, {"name": "conv2d_105/kernel", "shape": [1, 1, 32, 128], "dtype": "float32", "quantization": {"min": -0.3450423066522561, "scale": 0.002518556982863183, "dtype": "uint8"}}, {"name": "self_attention_4/gamma", "shape": [1], "dtype": "float32", "quantization": {"min": -0.004185143858194351, "scale": 1.0, "dtype": "uint8"}}, {"name": "sub_pixel_conv2d_8/kernel", "shape": [1, 1, 128, 256], "dtype": "float32", "quantization": {"min": -0.2484689471768398, "scale": 0.0018136419501959108, "dtype": "uint8"}}, {"name": "dense_16/kernel", "shape": [64, 32], "dtype": "float32", "quantization": {"min": -0.3548439624262791, "scale": 0.0027722184564553053, "dtype": "uint8"}}, {"name": "dense_17/kernel", "shape": [32, 64], "dtype": "float32", "quantization": {"min": -0.391001014732847, "scale": 0.002984740570479748, "dtype": "uint8"}}, {"name": "batch_normalization_7/batchnorm/mul", "shape": [32], "dtype": "float32", "quantization": {"min": 1.0297921895980835, "scale": 0.01287534797892851, "dtype": "uint8"}}, {"name": "batch_normalization_7/batchnorm/sub", "shape": [32], "dtype": "float32", "quantization": {"min": -0.545008226703195, "scale": 0.006123687940485337, "dtype": "uint8"}}, {"name": "conv2d_8/convolution/merged_input", "shape": [1, 1, 32, 16], "dtype": "float32", "quantization": {"min": -0.5679186652688419, "scale": 0.004732655543907016, "dtype": "uint8"}}, {"name": "batch_normalization_8/batchnorm/sub", "shape": [16], "dtype": "float32", "quantization": {"min": -0.5444084726127923, "scale": 0.00539018289715636, "dtype": "uint8"}}, {"name": "conv2d_9/convolution/merged_input", "shape": [3, 3, 16, 16], "dtype": "float32", "quantization": {"min": -0.2161529078203089, "scale": 0.0017863876679364372, "dtype": "uint8"}}, {"name": "batch_normalization_9/batchnorm/sub", "shape": [16], "dtype": "float32", "quantization": {"min": -0.36159236851860493, "scale": 0.003888089984071021, "dtype": "uint8"}}, {"name": "conv2d_10/kernel", "shape": [1, 1, 16, 64], "dtype": "float32", "quantization": {"min": -0.311127129723044, "scale": 0.002489017037784352, "dtype": "uint8"}}, {"name": "leaky_re_lu_129/LeakyRelu/alpha", "shape": [], "dtype": "float32", "quantization": {"min": 0.30000001192092896, "scale": 1.0, "dtype": "uint8"}}, {"name": "batch_normalization_1/batchnorm/mul", "shape": [3], "dtype": "float32", "quantization": {"min": 1.6074053049087524, "scale": 0.04860409521589092, "dtype": "uint8"}}, {"name": "batch_normalization_1/batchnorm/sub", "shape": [3], "dtype": "float32", "quantization": {"min": -0.19465398788452148, "scale": 0.00034103665281744563, "dtype": "uint8"}}, {"name": "conv2d_1/convolution/merged_input", "shape": [1, 1, 3, 8], "dtype": "float32", "quantization": {"min": -1.0924954390993304, "scale": 0.008339659840452904, "dtype": "uint8"}}, {"name": "batch_normalization_2/batchnorm/sub", "shape": [8], "dtype": "float32", "quantization": {"min": -0.460653451611014, "scale": 0.003338068489934884, "dtype": "uint8"}}, {"name": "conv2d_2/convolution/merged_input", "shape": [3, 3, 8, 8], "dtype": "float32", "quantization": {"min": -0.3527934624868281, "scale": 0.0030153287392036586, "dtype": "uint8"}}, {"name": "batch_normalization_3/batchnorm/sub", "shape": [8], "dtype": "float32", "quantization": {"min": -1.2606504776898553, "scale": 0.006565887904634663, "dtype": "uint8"}}, {"name": "conv2d_3/kernel", "shape": [1, 1, 8, 32], "dtype": "float32", "quantization": {"min": -0.41388077081418506, "scale": 0.003233443521985821, "dtype": "uint8"}}, {"name": "coordinate_channel2d_7/arange/start", "shape": [], "dtype": "int32"}, {"name": "coordinate_channel2d_7/strided_slice/stack", "shape": [1], "dtype": "int32"}, {"name": "coordinate_channel2d_7/ExpandDims/dim", "shape": [], "dtype": "int32"}, {"name": "coordinate_channel2d_7/transpose/perm", "shape": [4], "dtype": "int32"}, {"name": "conv2d_4/kernel", "shape": [1, 1, 3, 32], "dtype": "float32", "quantization": {"min": -0.4135365212664885, "scale": 0.003362085538751939, "dtype": "uint8"}}, {"name": "batch_normalization_4/batchnorm/mul", "shape": [32], "dtype": "float32", "quantization": {"min": 1.3623281717300415, "scale": 0.00990302469216141, "dtype": "uint8"}}, {"name": "batch_normalization_4/batchnorm/sub", "shape": [32], "dtype": "float32", "quantization": {"min": -0.4796426913317512, "scale": 0.005849301113801844, "dtype": "uint8"}}, {"name": "conv2d_5/convolution/merged_input", "shape": [1, 1, 32, 8], "dtype": "float32", "quantization": {"min": -1.0474004913778865, "scale": 0.006890792706433464, "dtype": "uint8"}}, {"name": "batch_normalization_5/batchnorm/sub", "shape": [8], "dtype": "float32", "quantization": {"min": -0.4397014487023447, "scale": 0.003545979425018909, "dtype": "uint8"}}, {"name": "conv2d_6/convolution/merged_input", "shape": [3, 3, 8, 8], "dtype": "float32", "quantization": {"min": -0.30594699920392504, "scale": 0.0023003533774731207, "dtype": "uint8"}}, {"name": "batch_normalization_6/batchnorm/sub", "shape": [8], "dtype": "float32", "quantization": {"min": -0.5000483974522235, "scale": 0.0034968419402253395, "dtype": "uint8"}}, {"name": "conv2d_7/kernel", "shape": [1, 1, 8, 32], "dtype": "float32", "quantization": {"min": -0.3876496532384087, "scale": 0.0030765845495111803, "dtype": "uint8"}}, {"name": "conv2d_11/kernel", "shape": [1, 1, 32, 64], "dtype": "float32", "quantization": {"min": -0.30724029868256814, "scale": 0.0022928380498699113, "dtype": "uint8"}}, {"name": "batch_normalization_10/batchnorm/mul", "shape": [64], "dtype": "float32", "quantization": {"min": 1.1686691045761108, "scale": 0.010936198047563142, "dtype": "uint8"}}, {"name": "batch_normalization_10/batchnorm/sub", "shape": [64], "dtype": "float32", "quantization": {"min": -1.1744063919665766, "scale": 0.01334552718143837, "dtype": "uint8"}}, {"name": "conv2d_12/convolution/merged_input", "shape": [1, 1, 64, 16], "dtype": "float32", "quantization": {"min": -0.3660361496841206, "scale": 0.0029759036559684603, "dtype": "uint8"}}, {"name": "batch_normalization_11/batchnorm/sub", "shape": [16], "dtype": "float32", "quantization": {"min": -0.34760952603583245, "scale": 0.0028033026293212294, "dtype": "uint8"}}, {"name": "conv2d_13/convolution/merged_input", "shape": [3, 3, 16, 16], "dtype": "float32", "quantization": {"min": -0.20311622818311056, "scale": 0.001550505558649699, "dtype": "uint8"}}, {"name": "batch_normalization_12/batchnorm/sub", "shape": [16], "dtype": "float32", "quantization": {"min": -0.5434532225131988, "scale": 0.003551981846491496, "dtype": "uint8"}}, {"name": "conv2d_14/kernel", "shape": [1, 1, 16, 64], "dtype": "float32", "quantization": {"min": -0.29903066999772016, "scale": 0.0024115376612719366, "dtype": "uint8"}}, {"name": "batch_normalization_13/batchnorm/mul", "shape": [64], "dtype": "float32", "quantization": {"min": 0.9630791544914246, "scale": 0.008899893713932412, "dtype": "uint8"}}, {"name": "batch_normalization_13/batchnorm/sub", "shape": [64], "dtype": "float32", "quantization": {"min": -1.3021990243126365, "scale": 0.009235454073139266, "dtype": "uint8"}}, {"name": "conv2d_15/convolution/merged_input", "shape": [1, 1, 64, 16], "dtype": "float32", "quantization": {"min": -0.38804793498095347, "scale": 0.002962197976953843, "dtype": "uint8"}}, {"name": "batch_normalization_14/batchnorm/sub", "shape": [16], "dtype": "float32", "quantization": {"min": -0.362902885909174, "scale": 0.004593707416571823, "dtype": "uint8"}}, {"name": "conv2d_16/convolution/merged_input", "shape": [3, 3, 16, 16], "dtype": "float32", "quantization": {"min": -0.21553071018527534, "scale": 0.0015505806488149306, "dtype": "uint8"}}, {"name": "batch_normalization_15/batchnorm/sub", "shape": [16], "dtype": "float32", "quantization": {"min": -0.7987109663439732, "scale": 0.005087330995821485, "dtype": "uint8"}}, {"name": "conv2d_17/kernel", "shape": [1, 1, 16, 64], "dtype": "float32", "quantization": {"min": -0.32823389277738685, "scale": 0.002467924005845014, "dtype": "uint8"}}, {"name": "coordinate_channel2d_7/mul/y", "shape": [], "dtype": "float32", "quantization": {"min": 2.0, "scale": 1.0, "dtype": "uint8"}}, {"name": "conv2d_110/kernel", "shape": [1, 1, 130, 64], "dtype": "float32", "quantization": {"min": -0.3450314496077743, "scale": 0.0027602515968621947, "dtype": "uint8"}}, {"name": "conv2d_111/convolution/merged_input", "shape": [3, 3, 64, 64], "dtype": "float32", "quantization": {"min": -0.1922589608267242, "scale": 0.0012903285961525113, "dtype": "uint8"}}, {"name": "batch_normalization_98/batchnorm/mul_1", "shape": [64], "dtype": "float32", "quantization": {"min": -1.7495399872461954, "scale": 0.01470201669954786, "dtype": "uint8"}}, {"name": "dense_18/kernel", "shape": [128, 64], "dtype": "float32", "quantization": {"min": -0.3495376250323127, "scale": 0.002648012310850854, "dtype": "uint8"}}, {"name": "dense_18/bias", "shape": [64], "dtype": "float32", "quantization": {"min": -0.2851526456720689, "scale": 0.0021122418197931027, "dtype": "uint8"}}, {"name": "batch_normalization_99/batchnorm/mul", "shape": [64], "dtype": "float32", "quantization": {"min": 0.21181368827819824, "scale": 0.005806314243989833, "dtype": "uint8"}}, {"name": "batch_normalization_99/batchnorm/sub", "shape": [64], "dtype": "float32", "quantization": {"min": -1.693319688123815, "scale": 0.012926104489494772, "dtype": "uint8"}}, {"name": "conv2d_112/convolution/merged_input", "shape": [1, 1, 64, 16], "dtype": "float32", "quantization": {"min": -0.5490404146559098, "scale": 0.00373496880718306, "dtype": "uint8"}}, {"name": "batch_normalization_100/batchnorm/sub", "shape": [16], "dtype": "float32", "quantization": {"min": -0.3832627436693977, "scale": 0.005807011267718147, "dtype": "uint8"}}, {"name": "conv2d_113/convolution/merged_input", "shape": [3, 3, 16, 16], "dtype": "float32", "quantization": {"min": -0.42244908762913125, "scale": 0.003152605131560681, "dtype": "uint8"}}, {"name": "batch_normalization_101/batchnorm/sub", "shape": [16], "dtype": "float32", "quantization": {"min": -0.8728318242465749, "scale": 0.005937631457459693, "dtype": "uint8"}}, {"name": "conv2d_114/kernel", "shape": [1, 1, 16, 64], "dtype": "float32", "quantization": {"min": -0.39031672547845275, "scale": 0.003025711050220564, "dtype": "uint8"}}, {"name": "batch_normalization_102/batchnorm/mul", "shape": [64], "dtype": "float32", "quantization": {"min": 0.2174660563468933, "scale": 0.006078098568261838, "dtype": "uint8"}}, {"name": "batch_normalization_102/batchnorm/sub", "shape": [64], "dtype": "float32", "quantization": {"min": -1.7845478759092444, "scale": 0.013218873154883291, "dtype": "uint8"}}, {"name": "conv2d_115/convolution/merged_input", "shape": [1, 1, 64, 16], "dtype": "float32", "quantization": {"min": -0.39628709648169724, "scale": 0.0034459747520147587, "dtype": "uint8"}}, {"name": "batch_normalization_103/batchnorm/sub", "shape": [16], "dtype": "float32", "quantization": {"min": -0.42171087452009615, "scale": 0.003833735222909965, "dtype": "uint8"}}, {"name": "conv2d_116/convolution/merged_input", "shape": [3, 3, 16, 16], "dtype": "float32", "quantization": {"min": -0.45322692043641033, "scale": 0.003568715908948113, "dtype": "uint8"}}, {"name": "batch_normalization_104/batchnorm/sub", "shape": [16], "dtype": "float32", "quantization": {"min": -0.313086236224455, "scale": 0.005492740986393947, "dtype": "uint8"}}, {"name": "conv2d_117/kernel", "shape": [1, 1, 16, 64], "dtype": "float32", "quantization": {"min": -0.4001688924490237, "scale": 0.003449731831457101, "dtype": "uint8"}}, {"name": "self_attention_5/gamma", "shape": [1], "dtype": "float32", "quantization": {"min": 0.00738504808396101, "scale": 1.0, "dtype": "uint8"}}, {"name": "sub_pixel_conv2d_10/kernel", "shape": [1, 1, 64, 128], "dtype": "float32", "quantization": {"min": -0.3032392420020758, "scale": 0.0022799943007674873, "dtype": "uint8"}}, {"name": "global_average_pooling2d_5/Mean/reduction_indices", "shape": [2], "dtype": "int32"}, {"name": "dense_20/kernel", "shape": [32, 16], "dtype": "float32", "quantization": {"min": -0.38192049428528435, "scale": 0.003080003986171648, "dtype": "uint8"}}, {"name": "dense_21/kernel", "shape": [16, 32], "dtype": "float32", "quantization": {"min": -0.46597239176432287, "scale": 0.003426267586502374, "dtype": "uint8"}}, {"name": "coordinate_channel2d_7/strided_slice_1/stack_1", "shape": [1], "dtype": "int32"}, {"name": "coordinate_channel2d_1/strided_slice_2/stack_1", "shape": [1], "dtype": "int32"}, {"name": "coordinate_channel2d_7/strided_slice/stack_1", "shape": [1], "dtype": "int32"}, {"name": "coordinate_channel2d_7/sub_1/y", "shape": [], "dtype": "float32", "quantization": {"min": 1.0, "scale": 1.0, "dtype": "uint8"}}, {"name": "coordinate_channel2d_1/concat/axis", "shape": [], "dtype": "int32"}, {"name": "conv2d_121/kernel", "shape": [1, 1, 66, 32], "dtype": "float32", "quantization": {"min": -0.42399295112665963, "scale": 0.003391943609013277, "dtype": "uint8"}}, {"name": "conv2d_122/convolution/merged_input", "shape": [3, 3, 32, 32], "dtype": "float32", "quantization": {"min": -0.1271833720744825, "scale": 0.0010014438746022243, "dtype": "uint8"}}, {"name": "batch_normalization_108/batchnorm/mul_1", "shape": [32], "dtype": "float32", "quantization": {"min": -1.480517632821027, "scale": 0.014954723563848757, "dtype": "uint8"}}, {"name": "dense_1/kernel", "shape": [3, 128], "dtype": "float32", "quantization": {"min": -0.2831568703931921, "scale": 0.002145127806009031, "dtype": "uint8"}}, {"name": "dense_1/bias", "shape": [128], "dtype": "float32", "quantization": {"min": -0.10406514336081112, "scale": 0.0008130089325063368, "dtype": "uint8"}}, {"name": "dense_22/kernel", "shape": [128, 32], "dtype": "float32", "quantization": {"min": -0.2792639966104545, "scale": 0.0021481845893111884, "dtype": "uint8"}}, {"name": "dense_22/bias", "shape": [32], "dtype": "float32", "quantization": {"min": -0.2158916542343065, "scale": 0.0011927715703552845, "dtype": "uint8"}}, {"name": "multiply_16/ExpandDims/dim", "shape": [], "dtype": "int32"}, {"name": "batch_normalization_109/batchnorm/mul", "shape": [32], "dtype": "float32", "quantization": {"min": 0.15792733430862427, "scale": 0.0041292838021820665, "dtype": "uint8"}}, {"name": "batch_normalization_109/batchnorm/sub", "shape": [32], "dtype": "float32", "quantization": {"min": -1.7629745146807503, "scale": 0.013355867535460229, "dtype": "uint8"}}, {"name": "conv2d_123/convolution/merged_input", "shape": [1, 1, 32, 8], "dtype": "float32", "quantization": {"min": -0.5570417198480344, "scale": 0.004284936306523342, "dtype": "uint8"}}, {"name": "batch_normalization_110/batchnorm/sub", "shape": [8], "dtype": "float32", "quantization": {"min": -0.68860524261699, "scale": 0.00427705119637882, "dtype": "uint8"}}, {"name": "conv2d_124/convolution/merged_input", "shape": [3, 3, 8, 8], "dtype": "float32", "quantization": {"min": -0.4516994973023733, "scale": 0.0032970766226450604, "dtype": "uint8"}}, {"name": "batch_normalization_111/batchnorm/sub", "shape": [8], "dtype": "float32", "quantization": {"min": -0.79834758347156, "scale": 0.005252286733365526, "dtype": "uint8"}}, {"name": "conv2d_125/kernel", "shape": [1, 1, 8, 32], "dtype": "float32", "quantization": {"min": -0.49244149350652505, "scale": 0.003939531948052201, "dtype": "uint8"}}, {"name": "batch_normalization_112/batchnorm/mul", "shape": [32], "dtype": "float32", "quantization": {"min": 0.14797893166542053, "scale": 0.002623071273167928, "dtype": "uint8"}}, {"name": "batch_normalization_112/batchnorm/sub", "shape": [32], "dtype": "float32", "quantization": {"min": -1.7518523258321426, "scale": 0.011017939156176998, "dtype": "uint8"}}, {"name": "conv2d_126/convolution/merged_input", "shape": [1, 1, 32, 8], "dtype": "float32", "quantization": {"min": -0.6819599642473108, "scale": 0.004768950798932243, "dtype": "uint8"}}, {"name": "batch_normalization_113/batchnorm/sub", "shape": [8], "dtype": "float32", "quantization": {"min": -0.40206437952378216, "scale": 0.003045942269119562, "dtype": "uint8"}}, {"name": "conv2d_127/convolution/merged_input", "shape": [3, 3, 8, 8], "dtype": "float32", "quantization": {"min": -0.4211627310397578, "scale": 0.003452153533112769, "dtype": "uint8"}}, {"name": "batch_normalization_114/batchnorm/sub", "shape": [8], "dtype": "float32", "quantization": {"min": -0.8299266240176033, "scale": 0.0055328441601173554, "dtype": "uint8"}}, {"name": "conv2d_128/kernel", "shape": [1, 1, 8, 32], "dtype": "float32", "quantization": {"min": -0.5370930582869287, "scale": 0.003920387286765903, "dtype": "uint8"}}, {"name": "conv2d_132/kernel", "shape": [1, 1, 32, 16], "dtype": "float32", "quantization": {"min": -0.37112865132444045, "scale": 0.0030671789365656235, "dtype": "uint8"}}, {"name": "batch_normalization_118/batchnorm/mul", "shape": [16], "dtype": "float32", "quantization": {"min": 0.1803169846534729, "scale": 0.0011602307067197911, "dtype": "uint8"}}, {"name": "batch_normalization_118/batchnorm/sub", "shape": [16], "dtype": "float32", "quantization": {"min": -1.3795882786021514, "scale": 0.01130810064427993, "dtype": "uint8"}}, {"name": "conv2d_133/convolution/merged_input", "shape": [1, 1, 16, 4], "dtype": "float32", "quantization": {"min": -0.7781233668327332, "scale": 0.006538851822123808, "dtype": "uint8"}}, {"name": "batch_normalization_119/batchnorm/sub", "shape": [4], "dtype": "float32", "quantization": {"min": -0.4234776148609087, "scale": 0.004758175447875378, "dtype": "uint8"}}, {"name": "conv2d_134/convolution/merged_input", "shape": [3, 3, 4, 4], "dtype": "float32", "quantization": {"min": -0.49560554448296046, "scale": 0.003996818907120649, "dtype": "uint8"}}, {"name": "batch_normalization_120/batchnorm/sub", "shape": [4], "dtype": "float32", "quantization": {"min": -0.1712022332584157, "scale": 0.00178335659644183, "dtype": "uint8"}}, {"name": "conv2d_135/kernel", "shape": [1, 1, 4, 16], "dtype": "float32", "quantization": {"min": -0.5528063037816217, "scale": 0.005264821940777349, "dtype": "uint8"}}, {"name": "batch_normalization_121/batchnorm/mul", "shape": [16], "dtype": "float32", "quantization": {"min": 0.17292125523090363, "scale": 0.0012386524794148464, "dtype": "uint8"}}, {"name": "batch_normalization_121/batchnorm/sub", "shape": [16], "dtype": "float32", "quantization": {"min": -1.4590534083983477, "scale": 0.011137812277849983, "dtype": "uint8"}}, {"name": "conv2d_136/convolution/merged_input", "shape": [1, 1, 16, 4], "dtype": "float32", "quantization": {"min": -0.4489893054260927, "scale": 0.004196161732954138, "dtype": "uint8"}}, {"name": "batch_normalization_122/batchnorm/sub", "shape": [4], "dtype": "float32", "quantization": {"min": -0.4727937152572707, "scale": 0.00459023024521622, "dtype": "uint8"}}, {"name": "conv2d_137/convolution/merged_input", "shape": [3, 3, 4, 4], "dtype": "float32", "quantization": {"min": -0.3544267952442169, "scale": 0.002549833059310913, "dtype": "uint8"}}, {"name": "batch_normalization_123/batchnorm/sub", "shape": [4], "dtype": "float32", "quantization": {"min": -0.46759194135665894, "scale": 0.0018118564459476986, "dtype": "uint8"}}, {"name": "conv2d_138/kernel", "shape": [1, 1, 4, 16], "dtype": "float32", "quantization": {"min": -0.569751520133486, "scale": 0.004158770219952452, "dtype": "uint8"}}, {"name": "conv2d_139/kernel", "shape": [1, 1, 16, 1], "dtype": "float32", "quantization": {"min": -0.5318180987647936, "scale": 0.0033032180047502706, "dtype": "uint8"}}, {"name": "conv2d_139/bias", "shape": [1], "dtype": "float32", "quantization": {"min": 0.003527377499267459, "scale": 1.0, "dtype": "uint8"}}]}]}