{"format": "graph-model", "generatedBy": "2.1.0", "convertedBy": "TensorFlow.js Converter v1.6.0", "userDefinedMetadata": {"signature": {"outputs": {"conv2d_139/Tanh:0": {"name": "conv2d_139/Tanh:0"}}}}, "modelTopology": {"node": [{"name": "batch_normalization_115/batchnorm/mul", "op": "Const", "attr": {"value": {"tensor": {"dtype": "DT_FLOAT", "tensorShape": {"dim": [{"size": "32"}]}}}, "dtype": {"type": "DT_FLOAT"}}}, {"name": "batch_normalization_115/batchnorm/sub", "op": "Const", "attr": {"value": {"tensor": {"dtype": "DT_FLOAT", "tensorShape": {"dim": [{"size": "32"}]}}}, "dtype": {"type": "DT_FLOAT"}}}, {"name": "conv2d_129/convolution/merged_input", "op": "Const", "attr": {"dtype": {"type": "DT_FLOAT"}, "value": {"tensor": {"dtype": "DT_FLOAT", "tensorShape": {"dim": [{"size": "1"}, {"size": "1"}, {"size": "32"}, {"size": "4"}]}}}}}, {"name": "batch_normalization_116/batchnorm/sub", "op": "Const", "attr": {"dtype": {"type": "DT_FLOAT"}, "value": {"tensor": {"dtype": "DT_FLOAT", "tensorShape": {"dim": [{"size": "4"}]}}}}}, {"name": "conv2d_130/convolution/merged_input", "op": "Const", "attr": {"value": {"tensor": {"dtype": "DT_FLOAT", "tensorShape": {"dim": [{"size": "3"}, {"size": "3"}, {"size": "4"}, {"size": "4"}]}}}, "dtype": {"type": "DT_FLOAT"}}}, {"name": "batch_normalization_117/batchnorm/sub", "op": "Const", "attr": {"value": {"tensor": {"dtype": "DT_FLOAT", "tensorShape": {"dim": [{"size": "4"}]}}}, "dtype": {"type": "DT_FLOAT"}}}, {"name": "conv2d_131/kernel", "op": "Const", "attr": {"dtype": {"type": "DT_FLOAT"}, "value": {"tensor": {"dtype": "DT_FLOAT", "tensorShape": {"dim": [{"size": "1"}, {"size": "1"}, {"size": "4"}, {"size": "16"}]}}}}}, {"name": "dense_23/kernel", "op": "Const", "attr": {"value": {"tensor": {"dtype": "DT_FLOAT", "tensorShape": {"dim": [{"size": "128"}, {"size": "32"}]}}}, "dtype": {"type": "DT_FLOAT"}}}, {"name": "dense_23/bias", "op": "Const", "attr": {"value": {"tensor": {"dtype": "DT_FLOAT", "tensorShape": {"dim": [{"size": "32"}]}}}, "dtype": {"type": "DT_FLOAT"}}}, {"name": "conv2d_120/kernel", "op": "Const", "attr": {"value": {"tensor": {"dtype": "DT_FLOAT", "tensorShape": {"dim": [{"size": "1"}, {"size": "1"}, {"size": "32"}, {"size": "1"}]}}}, "dtype": {"type": "DT_FLOAT"}}}, {"name": "batch_normalization_107/batchnorm/mul", "op": "Const", "attr": {"value": {"tensor": {"dtype": "DT_FLOAT", "tensorShape": {"dim": [{"size": "8"}]}}}, "dtype": {"type": "DT_FLOAT"}}}, {"name": "batch_normalization_105/batchnorm/mul", "op": "Const", "attr": {"value": {"tensor": {"dtype": "DT_FLOAT", "tensorShape": {"dim": [{"size": "64"}]}}}, "dtype": {"type": "DT_FLOAT"}}}, {"name": "batch_normalization_105/batchnorm/sub", "op": "Const", "attr": {"value": {"tensor": {"dtype": "DT_FLOAT", "tensorShape": {"dim": [{"size": "64"}]}}}, "dtype": {"type": "DT_FLOAT"}}}, {"name": "conv2d_118/convolution/merged_input", "op": "Const", "attr": {"value": {"tensor": {"dtype": "DT_FLOAT", "tensorShape": {"dim": [{"size": "1"}, {"size": "1"}, {"size": "64"}, {"size": "8"}]}}}, "dtype": {"type": "DT_FLOAT"}}}, {"name": "batch_normalization_106/batchnorm/sub", "op": "Const", "attr": {"value": {"tensor": {"dtype": "DT_FLOAT", "tensorShape": {"dim": [{"size": "8"}]}}}, "dtype": {"type": "DT_FLOAT"}}}, {"name": "sub_pixel_conv2d_9/kernel", "op": "Const", "attr": {"value": {"tensor": {"dtype": "DT_FLOAT", "tensorShape": {"dim": [{"size": "3"}, {"size": "3"}, {"size": "8"}, {"size": "32"}]}}}, "dtype": {"type": "DT_FLOAT"}}}, {"name": "batch_normalization_107/batchnorm/sub", "op": "Const", "attr": {"dtype": {"type": "DT_FLOAT"}, "value": {"tensor": {"dtype": "DT_FLOAT", "tensorShape": {"dim": [{"size": "8"}]}}}}}, {"name": "conv2d_119/kernel", "op": "Const", "attr": {"dtype": {"type": "DT_FLOAT"}, "value": {"tensor": {"dtype": "DT_FLOAT", "tensorShape": {"dim": [{"size": "1"}, {"size": "1"}, {"size": "8"}, {"size": "32"}]}}}}}, {"name": "self_attention_5/kernel_g", "op": "Const", "attr": {"value": {"tensor": {"dtype": "DT_FLOAT", "tensorShape": {"dim": [{"size": "1"}, {"size": "1"}, {"size": "64"}, {"size": "8"}]}}}, "dtype": {"type": "DT_FLOAT"}}}, {"name": "self_attention_5/bias_g", "op": "Const", "attr": {"value": {"tensor": {"dtype": "DT_FLOAT", "tensorShape": {"dim": [{"size": "8"}]}}}, "dtype": {"type": "DT_FLOAT"}}}, {"name": "self_attention_5/kernel_f", "op": "Const", "attr": {"value": {"tensor": {"dtype": "DT_FLOAT", "tensorShape": {"dim": [{"size": "1"}, {"size": "1"}, {"size": "64"}, {"size": "8"}]}}}, "dtype": {"type": "DT_FLOAT"}}}, {"name": "self_attention_5/bias_f", "op": "Const", "attr": {"value": {"tensor": {"dtype": "DT_FLOAT", "tensorShape": {"dim": [{"size": "8"}]}}}, "dtype": {"type": "DT_FLOAT"}}}, {"name": "self_attention_5/kernel_h", "op": "Const", "attr": {"value": {"tensor": {"dtype": "DT_FLOAT", "tensorShape": {"dim": [{"size": "1"}, {"size": "1"}, {"size": "64"}, {"size": "64"}]}}}, "dtype": {"type": "DT_FLOAT"}}}, {"name": "self_attention_5/bias_h", "op": "Const", "attr": {"value": {"tensor": {"dtype": "DT_FLOAT", "tensorShape": {"dim": [{"size": "64"}]}}}, "dtype": {"type": "DT_FLOAT"}}}, {"name": "dense_19/kernel", "op": "Const", "attr": {"value": {"tensor": {"dtype": "DT_FLOAT", "tensorShape": {"dim": [{"size": "128"}, {"size": "64"}]}}}, "dtype": {"type": "DT_FLOAT"}}}, {"name": "dense_19/bias", "op": "Const", "attr": {"dtype": {"type": "DT_FLOAT"}, "value": {"tensor": {"dtype": "DT_FLOAT", "tensorShape": {"dim": [{"size": "64"}]}}}}}, {"name": "conv2d_109/kernel", "op": "Const", "attr": {"value": {"tensor": {"dtype": "DT_FLOAT", "tensorShape": {"dim": [{"size": "1"}, {"size": "1"}, {"size": "64"}, {"size": "1"}]}}}, "dtype": {"type": "DT_FLOAT"}}}, {"name": "batch_normalization_97/batchnorm/mul", "op": "Const", "attr": {"value": {"tensor": {"dtype": "DT_FLOAT", "tensorShape": {"dim": [{"size": "16"}]}}}, "dtype": {"type": "DT_FLOAT"}}}, {"name": "batch_normalization_95/batchnorm/mul", "op": "Const", "attr": {"dtype": {"type": "DT_FLOAT"}, "value": {"tensor": {"dtype": "DT_FLOAT", "tensorShape": {"dim": [{"size": "128"}]}}}}}, {"name": "batch_normalization_95/batchnorm/sub", "op": "Const", "attr": {"value": {"tensor": {"dtype": "DT_FLOAT", "tensorShape": {"dim": [{"size": "128"}]}}}, "dtype": {"type": "DT_FLOAT"}}}, {"name": "conv2d_107/convolution/merged_input", "op": "Const", "attr": {"value": {"tensor": {"dtype": "DT_FLOAT", "tensorShape": {"dim": [{"size": "1"}, {"size": "1"}, {"size": "128"}, {"size": "16"}]}}}, "dtype": {"type": "DT_FLOAT"}}}, {"name": "batch_normalization_96/batchnorm/sub", "op": "Const", "attr": {"value": {"tensor": {"dtype": "DT_FLOAT", "tensorShape": {"dim": [{"size": "16"}]}}}, "dtype": {"type": "DT_FLOAT"}}}, {"name": "sub_pixel_conv2d_7/kernel", "op": "Const", "attr": {"dtype": {"type": "DT_FLOAT"}, "value": {"tensor": {"dtype": "DT_FLOAT", "tensorShape": {"dim": [{"size": "3"}, {"size": "3"}, {"size": "16"}, {"size": "64"}]}}}}}, {"name": "batch_normalization_97/batchnorm/sub", "op": "Const", "attr": {"value": {"tensor": {"dtype": "DT_FLOAT", "tensorShape": {"dim": [{"size": "16"}]}}}, "dtype": {"type": "DT_FLOAT"}}}, {"name": "conv2d_108/kernel", "op": "Const", "attr": {"value": {"tensor": {"dtype": "DT_FLOAT", "tensorShape": {"dim": [{"size": "1"}, {"size": "1"}, {"size": "16"}, {"size": "64"}]}}}, "dtype": {"type": "DT_FLOAT"}}}, {"name": "self_attention_4/kernel_g", "op": "Const", "attr": {"dtype": {"type": "DT_FLOAT"}, "value": {"tensor": {"dtype": "DT_FLOAT", "tensorShape": {"dim": [{"size": "1"}, {"size": "1"}, {"size": "128"}, {"size": "16"}]}}}}}, {"name": "self_attention_4/bias_g", "op": "Const", "attr": {"value": {"tensor": {"dtype": "DT_FLOAT", "tensorShape": {"dim": [{"size": "16"}]}}}, "dtype": {"type": "DT_FLOAT"}}}, {"name": "self_attention_4/kernel_f", "op": "Const", "attr": {"value": {"tensor": {"dtype": "DT_FLOAT", "tensorShape": {"dim": [{"size": "1"}, {"size": "1"}, {"size": "128"}, {"size": "16"}]}}}, "dtype": {"type": "DT_FLOAT"}}}, {"name": "self_attention_4/bias_f", "op": "Const", "attr": {"value": {"tensor": {"dtype": "DT_FLOAT", "tensorShape": {"dim": [{"size": "16"}]}}}, "dtype": {"type": "DT_FLOAT"}}}, {"name": "self_attention_4/kernel_h", "op": "Const", "attr": {"value": {"tensor": {"dtype": "DT_FLOAT", "tensorShape": {"dim": [{"size": "1"}, {"size": "1"}, {"size": "128"}, {"size": "128"}]}}}, "dtype": {"type": "DT_FLOAT"}}}, {"name": "self_attention_4/bias_h", "op": "Const", "attr": {"value": {"tensor": {"dtype": "DT_FLOAT", "tensorShape": {"dim": [{"size": "128"}]}}}, "dtype": {"type": "DT_FLOAT"}}}, {"name": "dense_15/kernel", "op": "Const", "attr": {"value": {"tensor": {"dtype": "DT_FLOAT", "tensorShape": {"dim": [{"size": "128"}, {"size": "128"}]}}}, "dtype": {"type": "DT_FLOAT"}}}, {"name": "dense_15/bias", "op": "Const", "attr": {"dtype": {"type": "DT_FLOAT"}, "value": {"tensor": {"dtype": "DT_FLOAT", "tensorShape": {"dim": [{"size": "128"}]}}}}}, {"name": "conv2d_97/kernel", "op": "Const", "attr": {"value": {"tensor": {"dtype": "DT_FLOAT", "tensorShape": {"dim": [{"size": "1"}, {"size": "1"}, {"size": "128"}, {"size": "1"}]}}}, "dtype": {"type": "DT_FLOAT"}}}, {"name": "batch_normalization_87/batchnorm/mul", "op": "Const", "attr": {"value": {"tensor": {"dtype": "DT_FLOAT", "tensorShape": {"dim": [{"size": "32"}]}}}, "dtype": {"type": "DT_FLOAT"}}}, {"name": "batch_normalization_85/batchnorm/mul", "op": "Const", "attr": {"value": {"tensor": {"dtype": "DT_FLOAT", "tensorShape": {"dim": [{"size": "256"}]}}}, "dtype": {"type": "DT_FLOAT"}}}, {"name": "batch_normalization_85/batchnorm/sub", "op": "Const", "attr": {"value": {"tensor": {"dtype": "DT_FLOAT", "tensorShape": {"dim": [{"size": "256"}]}}}, "dtype": {"type": "DT_FLOAT"}}}, {"name": "conv2d_95/convolution/merged_input", "op": "Const", "attr": {"value": {"tensor": {"dtype": "DT_FLOAT", "tensorShape": {"dim": [{"size": "1"}, {"size": "1"}, {"size": "256"}, {"size": "32"}]}}}, "dtype": {"type": "DT_FLOAT"}}}, {"name": "batch_normalization_86/batchnorm/sub", "op": "Const", "attr": {"value": {"tensor": {"dtype": "DT_FLOAT", "tensorShape": {"dim": [{"size": "32"}]}}}, "dtype": {"type": "DT_FLOAT"}}}, {"name": "sub_pixel_conv2d_5/kernel", "op": "Const", "attr": {"value": {"tensor": {"dtype": "DT_FLOAT", "tensorShape": {"dim": [{"size": "3"}, {"size": "3"}, {"size": "32"}, {"size": "128"}]}}}, "dtype": {"type": "DT_FLOAT"}}}, {"name": "batch_normalization_87/batchnorm/sub", "op": "Const", "attr": {"value": {"tensor": {"dtype": "DT_FLOAT", "tensorShape": {"dim": [{"size": "32"}]}}}, "dtype": {"type": "DT_FLOAT"}}}, {"name": "conv2d_96/kernel", "op": "Const", "attr": {"value": {"tensor": {"dtype": "DT_FLOAT", "tensorShape": {"dim": [{"size": "1"}, {"size": "1"}, {"size": "32"}, {"size": "128"}]}}}, "dtype": {"type": "DT_FLOAT"}}}, {"name": "self_attention_3/kernel_g", "op": "Const", "attr": {"value": {"tensor": {"dtype": "DT_FLOAT", "tensorShape": {"dim": [{"size": "1"}, {"size": "1"}, {"size": "256"}, {"size": "32"}]}}}, "dtype": {"type": "DT_FLOAT"}}}, {"name": "self_attention_3/bias_g", "op": "Const", "attr": {"value": {"tensor": {"dtype": "DT_FLOAT", "tensorShape": {"dim": [{"size": "32"}]}}}, "dtype": {"type": "DT_FLOAT"}}}, {"name": "self_attention_3/kernel_f", "op": "Const", "attr": {"value": {"tensor": {"dtype": "DT_FLOAT", "tensorShape": {"dim": [{"size": "1"}, {"size": "1"}, {"size": "256"}, {"size": "32"}]}}}, "dtype": {"type": "DT_FLOAT"}}}, {"name": "self_attention_3/bias_f", "op": "Const", "attr": {"value": {"tensor": {"dtype": "DT_FLOAT", "tensorShape": {"dim": [{"size": "32"}]}}}, "dtype": {"type": "DT_FLOAT"}}}, {"name": "self_attention_3/kernel_h", "op": "Const", "attr": {"value": {"tensor": {"dtype": "DT_FLOAT", "tensorShape": {"dim": [{"size": "1"}, {"size": "1"}, {"size": "256"}, {"size": "256"}]}}}, "dtype": {"type": "DT_FLOAT"}}}, {"name": "self_attention_3/bias_h", "op": "Const", "attr": {"value": {"tensor": {"dtype": "DT_FLOAT", "tensorShape": {"dim": [{"size": "256"}]}}}, "dtype": {"type": "DT_FLOAT"}}}, {"name": "dense_11/kernel", "op": "Const", "attr": {"value": {"tensor": {"dtype": "DT_FLOAT", "tensorShape": {"dim": [{"size": "128"}, {"size": "256"}]}}}, "dtype": {"type": "DT_FLOAT"}}}, {"name": "dense_11/bias", "op": "Const", "attr": {"value": {"tensor": {"dtype": "DT_FLOAT", "tensorShape": {"dim": [{"size": "256"}]}}}, "dtype": {"type": "DT_FLOAT"}}}, {"name": "conv2d_86/kernel", "op": "Const", "attr": {"value": {"tensor": {"dtype": "DT_FLOAT", "tensorShape": {"dim": [{"size": "1"}, {"size": "1"}, {"size": "256"}, {"size": "1"}]}}}, "dtype": {"type": "DT_FLOAT"}}}, {"name": "batch_normalization_77/batchnorm/mul", "op": "Const", "attr": {"value": {"tensor": {"dtype": "DT_FLOAT", "tensorShape": {"dim": [{"size": "64"}]}}}, "dtype": {"type": "DT_FLOAT"}}}, {"name": "batch_normalization_75/batchnorm/mul", "op": "Const", "attr": {"dtype": {"type": "DT_FLOAT"}, "value": {"tensor": {"dtype": "DT_FLOAT", "tensorShape": {"dim": [{"size": "256"}]}}}}}, {"name": "batch_normalization_75/batchnorm/sub", "op": "Const", "attr": {"value": {"tensor": {"dtype": "DT_FLOAT", "tensorShape": {"dim": [{"size": "256"}]}}}, "dtype": {"type": "DT_FLOAT"}}}, {"name": "conv2d_84/convolution/merged_input", "op": "Const", "attr": {"value": {"tensor": {"dtype": "DT_FLOAT", "tensorShape": {"dim": [{"size": "1"}, {"size": "1"}, {"size": "256"}, {"size": "64"}]}}}, "dtype": {"type": "DT_FLOAT"}}}, {"name": "batch_normalization_76/batchnorm/sub", "op": "Const", "attr": {"dtype": {"type": "DT_FLOAT"}, "value": {"tensor": {"dtype": "DT_FLOAT", "tensorShape": {"dim": [{"size": "64"}]}}}}}, {"name": "sub_pixel_conv2d_3/kernel", "op": "Const", "attr": {"value": {"tensor": {"dtype": "DT_FLOAT", "tensorShape": {"dim": [{"size": "3"}, {"size": "3"}, {"size": "64"}, {"size": "256"}]}}}, "dtype": {"type": "DT_FLOAT"}}}, {"name": "batch_normalization_77/batchnorm/sub", "op": "Const", "attr": {"value": {"tensor": {"dtype": "DT_FLOAT", "tensorShape": {"dim": [{"size": "64"}]}}}, "dtype": {"type": "DT_FLOAT"}}}, {"name": "conv2d_85/kernel", "op": "Const", "attr": {"value": {"tensor": {"dtype": "DT_FLOAT", "tensorShape": {"dim": [{"size": "1"}, {"size": "1"}, {"size": "64"}, {"size": "256"}]}}}, "dtype": {"type": "DT_FLOAT"}}}, {"name": "self_attention_2/kernel_g", "op": "Const", "attr": {"value": {"tensor": {"dtype": "DT_FLOAT", "tensorShape": {"dim": [{"size": "1"}, {"size": "1"}, {"size": "256"}, {"size": "32"}]}}}, "dtype": {"type": "DT_FLOAT"}}}, {"name": "self_attention_2/bias_g", "op": "Const", "attr": {"value": {"tensor": {"dtype": "DT_FLOAT", "tensorShape": {"dim": [{"size": "32"}]}}}, "dtype": {"type": "DT_FLOAT"}}}, {"name": "self_attention_2/kernel_f", "op": "Const", "attr": {"value": {"tensor": {"dtype": "DT_FLOAT", "tensorShape": {"dim": [{"size": "1"}, {"size": "1"}, {"size": "256"}, {"size": "32"}]}}}, "dtype": {"type": "DT_FLOAT"}}}, {"name": "self_attention_2/bias_f", "op": "Const", "attr": {"value": {"tensor": {"dtype": "DT_FLOAT", "tensorShape": {"dim": [{"size": "32"}]}}}, "dtype": {"type": "DT_FLOAT"}}}, {"name": "self_attention_2/kernel_h", "op": "Const", "attr": {"value": {"tensor": {"dtype": "DT_FLOAT", "tensorShape": {"dim": [{"size": "1"}, {"size": "1"}, {"size": "256"}, {"size": "256"}]}}}, "dtype": {"type": "DT_FLOAT"}}}, {"name": "self_attention_2/bias_h", "op": "Const", "attr": {"value": {"tensor": {"dtype": "DT_FLOAT", "tensorShape": {"dim": [{"size": "256"}]}}}, "dtype": {"type": "DT_FLOAT"}}}, {"name": "dense_7/kernel", "op": "Const", "attr": {"value": {"tensor": {"dtype": "DT_FLOAT", "tensorShape": {"dim": [{"size": "128"}, {"size": "256"}]}}}, "dtype": {"type": "DT_FLOAT"}}}, {"name": "dense_7/bias", "op": "Const", "attr": {"value": {"tensor": {"dtype": "DT_FLOAT", "tensorShape": {"dim": [{"size": "256"}]}}}, "dtype": {"type": "DT_FLOAT"}}}, {"name": "conv2d_74/kernel", "op": "Const", "attr": {"value": {"tensor": {"dtype": "DT_FLOAT", "tensorShape": {"dim": [{"size": "1"}, {"size": "1"}, {"size": "256"}, {"size": "1"}]}}}, "dtype": {"type": "DT_FLOAT"}}}, {"name": "batch_normalization_67/batchnorm/mul", "op": "Const", "attr": {"value": {"tensor": {"dtype": "DT_FLOAT", "tensorShape": {"dim": [{"size": "64"}]}}}, "dtype": {"type": "DT_FLOAT"}}}, {"name": "batch_normalization_65/batchnorm/mul", "op": "Const", "attr": {"value": {"tensor": {"dtype": "DT_FLOAT", "tensorShape": {"dim": [{"size": "512"}]}}}, "dtype": {"type": "DT_FLOAT"}}}, {"name": "batch_normalization_65/batchnorm/sub", "op": "Const", "attr": {"value": {"tensor": {"dtype": "DT_FLOAT", "tensorShape": {"dim": [{"size": "512"}]}}}, "dtype": {"type": "DT_FLOAT"}}}, {"name": "conv2d_72/convolution/merged_input", "op": "Const", "attr": {"value": {"tensor": {"dtype": "DT_FLOAT", "tensorShape": {"dim": [{"size": "1"}, {"size": "1"}, {"size": "512"}, {"size": "64"}]}}}, "dtype": {"type": "DT_FLOAT"}}}, {"name": "batch_normalization_66/batchnorm/sub", "op": "Const", "attr": {"value": {"tensor": {"dtype": "DT_FLOAT", "tensorShape": {"dim": [{"size": "64"}]}}}, "dtype": {"type": "DT_FLOAT"}}}, {"name": "sub_pixel_conv2d_1/kernel", "op": "Const", "attr": {"value": {"tensor": {"dtype": "DT_FLOAT", "tensorShape": {"dim": [{"size": "3"}, {"size": "3"}, {"size": "64"}, {"size": "256"}]}}}, "dtype": {"type": "DT_FLOAT"}}}, {"name": "batch_normalization_67/batchnorm/sub", "op": "Const", "attr": {"value": {"tensor": {"dtype": "DT_FLOAT", "tensorShape": {"dim": [{"size": "64"}]}}}, "dtype": {"type": "DT_FLOAT"}}}, {"name": "conv2d_73/kernel", "op": "Const", "attr": {"value": {"tensor": {"dtype": "DT_FLOAT", "tensorShape": {"dim": [{"size": "1"}, {"size": "1"}, {"size": "64"}, {"size": "256"}]}}}, "dtype": {"type": "DT_FLOAT"}}}, {"name": "self_attention_1/kernel_g", "op": "Const", "attr": {"value": {"tensor": {"dtype": "DT_FLOAT", "tensorShape": {"dim": [{"size": "1"}, {"size": "1"}, {"size": "512"}, {"size": "64"}]}}}, "dtype": {"type": "DT_FLOAT"}}}, {"name": "self_attention_1/bias_g", "op": "Const", "attr": {"value": {"tensor": {"dtype": "DT_FLOAT", "tensorShape": {"dim": [{"size": "64"}]}}}, "dtype": {"type": "DT_FLOAT"}}}, {"name": "self_attention_1/kernel_f", "op": "Const", "attr": {"value": {"tensor": {"dtype": "DT_FLOAT", "tensorShape": {"dim": [{"size": "1"}, {"size": "1"}, {"size": "512"}, {"size": "64"}]}}}, "dtype": {"type": "DT_FLOAT"}}}, {"name": "self_attention_1/bias_f", "op": "Const", "attr": {"value": {"tensor": {"dtype": "DT_FLOAT", "tensorShape": {"dim": [{"size": "64"}]}}}, "dtype": {"type": "DT_FLOAT"}}}, {"name": "self_attention_1/kernel_h", "op": "Const", "attr": {"value": {"tensor": {"dtype": "DT_FLOAT", "tensorShape": {"dim": [{"size": "1"}, {"size": "1"}, {"size": "512"}, {"size": "512"}]}}}, "dtype": {"type": "DT_FLOAT"}}}, {"name": "self_attention_1/bias_h", "op": "Const", "attr": {"value": {"tensor": {"dtype": "DT_FLOAT", "tensorShape": {"dim": [{"size": "512"}]}}}, "dtype": {"type": "DT_FLOAT"}}}, {"name": "dense_3/kernel", "op": "Const", "attr": {"value": {"tensor": {"dtype": "DT_FLOAT", "tensorShape": {"dim": [{"size": "128"}, {"size": "512"}]}}}, "dtype": {"type": "DT_FLOAT"}}}, {"name": "dense_3/bias", "op": "Const", "attr": {"value": {"tensor": {"dtype": "DT_FLOAT", "tensorShape": {"dim": [{"size": "512"}]}}}, "dtype": {"type": "DT_FLOAT"}}}, {"name": "batch_normalization_43/batchnorm/mul", "op": "Const", "attr": {"value": {"tensor": {"dtype": "DT_FLOAT", "tensorShape": {"dim": [{"size": "256"}]}}}, "dtype": {"type": "DT_FLOAT"}}}, {"name": "batch_normalization_43/batchnorm/sub", "op": "Const", "attr": {"value": {"tensor": {"dtype": "DT_FLOAT", "tensorShape": {"dim": [{"size": "256"}]}}}, "dtype": {"type": "DT_FLOAT"}}}, {"name": "conv2d_48/convolution/merged_input", "op": "Const", "attr": {"dtype": {"type": "DT_FLOAT"}, "value": {"tensor": {"dtype": "DT_FLOAT", "tensorShape": {"dim": [{"size": "1"}, {"size": "1"}, {"size": "256"}, {"size": "128"}]}}}}}, {"name": "batch_normalization_44/batchnorm/sub", "op": "Const", "attr": {"value": {"tensor": {"dtype": "DT_FLOAT", "tensorShape": {"dim": [{"size": "128"}]}}}, "dtype": {"type": "DT_FLOAT"}}}, {"name": "conv2d_49/convolution/merged_input", "op": "Const", "attr": {"value": {"tensor": {"dtype": "DT_FLOAT", "tensorShape": {"dim": [{"size": "3"}, {"size": "3"}, {"size": "128"}, {"size": "128"}]}}}, "dtype": {"type": "DT_FLOAT"}}}, {"name": "batch_normalization_45/batchnorm/sub", "op": "Const", "attr": {"value": {"tensor": {"dtype": "DT_FLOAT", "tensorShape": {"dim": [{"size": "128"}]}}}, "dtype": {"type": "DT_FLOAT"}}}, {"name": "conv2d_50/kernel", "op": "Const", "attr": {"value": {"tensor": {"dtype": "DT_FLOAT", "tensorShape": {"dim": [{"size": "1"}, {"size": "1"}, {"size": "128"}, {"size": "512"}]}}}, "dtype": {"type": "DT_FLOAT"}}}, {"name": "batch_normalization_34/batchnorm/mul", "op": "Const", "attr": {"value": {"tensor": {"dtype": "DT_FLOAT", "tensorShape": {"dim": [{"size": "256"}]}}}, "dtype": {"type": "DT_FLOAT"}}}, {"name": "batch_normalization_34/batchnorm/sub", "op": "Const", "attr": {"value": {"tensor": {"dtype": "DT_FLOAT", "tensorShape": {"dim": [{"size": "256"}]}}}, "dtype": {"type": "DT_FLOAT"}}}, {"name": "conv2d_38/convolution/merged_input", "op": "Const", "attr": {"value": {"tensor": {"dtype": "DT_FLOAT", "tensorShape": {"dim": [{"size": "1"}, {"size": "1"}, {"size": "256"}, {"size": "64"}]}}}, "dtype": {"type": "DT_FLOAT"}}}, {"name": "batch_normalization_35/batchnorm/sub", "op": "Const", "attr": {"value": {"tensor": {"dtype": "DT_FLOAT", "tensorShape": {"dim": [{"size": "64"}]}}}, "dtype": {"type": "DT_FLOAT"}}}, {"name": "conv2d_39/convolution/merged_input", "op": "Const", "attr": {"value": {"tensor": {"dtype": "DT_FLOAT", "tensorShape": {"dim": [{"size": "3"}, {"size": "3"}, {"size": "64"}, {"size": "64"}]}}}, "dtype": {"type": "DT_FLOAT"}}}, {"name": "batch_normalization_36/batchnorm/sub", "op": "Const", "attr": {"value": {"tensor": {"dtype": "DT_FLOAT", "tensorShape": {"dim": [{"size": "64"}]}}}, "dtype": {"type": "DT_FLOAT"}}}, {"name": "conv2d_40/kernel", "op": "Const", "attr": {"dtype": {"type": "DT_FLOAT"}, "value": {"tensor": {"dtype": "DT_FLOAT", "tensorShape": {"dim": [{"size": "1"}, {"size": "1"}, {"size": "64"}, {"size": "256"}]}}}}}, {"name": "batch_normalization_25/batchnorm/mul", "op": "Const", "attr": {"value": {"tensor": {"dtype": "DT_FLOAT", "tensorShape": {"dim": [{"size": "128"}]}}}, "dtype": {"type": "DT_FLOAT"}}}, {"name": "batch_normalization_25/batchnorm/sub", "op": "Const", "attr": {"dtype": {"type": "DT_FLOAT"}, "value": {"tensor": {"dtype": "DT_FLOAT", "tensorShape": {"dim": [{"size": "128"}]}}}}}, {"name": "conv2d_28/convolution/merged_input", "op": "Const", "attr": {"value": {"tensor": {"dtype": "DT_FLOAT", "tensorShape": {"dim": [{"size": "1"}, {"size": "1"}, {"size": "128"}, {"size": "64"}]}}}, "dtype": {"type": "DT_FLOAT"}}}, {"name": "batch_normalization_26/batchnorm/sub", "op": "Const", "attr": {"value": {"tensor": {"dtype": "DT_FLOAT", "tensorShape": {"dim": [{"size": "64"}]}}}, "dtype": {"type": "DT_FLOAT"}}}, {"name": "conv2d_29/convolution/merged_input", "op": "Const", "attr": {"value": {"tensor": {"dtype": "DT_FLOAT", "tensorShape": {"dim": [{"size": "3"}, {"size": "3"}, {"size": "64"}, {"size": "64"}]}}}, "dtype": {"type": "DT_FLOAT"}}}, {"name": "batch_normalization_27/batchnorm/sub", "op": "Const", "attr": {"value": {"tensor": {"dtype": "DT_FLOAT", "tensorShape": {"dim": [{"size": "64"}]}}}, "dtype": {"type": "DT_FLOAT"}}}, {"name": "conv2d_30/kernel", "op": "Const", "attr": {"value": {"tensor": {"dtype": "DT_FLOAT", "tensorShape": {"dim": [{"size": "1"}, {"size": "1"}, {"size": "64"}, {"size": "256"}]}}}, "dtype": {"type": "DT_FLOAT"}}}, {"name": "conv2d_31/kernel", "op": "Const", "attr": {"value": {"tensor": {"dtype": "DT_FLOAT", "tensorShape": {"dim": [{"size": "1"}, {"size": "1"}, {"size": "128"}, {"size": "256"}]}}}, "dtype": {"type": "DT_FLOAT"}}}, {"name": "batch_normalization_28/batchnorm/mul", "op": "Const", "attr": {"value": {"tensor": {"dtype": "DT_FLOAT", "tensorShape": {"dim": [{"size": "256"}]}}}, "dtype": {"type": "DT_FLOAT"}}}, {"name": "batch_normalization_28/batchnorm/sub", "op": "Const", "attr": {"value": {"tensor": {"dtype": "DT_FLOAT", "tensorShape": {"dim": [{"size": "256"}]}}}, "dtype": {"type": "DT_FLOAT"}}}, {"name": "conv2d_32/convolution/merged_input", "op": "Const", "attr": {"dtype": {"type": "DT_FLOAT"}, "value": {"tensor": {"dtype": "DT_FLOAT", "tensorShape": {"dim": [{"size": "1"}, {"size": "1"}, {"size": "256"}, {"size": "64"}]}}}}}, {"name": "batch_normalization_29/batchnorm/sub", "op": "Const", "attr": {"value": {"tensor": {"dtype": "DT_FLOAT", "tensorShape": {"dim": [{"size": "64"}]}}}, "dtype": {"type": "DT_FLOAT"}}}, {"name": "conv2d_33/convolution/merged_input", "op": "Const", "attr": {"value": {"tensor": {"dtype": "DT_FLOAT", "tensorShape": {"dim": [{"size": "3"}, {"size": "3"}, {"size": "64"}, {"size": "64"}]}}}, "dtype": {"type": "DT_FLOAT"}}}, {"name": "batch_normalization_30/batchnorm/sub", "op": "Const", "attr": {"value": {"tensor": {"dtype": "DT_FLOAT", "tensorShape": {"dim": [{"size": "64"}]}}}, "dtype": {"type": "DT_FLOAT"}}}, {"name": "conv2d_34/kernel", "op": "Const", "attr": {"value": {"tensor": {"dtype": "DT_FLOAT", "tensorShape": {"dim": [{"size": "1"}, {"size": "1"}, {"size": "64"}, {"size": "256"}]}}}, "dtype": {"type": "DT_FLOAT"}}}, {"name": "batch_normalization_31/batchnorm/mul", "op": "Const", "attr": {"value": {"tensor": {"dtype": "DT_FLOAT", "tensorShape": {"dim": [{"size": "256"}]}}}, "dtype": {"type": "DT_FLOAT"}}}, {"name": "batch_normalization_31/batchnorm/sub", "op": "Const", "attr": {"value": {"tensor": {"dtype": "DT_FLOAT", "tensorShape": {"dim": [{"size": "256"}]}}}, "dtype": {"type": "DT_FLOAT"}}}, {"name": "conv2d_35/convolution/merged_input", "op": "Const", "attr": {"value": {"tensor": {"dtype": "DT_FLOAT", "tensorShape": {"dim": [{"size": "1"}, {"size": "1"}, {"size": "256"}, {"size": "64"}]}}}, "dtype": {"type": "DT_FLOAT"}}}, {"name": "batch_normalization_32/batchnorm/sub", "op": "Const", "attr": {"value": {"tensor": {"dtype": "DT_FLOAT", "tensorShape": {"dim": [{"size": "64"}]}}}, "dtype": {"type": "DT_FLOAT"}}}, {"name": "conv2d_36/convolution/merged_input", "op": "Const", "attr": {"value": {"tensor": {"dtype": "DT_FLOAT", "tensorShape": {"dim": [{"size": "3"}, {"size": "3"}, {"size": "64"}, {"size": "64"}]}}}, "dtype": {"type": "DT_FLOAT"}}}, {"name": "batch_normalization_33/batchnorm/sub", "op": "Const", "attr": {"value": {"tensor": {"dtype": "DT_FLOAT", "tensorShape": {"dim": [{"size": "64"}]}}}, "dtype": {"type": "DT_FLOAT"}}}, {"name": "conv2d_37/kernel", "op": "Const", "attr": {"dtype": {"type": "DT_FLOAT"}, "value": {"tensor": {"dtype": "DT_FLOAT", "tensorShape": {"dim": [{"size": "1"}, {"size": "1"}, {"size": "64"}, {"size": "256"}]}}}}}, {"name": "conv2d_41/kernel", "op": "Const", "attr": {"value": {"tensor": {"dtype": "DT_FLOAT", "tensorShape": {"dim": [{"size": "1"}, {"size": "1"}, {"size": "256"}, {"size": "256"}]}}}, "dtype": {"type": "DT_FLOAT"}}}, {"name": "batch_normalization_37/batchnorm/mul", "op": "Const", "attr": {"value": {"tensor": {"dtype": "DT_FLOAT", "tensorShape": {"dim": [{"size": "256"}]}}}, "dtype": {"type": "DT_FLOAT"}}}, {"name": "batch_normalization_37/batchnorm/sub", "op": "Const", "attr": {"value": {"tensor": {"dtype": "DT_FLOAT", "tensorShape": {"dim": [{"size": "256"}]}}}, "dtype": {"type": "DT_FLOAT"}}}, {"name": "conv2d_42/convolution/merged_input", "op": "Const", "attr": {"value": {"tensor": {"dtype": "DT_FLOAT", "tensorShape": {"dim": [{"size": "1"}, {"size": "1"}, {"size": "256"}, {"size": "64"}]}}}, "dtype": {"type": "DT_FLOAT"}}}, {"name": "batch_normalization_38/batchnorm/sub", "op": "Const", "attr": {"value": {"tensor": {"dtype": "DT_FLOAT", "tensorShape": {"dim": [{"size": "64"}]}}}, "dtype": {"type": "DT_FLOAT"}}}, {"name": "conv2d_43/convolution/merged_input", "op": "Const", "attr": {"value": {"tensor": {"dtype": "DT_FLOAT", "tensorShape": {"dim": [{"size": "3"}, {"size": "3"}, {"size": "64"}, {"size": "64"}]}}}, "dtype": {"type": "DT_FLOAT"}}}, {"name": "batch_normalization_39/batchnorm/sub", "op": "Const", "attr": {"value": {"tensor": {"dtype": "DT_FLOAT", "tensorShape": {"dim": [{"size": "64"}]}}}, "dtype": {"type": "DT_FLOAT"}}}, {"name": "conv2d_44/kernel", "op": "Const", "attr": {"value": {"tensor": {"dtype": "DT_FLOAT", "tensorShape": {"dim": [{"size": "1"}, {"size": "1"}, {"size": "64"}, {"size": "256"}]}}}, "dtype": {"type": "DT_FLOAT"}}}, {"name": "batch_normalization_40/batchnorm/mul", "op": "Const", "attr": {"value": {"tensor": {"dtype": "DT_FLOAT", "tensorShape": {"dim": [{"size": "256"}]}}}, "dtype": {"type": "DT_FLOAT"}}}, {"name": "batch_normalization_40/batchnorm/sub", "op": "Const", "attr": {"value": {"tensor": {"dtype": "DT_FLOAT", "tensorShape": {"dim": [{"size": "256"}]}}}, "dtype": {"type": "DT_FLOAT"}}}, {"name": "conv2d_45/convolution/merged_input", "op": "Const", "attr": {"value": {"tensor": {"dtype": "DT_FLOAT", "tensorShape": {"dim": [{"size": "1"}, {"size": "1"}, {"size": "256"}, {"size": "64"}]}}}, "dtype": {"type": "DT_FLOAT"}}}, {"name": "batch_normalization_41/batchnorm/sub", "op": "Const", "attr": {"value": {"tensor": {"dtype": "DT_FLOAT", "tensorShape": {"dim": [{"size": "64"}]}}}, "dtype": {"type": "DT_FLOAT"}}}, {"name": "conv2d_46/convolution/merged_input", "op": "Const", "attr": {"value": {"tensor": {"dtype": "DT_FLOAT", "tensorShape": {"dim": [{"size": "3"}, {"size": "3"}, {"size": "64"}, {"size": "64"}]}}}, "dtype": {"type": "DT_FLOAT"}}}, {"name": "batch_normalization_42/batchnorm/sub", "op": "Const", "attr": {"value": {"tensor": {"dtype": "DT_FLOAT", "tensorShape": {"dim": [{"size": "64"}]}}}, "dtype": {"type": "DT_FLOAT"}}}, {"name": "conv2d_47/kernel", "op": "Const", "attr": {"value": {"tensor": {"dtype": "DT_FLOAT", "tensorShape": {"dim": [{"size": "1"}, {"size": "1"}, {"size": "64"}, {"size": "256"}]}}}, "dtype": {"type": "DT_FLOAT"}}}, {"name": "conv2d_51/kernel", "op": "Const", "attr": {"value": {"tensor": {"dtype": "DT_FLOAT", "tensorShape": {"dim": [{"size": "1"}, {"size": "1"}, {"size": "256"}, {"size": "512"}]}}}, "dtype": {"type": "DT_FLOAT"}}}, {"name": "batch_normalization_46/batchnorm/mul", "op": "Const", "attr": {"value": {"tensor": {"dtype": "DT_FLOAT", "tensorShape": {"dim": [{"size": "512"}]}}}, "dtype": {"type": "DT_FLOAT"}}}, {"name": "batch_normalization_46/batchnorm/sub", "op": "Const", "attr": {"value": {"tensor": {"dtype": "DT_FLOAT", "tensorShape": {"dim": [{"size": "512"}]}}}, "dtype": {"type": "DT_FLOAT"}}}, {"name": "conv2d_52/convolution/merged_input", "op": "Const", "attr": {"value": {"tensor": {"dtype": "DT_FLOAT", "tensorShape": {"dim": [{"size": "1"}, {"size": "1"}, {"size": "512"}, {"size": "128"}]}}}, "dtype": {"type": "DT_FLOAT"}}}, {"name": "batch_normalization_47/batchnorm/sub", "op": "Const", "attr": {"value": {"tensor": {"dtype": "DT_FLOAT", "tensorShape": {"dim": [{"size": "128"}]}}}, "dtype": {"type": "DT_FLOAT"}}}, {"name": "conv2d_53/convolution/merged_input", "op": "Const", "attr": {"value": {"tensor": {"dtype": "DT_FLOAT", "tensorShape": {"dim": [{"size": "3"}, {"size": "3"}, {"size": "128"}, {"size": "128"}]}}}, "dtype": {"type": "DT_FLOAT"}}}, {"name": "batch_normalization_48/batchnorm/sub", "op": "Const", "attr": {"value": {"tensor": {"dtype": "DT_FLOAT", "tensorShape": {"dim": [{"size": "128"}]}}}, "dtype": {"type": "DT_FLOAT"}}}, {"name": "conv2d_54/kernel", "op": "Const", "attr": {"value": {"tensor": {"dtype": "DT_FLOAT", "tensorShape": {"dim": [{"size": "1"}, {"size": "1"}, {"size": "128"}, {"size": "512"}]}}}, "dtype": {"type": "DT_FLOAT"}}}, {"name": "batch_normalization_49/batchnorm/mul", "op": "Const", "attr": {"dtype": {"type": "DT_FLOAT"}, "value": {"tensor": {"dtype": "DT_FLOAT", "tensorShape": {"dim": [{"size": "512"}]}}}}}, {"name": "batch_normalization_49/batchnorm/sub", "op": "Const", "attr": {"value": {"tensor": {"dtype": "DT_FLOAT", "tensorShape": {"dim": [{"size": "512"}]}}}, "dtype": {"type": "DT_FLOAT"}}}, {"name": "conv2d_55/convolution/merged_input", "op": "Const", "attr": {"value": {"tensor": {"dtype": "DT_FLOAT", "tensorShape": {"dim": [{"size": "1"}, {"size": "1"}, {"size": "512"}, {"size": "128"}]}}}, "dtype": {"type": "DT_FLOAT"}}}, {"name": "batch_normalization_50/batchnorm/sub", "op": "Const", "attr": {"value": {"tensor": {"dtype": "DT_FLOAT", "tensorShape": {"dim": [{"size": "128"}]}}}, "dtype": {"type": "DT_FLOAT"}}}, {"name": "conv2d_56/convolution/merged_input", "op": "Const", "attr": {"value": {"tensor": {"dtype": "DT_FLOAT", "tensorShape": {"dim": [{"size": "3"}, {"size": "3"}, {"size": "128"}, {"size": "128"}]}}}, "dtype": {"type": "DT_FLOAT"}}}, {"name": "batch_normalization_51/batchnorm/sub", "op": "Const", "attr": {"value": {"tensor": {"dtype": "DT_FLOAT", "tensorShape": {"dim": [{"size": "128"}]}}}, "dtype": {"type": "DT_FLOAT"}}}, {"name": "conv2d_57/kernel", "op": "Const", "attr": {"dtype": {"type": "DT_FLOAT"}, "value": {"tensor": {"dtype": "DT_FLOAT", "tensorShape": {"dim": [{"size": "1"}, {"size": "1"}, {"size": "128"}, {"size": "512"}]}}}}}, {"name": "conv2d_58/kernel", "op": "Const", "attr": {"value": {"tensor": {"dtype": "DT_FLOAT", "tensorShape": {"dim": [{"size": "1"}, {"size": "1"}, {"size": "514"}, {"size": "512"}]}}}, "dtype": {"type": "DT_FLOAT"}}}, {"name": "conv2d_59/convolution/merged_input", "op": "Const", "attr": {"dtype": {"type": "DT_FLOAT"}, "value": {"tensor": {"dtype": "DT_FLOAT", "tensorShape": {"dim": [{"size": "3"}, {"size": "3"}, {"size": "512"}, {"size": "512"}]}}}}}, {"name": "batch_normalization_52/batchnorm/mul_1", "op": "Const", "attr": {"value": {"tensor": {"dtype": "DT_FLOAT", "tensorShape": {"dim": [{"size": "512"}]}}}, "dtype": {"type": "DT_FLOAT"}}}, {"name": "dense_2/kernel", "op": "Const", "attr": {"value": {"tensor": {"dtype": "DT_FLOAT", "tensorShape": {"dim": [{"size": "128"}, {"size": "512"}]}}}, "dtype": {"type": "DT_FLOAT"}}}, {"name": "dense_2/bias", "op": "Const", "attr": {"value": {"tensor": {"dtype": "DT_FLOAT", "tensorShape": {"dim": [{"size": "512"}]}}}, "dtype": {"type": "DT_FLOAT"}}}, {"name": "batch_normalization_53/batchnorm/mul", "op": "Const", "attr": {"value": {"tensor": {"dtype": "DT_FLOAT", "tensorShape": {"dim": [{"size": "512"}]}}}, "dtype": {"type": "DT_FLOAT"}}}, {"name": "batch_normalization_53/batchnorm/sub", "op": "Const", "attr": {"value": {"tensor": {"dtype": "DT_FLOAT", "tensorShape": {"dim": [{"size": "512"}]}}}, "dtype": {"type": "DT_FLOAT"}}}, {"name": "conv2d_60/convolution/merged_input", "op": "Const", "attr": {"value": {"tensor": {"dtype": "DT_FLOAT", "tensorShape": {"dim": [{"size": "1"}, {"size": "1"}, {"size": "512"}, {"size": "128"}]}}}, "dtype": {"type": "DT_FLOAT"}}}, {"name": "batch_normalization_54/batchnorm/sub", "op": "Const", "attr": {"value": {"tensor": {"dtype": "DT_FLOAT", "tensorShape": {"dim": [{"size": "128"}]}}}, "dtype": {"type": "DT_FLOAT"}}}, {"name": "conv2d_61/convolution/merged_input", "op": "Const", "attr": {"value": {"tensor": {"dtype": "DT_FLOAT", "tensorShape": {"dim": [{"size": "3"}, {"size": "3"}, {"size": "128"}, {"size": "128"}]}}}, "dtype": {"type": "DT_FLOAT"}}}, {"name": "batch_normalization_55/batchnorm/sub", "op": "Const", "attr": {"value": {"tensor": {"dtype": "DT_FLOAT", "tensorShape": {"dim": [{"size": "128"}]}}}, "dtype": {"type": "DT_FLOAT"}}}, {"name": "conv2d_62/kernel", "op": "Const", "attr": {"dtype": {"type": "DT_FLOAT"}, "value": {"tensor": {"dtype": "DT_FLOAT", "tensorShape": {"dim": [{"size": "1"}, {"size": "1"}, {"size": "128"}, {"size": "512"}]}}}}}, {"name": "batch_normalization_56/batchnorm/mul", "op": "Const", "attr": {"value": {"tensor": {"dtype": "DT_FLOAT", "tensorShape": {"dim": [{"size": "512"}]}}}, "dtype": {"type": "DT_FLOAT"}}}, {"name": "batch_normalization_56/batchnorm/sub", "op": "Const", "attr": {"value": {"tensor": {"dtype": "DT_FLOAT", "tensorShape": {"dim": [{"size": "512"}]}}}, "dtype": {"type": "DT_FLOAT"}}}, {"name": "conv2d_63/convolution/merged_input", "op": "Const", "attr": {"value": {"tensor": {"dtype": "DT_FLOAT", "tensorShape": {"dim": [{"size": "1"}, {"size": "1"}, {"size": "512"}, {"size": "128"}]}}}, "dtype": {"type": "DT_FLOAT"}}}, {"name": "batch_normalization_57/batchnorm/sub", "op": "Const", "attr": {"value": {"tensor": {"dtype": "DT_FLOAT", "tensorShape": {"dim": [{"size": "128"}]}}}, "dtype": {"type": "DT_FLOAT"}}}, {"name": "conv2d_64/convolution/merged_input", "op": "Const", "attr": {"dtype": {"type": "DT_FLOAT"}, "value": {"tensor": {"dtype": "DT_FLOAT", "tensorShape": {"dim": [{"size": "3"}, {"size": "3"}, {"size": "128"}, {"size": "128"}]}}}}}, {"name": "batch_normalization_58/batchnorm/sub", "op": "Const", "attr": {"value": {"tensor": {"dtype": "DT_FLOAT", "tensorShape": {"dim": [{"size": "128"}]}}}, "dtype": {"type": "DT_FLOAT"}}}, {"name": "conv2d_65/kernel", "op": "Const", "attr": {"value": {"tensor": {"dtype": "DT_FLOAT", "tensorShape": {"dim": [{"size": "1"}, {"size": "1"}, {"size": "128"}, {"size": "512"}]}}}, "dtype": {"type": "DT_FLOAT"}}}, {"name": "batch_normalization_59/batchnorm/mul", "op": "Const", "attr": {"value": {"tensor": {"dtype": "DT_FLOAT", "tensorShape": {"dim": [{"size": "512"}]}}}, "dtype": {"type": "DT_FLOAT"}}}, {"name": "batch_normalization_59/batchnorm/sub", "op": "Const", "attr": {"value": {"tensor": {"dtype": "DT_FLOAT", "tensorShape": {"dim": [{"size": "512"}]}}}, "dtype": {"type": "DT_FLOAT"}}}, {"name": "conv2d_66/convolution/merged_input", "op": "Const", "attr": {"value": {"tensor": {"dtype": "DT_FLOAT", "tensorShape": {"dim": [{"size": "1"}, {"size": "1"}, {"size": "512"}, {"size": "128"}]}}}, "dtype": {"type": "DT_FLOAT"}}}, {"name": "batch_normalization_60/batchnorm/sub", "op": "Const", "attr": {"value": {"tensor": {"dtype": "DT_FLOAT", "tensorShape": {"dim": [{"size": "128"}]}}}, "dtype": {"type": "DT_FLOAT"}}}, {"name": "conv2d_67/convolution/merged_input", "op": "Const", "attr": {"value": {"tensor": {"dtype": "DT_FLOAT", "tensorShape": {"dim": [{"size": "3"}, {"size": "3"}, {"size": "128"}, {"size": "128"}]}}}, "dtype": {"type": "DT_FLOAT"}}}, {"name": "batch_normalization_61/batchnorm/sub", "op": "Const", "attr": {"value": {"tensor": {"dtype": "DT_FLOAT", "tensorShape": {"dim": [{"size": "128"}]}}}, "dtype": {"type": "DT_FLOAT"}}}, {"name": "conv2d_68/kernel", "op": "Const", "attr": {"dtype": {"type": "DT_FLOAT"}, "value": {"tensor": {"dtype": "DT_FLOAT", "tensorShape": {"dim": [{"size": "1"}, {"size": "1"}, {"size": "128"}, {"size": "512"}]}}}}}, {"name": "batch_normalization_62/batchnorm/mul", "op": "Const", "attr": {"value": {"tensor": {"dtype": "DT_FLOAT", "tensorShape": {"dim": [{"size": "512"}]}}}, "dtype": {"type": "DT_FLOAT"}}}, {"name": "batch_normalization_62/batchnorm/sub", "op": "Const", "attr": {"dtype": {"type": "DT_FLOAT"}, "value": {"tensor": {"dtype": "DT_FLOAT", "tensorShape": {"dim": [{"size": "512"}]}}}}}, {"name": "conv2d_69/convolution/merged_input", "op": "Const", "attr": {"value": {"tensor": {"dtype": "DT_FLOAT", "tensorShape": {"dim": [{"size": "1"}, {"size": "1"}, {"size": "512"}, {"size": "128"}]}}}, "dtype": {"type": "DT_FLOAT"}}}, {"name": "batch_normalization_63/batchnorm/sub", "op": "Const", "attr": {"value": {"tensor": {"dtype": "DT_FLOAT", "tensorShape": {"dim": [{"size": "128"}]}}}, "dtype": {"type": "DT_FLOAT"}}}, {"name": "conv2d_70/convolution/merged_input", "op": "Const", "attr": {"value": {"tensor": {"dtype": "DT_FLOAT", "tensorShape": {"dim": [{"size": "3"}, {"size": "3"}, {"size": "128"}, {"size": "128"}]}}}, "dtype": {"type": "DT_FLOAT"}}}, {"name": "batch_normalization_64/batchnorm/sub", "op": "Const", "attr": {"value": {"tensor": {"dtype": "DT_FLOAT", "tensorShape": {"dim": [{"size": "128"}]}}}, "dtype": {"type": "DT_FLOAT"}}}, {"name": "conv2d_71/kernel", "op": "Const", "attr": {"value": {"tensor": {"dtype": "DT_FLOAT", "tensorShape": {"dim": [{"size": "1"}, {"size": "1"}, {"size": "128"}, {"size": "512"}]}}}, "dtype": {"type": "DT_FLOAT"}}}, {"name": "self_attention_1/gamma", "op": "Const", "attr": {"value": {"tensor": {"dtype": "DT_FLOAT", "tensorShape": {"dim": [{"size": "1"}]}}}, "dtype": {"type": "DT_FLOAT"}}}, {"name": "sub_pixel_conv2d_2/kernel", "op": "Const", "attr": {"value": {"tensor": {"dtype": "DT_FLOAT", "tensorShape": {"dim": [{"size": "1"}, {"size": "1"}, {"size": "512"}, {"size": "1024"}]}}}, "dtype": {"type": "DT_FLOAT"}}}, {"name": "dense_4/kernel", "op": "Const", "attr": {"value": {"tensor": {"dtype": "DT_FLOAT", "tensorShape": {"dim": [{"size": "256"}, {"size": "128"}]}}}, "dtype": {"type": "DT_FLOAT"}}}, {"name": "dense_5/kernel", "op": "Const", "attr": {"dtype": {"type": "DT_FLOAT"}, "value": {"tensor": {"dtype": "DT_FLOAT", "tensorShape": {"dim": [{"size": "128"}, {"size": "256"}]}}}}}, {"name": "conv2d_75/kernel", "op": "Const", "attr": {"value": {"tensor": {"dtype": "DT_FLOAT", "tensorShape": {"dim": [{"size": "1"}, {"size": "1"}, {"size": "514"}, {"size": "256"}]}}}, "dtype": {"type": "DT_FLOAT"}}}, {"name": "conv2d_76/convolution/merged_input", "op": "Const", "attr": {"value": {"tensor": {"dtype": "DT_FLOAT", "tensorShape": {"dim": [{"size": "3"}, {"size": "3"}, {"size": "256"}, {"size": "256"}]}}}, "dtype": {"type": "DT_FLOAT"}}}, {"name": "batch_normalization_68/batchnorm/mul_1", "op": "Const", "attr": {"value": {"tensor": {"dtype": "DT_FLOAT", "tensorShape": {"dim": [{"size": "256"}]}}}, "dtype": {"type": "DT_FLOAT"}}}, {"name": "dense_6/kernel", "op": "Const", "attr": {"value": {"tensor": {"dtype": "DT_FLOAT", "tensorShape": {"dim": [{"size": "128"}, {"size": "256"}]}}}, "dtype": {"type": "DT_FLOAT"}}}, {"name": "dense_6/bias", "op": "Const", "attr": {"value": {"tensor": {"dtype": "DT_FLOAT", "tensorShape": {"dim": [{"size": "256"}]}}}, "dtype": {"type": "DT_FLOAT"}}}, {"name": "batch_normalization_69/batchnorm/mul", "op": "Const", "attr": {"value": {"tensor": {"dtype": "DT_FLOAT", "tensorShape": {"dim": [{"size": "256"}]}}}, "dtype": {"type": "DT_FLOAT"}}}, {"name": "batch_normalization_69/batchnorm/sub", "op": "Const", "attr": {"value": {"tensor": {"dtype": "DT_FLOAT", "tensorShape": {"dim": [{"size": "256"}]}}}, "dtype": {"type": "DT_FLOAT"}}}, {"name": "conv2d_77/convolution/merged_input", "op": "Const", "attr": {"value": {"tensor": {"dtype": "DT_FLOAT", "tensorShape": {"dim": [{"size": "1"}, {"size": "1"}, {"size": "256"}, {"size": "64"}]}}}, "dtype": {"type": "DT_FLOAT"}}}, {"name": "batch_normalization_70/batchnorm/sub", "op": "Const", "attr": {"value": {"tensor": {"dtype": "DT_FLOAT", "tensorShape": {"dim": [{"size": "64"}]}}}, "dtype": {"type": "DT_FLOAT"}}}, {"name": "conv2d_78/convolution/merged_input", "op": "Const", "attr": {"value": {"tensor": {"dtype": "DT_FLOAT", "tensorShape": {"dim": [{"size": "3"}, {"size": "3"}, {"size": "64"}, {"size": "64"}]}}}, "dtype": {"type": "DT_FLOAT"}}}, {"name": "batch_normalization_71/batchnorm/sub", "op": "Const", "attr": {"value": {"tensor": {"dtype": "DT_FLOAT", "tensorShape": {"dim": [{"size": "64"}]}}}, "dtype": {"type": "DT_FLOAT"}}}, {"name": "conv2d_79/kernel", "op": "Const", "attr": {"value": {"tensor": {"dtype": "DT_FLOAT", "tensorShape": {"dim": [{"size": "1"}, {"size": "1"}, {"size": "64"}, {"size": "256"}]}}}, "dtype": {"type": "DT_FLOAT"}}}, {"name": "batch_normalization_72/batchnorm/mul", "op": "Const", "attr": {"value": {"tensor": {"dtype": "DT_FLOAT", "tensorShape": {"dim": [{"size": "256"}]}}}, "dtype": {"type": "DT_FLOAT"}}}, {"name": "batch_normalization_72/batchnorm/sub", "op": "Const", "attr": {"dtype": {"type": "DT_FLOAT"}, "value": {"tensor": {"dtype": "DT_FLOAT", "tensorShape": {"dim": [{"size": "256"}]}}}}}, {"name": "conv2d_80/convolution/merged_input", "op": "Const", "attr": {"value": {"tensor": {"dtype": "DT_FLOAT", "tensorShape": {"dim": [{"size": "1"}, {"size": "1"}, {"size": "256"}, {"size": "64"}]}}}, "dtype": {"type": "DT_FLOAT"}}}, {"name": "batch_normalization_73/batchnorm/sub", "op": "Const", "attr": {"value": {"tensor": {"dtype": "DT_FLOAT", "tensorShape": {"dim": [{"size": "64"}]}}}, "dtype": {"type": "DT_FLOAT"}}}, {"name": "conv2d_81/convolution/merged_input", "op": "Const", "attr": {"value": {"tensor": {"dtype": "DT_FLOAT", "tensorShape": {"dim": [{"size": "3"}, {"size": "3"}, {"size": "64"}, {"size": "64"}]}}}, "dtype": {"type": "DT_FLOAT"}}}, {"name": "batch_normalization_74/batchnorm/sub", "op": "Const", "attr": {"dtype": {"type": "DT_FLOAT"}, "value": {"tensor": {"dtype": "DT_FLOAT", "tensorShape": {"dim": [{"size": "64"}]}}}}}, {"name": "conv2d_82/kernel", "op": "Const", "attr": {"value": {"tensor": {"dtype": "DT_FLOAT", "tensorShape": {"dim": [{"size": "1"}, {"size": "1"}, {"size": "64"}, {"size": "256"}]}}}, "dtype": {"type": "DT_FLOAT"}}}, {"name": "self_attention_2/gamma", "op": "Const", "attr": {"value": {"tensor": {"dtype": "DT_FLOAT", "tensorShape": {"dim": [{"size": "1"}]}}}, "dtype": {"type": "DT_FLOAT"}}}, {"name": "sub_pixel_conv2d_4/kernel", "op": "Const", "attr": {"value": {"tensor": {"dtype": "DT_FLOAT", "tensorShape": {"dim": [{"size": "1"}, {"size": "1"}, {"size": "256"}, {"size": "1024"}]}}}, "dtype": {"type": "DT_FLOAT"}}}, {"name": "dense_8/kernel", "op": "Const", "attr": {"value": {"tensor": {"dtype": "DT_FLOAT", "tensorShape": {"dim": [{"size": "256"}, {"size": "128"}]}}}, "dtype": {"type": "DT_FLOAT"}}}, {"name": "dense_9/kernel", "op": "Const", "attr": {"value": {"tensor": {"dtype": "DT_FLOAT", "tensorShape": {"dim": [{"size": "128"}, {"size": "256"}]}}}, "dtype": {"type": "DT_FLOAT"}}}, {"name": "conv2d_87/kernel", "op": "Const", "attr": {"value": {"tensor": {"dtype": "DT_FLOAT", "tensorShape": {"dim": [{"size": "1"}, {"size": "1"}, {"size": "514"}, {"size": "256"}]}}}, "dtype": {"type": "DT_FLOAT"}}}, {"name": "conv2d_88/convolution/merged_input", "op": "Const", "attr": {"dtype": {"type": "DT_FLOAT"}, "value": {"tensor": {"dtype": "DT_FLOAT", "tensorShape": {"dim": [{"size": "3"}, {"size": "3"}, {"size": "256"}, {"size": "256"}]}}}}}, {"name": "batch_normalization_78/batchnorm/mul_1", "op": "Const", "attr": {"value": {"tensor": {"dtype": "DT_FLOAT", "tensorShape": {"dim": [{"size": "256"}]}}}, "dtype": {"type": "DT_FLOAT"}}}, {"name": "dense_10/kernel", "op": "Const", "attr": {"value": {"tensor": {"dtype": "DT_FLOAT", "tensorShape": {"dim": [{"size": "128"}, {"size": "256"}]}}}, "dtype": {"type": "DT_FLOAT"}}}, {"name": "dense_10/bias", "op": "Const", "attr": {"value": {"tensor": {"dtype": "DT_FLOAT", "tensorShape": {"dim": [{"size": "256"}]}}}, "dtype": {"type": "DT_FLOAT"}}}, {"name": "batch_normalization_79/batchnorm/mul", "op": "Const", "attr": {"value": {"tensor": {"dtype": "DT_FLOAT", "tensorShape": {"dim": [{"size": "256"}]}}}, "dtype": {"type": "DT_FLOAT"}}}, {"name": "batch_normalization_79/batchnorm/sub", "op": "Const", "attr": {"value": {"tensor": {"dtype": "DT_FLOAT", "tensorShape": {"dim": [{"size": "256"}]}}}, "dtype": {"type": "DT_FLOAT"}}}, {"name": "conv2d_89/convolution/merged_input", "op": "Const", "attr": {"value": {"tensor": {"dtype": "DT_FLOAT", "tensorShape": {"dim": [{"size": "1"}, {"size": "1"}, {"size": "256"}, {"size": "64"}]}}}, "dtype": {"type": "DT_FLOAT"}}}, {"name": "batch_normalization_80/batchnorm/sub", "op": "Const", "attr": {"dtype": {"type": "DT_FLOAT"}, "value": {"tensor": {"dtype": "DT_FLOAT", "tensorShape": {"dim": [{"size": "64"}]}}}}}, {"name": "conv2d_90/convolution/merged_input", "op": "Const", "attr": {"value": {"tensor": {"dtype": "DT_FLOAT", "tensorShape": {"dim": [{"size": "3"}, {"size": "3"}, {"size": "64"}, {"size": "64"}]}}}, "dtype": {"type": "DT_FLOAT"}}}, {"name": "batch_normalization_81/batchnorm/sub", "op": "Const", "attr": {"value": {"tensor": {"dtype": "DT_FLOAT", "tensorShape": {"dim": [{"size": "64"}]}}}, "dtype": {"type": "DT_FLOAT"}}}, {"name": "conv2d_91/kernel", "op": "Const", "attr": {"value": {"tensor": {"dtype": "DT_FLOAT", "tensorShape": {"dim": [{"size": "1"}, {"size": "1"}, {"size": "64"}, {"size": "256"}]}}}, "dtype": {"type": "DT_FLOAT"}}}, {"name": "batch_normalization_82/batchnorm/mul", "op": "Const", "attr": {"value": {"tensor": {"dtype": "DT_FLOAT", "tensorShape": {"dim": [{"size": "256"}]}}}, "dtype": {"type": "DT_FLOAT"}}}, {"name": "batch_normalization_82/batchnorm/sub", "op": "Const", "attr": {"value": {"tensor": {"dtype": "DT_FLOAT", "tensorShape": {"dim": [{"size": "256"}]}}}, "dtype": {"type": "DT_FLOAT"}}}, {"name": "conv2d_92/convolution/merged_input", "op": "Const", "attr": {"value": {"tensor": {"dtype": "DT_FLOAT", "tensorShape": {"dim": [{"size": "1"}, {"size": "1"}, {"size": "256"}, {"size": "64"}]}}}, "dtype": {"type": "DT_FLOAT"}}}, {"name": "batch_normalization_83/batchnorm/sub", "op": "Const", "attr": {"value": {"tensor": {"dtype": "DT_FLOAT", "tensorShape": {"dim": [{"size": "64"}]}}}, "dtype": {"type": "DT_FLOAT"}}}, {"name": "conv2d_93/convolution/merged_input", "op": "Const", "attr": {"value": {"tensor": {"dtype": "DT_FLOAT", "tensorShape": {"dim": [{"size": "3"}, {"size": "3"}, {"size": "64"}, {"size": "64"}]}}}, "dtype": {"type": "DT_FLOAT"}}}, {"name": "batch_normalization_84/batchnorm/sub", "op": "Const", "attr": {"value": {"tensor": {"dtype": "DT_FLOAT", "tensorShape": {"dim": [{"size": "64"}]}}}, "dtype": {"type": "DT_FLOAT"}}}, {"name": "conv2d_94/kernel", "op": "Const", "attr": {"value": {"tensor": {"dtype": "DT_FLOAT", "tensorShape": {"dim": [{"size": "1"}, {"size": "1"}, {"size": "64"}, {"size": "256"}]}}}, "dtype": {"type": "DT_FLOAT"}}}, {"name": "self_attention_3/gamma", "op": "Const", "attr": {"value": {"tensor": {"dtype": "DT_FLOAT", "tensorShape": {"dim": [{"size": "1"}]}}}, "dtype": {"type": "DT_FLOAT"}}}, {"name": "sub_pixel_conv2d_6/kernel", "op": "Const", "attr": {"dtype": {"type": "DT_FLOAT"}, "value": {"tensor": {"dtype": "DT_FLOAT", "tensorShape": {"dim": [{"size": "1"}, {"size": "1"}, {"size": "256"}, {"size": "512"}]}}}}}, {"name": "dense_12/kernel", "op": "Const", "attr": {"value": {"tensor": {"dtype": "DT_FLOAT", "tensorShape": {"dim": [{"size": "128"}, {"size": "64"}]}}}, "dtype": {"type": "DT_FLOAT"}}}, {"name": "dense_13/kernel", "op": "Const", "attr": {"value": {"tensor": {"dtype": "DT_FLOAT", "tensorShape": {"dim": [{"size": "64"}, {"size": "128"}]}}}, "dtype": {"type": "DT_FLOAT"}}}, {"name": "batch_normalization_16/batchnorm/mul", "op": "Const", "attr": {"value": {"tensor": {"dtype": "DT_FLOAT", "tensorShape": {"dim": [{"size": "64"}]}}}, "dtype": {"type": "DT_FLOAT"}}}, {"name": "batch_normalization_16/batchnorm/sub", "op": "Const", "attr": {"value": {"tensor": {"dtype": "DT_FLOAT", "tensorShape": {"dim": [{"size": "64"}]}}}, "dtype": {"type": "DT_FLOAT"}}}, {"name": "conv2d_18/convolution/merged_input", "op": "Const", "attr": {"value": {"tensor": {"dtype": "DT_FLOAT", "tensorShape": {"dim": [{"size": "1"}, {"size": "1"}, {"size": "64"}, {"size": "32"}]}}}, "dtype": {"type": "DT_FLOAT"}}}, {"name": "batch_normalization_17/batchnorm/sub", "op": "Const", "attr": {"value": {"tensor": {"dtype": "DT_FLOAT", "tensorShape": {"dim": [{"size": "32"}]}}}, "dtype": {"type": "DT_FLOAT"}}}, {"name": "conv2d_19/convolution/merged_input", "op": "Const", "attr": {"value": {"tensor": {"dtype": "DT_FLOAT", "tensorShape": {"dim": [{"size": "3"}, {"size": "3"}, {"size": "32"}, {"size": "32"}]}}}, "dtype": {"type": "DT_FLOAT"}}}, {"name": "batch_normalization_18/batchnorm/sub", "op": "Const", "attr": {"value": {"tensor": {"dtype": "DT_FLOAT", "tensorShape": {"dim": [{"size": "32"}]}}}, "dtype": {"type": "DT_FLOAT"}}}, {"name": "conv2d_20/kernel", "op": "Const", "attr": {"value": {"tensor": {"dtype": "DT_FLOAT", "tensorShape": {"dim": [{"size": "1"}, {"size": "1"}, {"size": "32"}, {"size": "128"}]}}}, "dtype": {"type": "DT_FLOAT"}}}, {"name": "conv2d_21/kernel", "op": "Const", "attr": {"value": {"tensor": {"dtype": "DT_FLOAT", "tensorShape": {"dim": [{"size": "1"}, {"size": "1"}, {"size": "64"}, {"size": "128"}]}}}, "dtype": {"type": "DT_FLOAT"}}}, {"name": "batch_normalization_19/batchnorm/mul", "op": "Const", "attr": {"dtype": {"type": "DT_FLOAT"}, "value": {"tensor": {"dtype": "DT_FLOAT", "tensorShape": {"dim": [{"size": "128"}]}}}}}, {"name": "batch_normalization_19/batchnorm/sub", "op": "Const", "attr": {"value": {"tensor": {"dtype": "DT_FLOAT", "tensorShape": {"dim": [{"size": "128"}]}}}, "dtype": {"type": "DT_FLOAT"}}}, {"name": "conv2d_22/convolution/merged_input", "op": "Const", "attr": {"dtype": {"type": "DT_FLOAT"}, "value": {"tensor": {"dtype": "DT_FLOAT", "tensorShape": {"dim": [{"size": "1"}, {"size": "1"}, {"size": "128"}, {"size": "32"}]}}}}}, {"name": "batch_normalization_20/batchnorm/sub", "op": "Const", "attr": {"value": {"tensor": {"dtype": "DT_FLOAT", "tensorShape": {"dim": [{"size": "32"}]}}}, "dtype": {"type": "DT_FLOAT"}}}, {"name": "conv2d_23/convolution/merged_input", "op": "Const", "attr": {"value": {"tensor": {"dtype": "DT_FLOAT", "tensorShape": {"dim": [{"size": "3"}, {"size": "3"}, {"size": "32"}, {"size": "32"}]}}}, "dtype": {"type": "DT_FLOAT"}}}, {"name": "batch_normalization_21/batchnorm/sub", "op": "Const", "attr": {"value": {"tensor": {"dtype": "DT_FLOAT", "tensorShape": {"dim": [{"size": "32"}]}}}, "dtype": {"type": "DT_FLOAT"}}}, {"name": "conv2d_24/kernel", "op": "Const", "attr": {"value": {"tensor": {"dtype": "DT_FLOAT", "tensorShape": {"dim": [{"size": "1"}, {"size": "1"}, {"size": "32"}, {"size": "128"}]}}}, "dtype": {"type": "DT_FLOAT"}}}, {"name": "batch_normalization_22/batchnorm/mul", "op": "Const", "attr": {"dtype": {"type": "DT_FLOAT"}, "value": {"tensor": {"dtype": "DT_FLOAT", "tensorShape": {"dim": [{"size": "128"}]}}}}}, {"name": "batch_normalization_22/batchnorm/sub", "op": "Const", "attr": {"value": {"tensor": {"dtype": "DT_FLOAT", "tensorShape": {"dim": [{"size": "128"}]}}}, "dtype": {"type": "DT_FLOAT"}}}, {"name": "conv2d_25/convolution/merged_input", "op": "Const", "attr": {"value": {"tensor": {"dtype": "DT_FLOAT", "tensorShape": {"dim": [{"size": "1"}, {"size": "1"}, {"size": "128"}, {"size": "32"}]}}}, "dtype": {"type": "DT_FLOAT"}}}, {"name": "batch_normalization_23/batchnorm/sub", "op": "Const", "attr": {"value": {"tensor": {"dtype": "DT_FLOAT", "tensorShape": {"dim": [{"size": "32"}]}}}, "dtype": {"type": "DT_FLOAT"}}}, {"name": "conv2d_26/convolution/merged_input", "op": "Const", "attr": {"value": {"tensor": {"dtype": "DT_FLOAT", "tensorShape": {"dim": [{"size": "3"}, {"size": "3"}, {"size": "32"}, {"size": "32"}]}}}, "dtype": {"type": "DT_FLOAT"}}}, {"name": "batch_normalization_24/batchnorm/sub", "op": "Const", "attr": {"value": {"tensor": {"dtype": "DT_FLOAT", "tensorShape": {"dim": [{"size": "32"}]}}}, "dtype": {"type": "DT_FLOAT"}}}, {"name": "conv2d_27/kernel", "op": "Const", "attr": {"value": {"tensor": {"dtype": "DT_FLOAT", "tensorShape": {"dim": [{"size": "1"}, {"size": "1"}, {"size": "32"}, {"size": "128"}]}}}, "dtype": {"type": "DT_FLOAT"}}}, {"name": "conv2d_98/kernel", "op": "Const", "attr": {"value": {"tensor": {"dtype": "DT_FLOAT", "tensorShape": {"dim": [{"size": "1"}, {"size": "1"}, {"size": "258"}, {"size": "128"}]}}}, "dtype": {"type": "DT_FLOAT"}}}, {"name": "conv2d_99/convolution/merged_input", "op": "Const", "attr": {"dtype": {"type": "DT_FLOAT"}, "value": {"tensor": {"dtype": "DT_FLOAT", "tensorShape": {"dim": [{"size": "3"}, {"size": "3"}, {"size": "128"}, {"size": "128"}]}}}}}, {"name": "batch_normalization_88/batchnorm/mul_1", "op": "Const", "attr": {"value": {"tensor": {"dtype": "DT_FLOAT", "tensorShape": {"dim": [{"size": "128"}]}}}, "dtype": {"type": "DT_FLOAT"}}}, {"name": "dense_14/kernel", "op": "Const", "attr": {"value": {"tensor": {"dtype": "DT_FLOAT", "tensorShape": {"dim": [{"size": "128"}, {"size": "128"}]}}}, "dtype": {"type": "DT_FLOAT"}}}, {"name": "dense_14/bias", "op": "Const", "attr": {"value": {"tensor": {"dtype": "DT_FLOAT", "tensorShape": {"dim": [{"size": "128"}]}}}, "dtype": {"type": "DT_FLOAT"}}}, {"name": "batch_normalization_89/batchnorm/mul", "op": "Const", "attr": {"value": {"tensor": {"dtype": "DT_FLOAT", "tensorShape": {"dim": [{"size": "128"}]}}}, "dtype": {"type": "DT_FLOAT"}}}, {"name": "batch_normalization_89/batchnorm/sub", "op": "Const", "attr": {"dtype": {"type": "DT_FLOAT"}, "value": {"tensor": {"dtype": "DT_FLOAT", "tensorShape": {"dim": [{"size": "128"}]}}}}}, {"name": "conv2d_100/convolution/merged_input", "op": "Const", "attr": {"value": {"tensor": {"dtype": "DT_FLOAT", "tensorShape": {"dim": [{"size": "1"}, {"size": "1"}, {"size": "128"}, {"size": "32"}]}}}, "dtype": {"type": "DT_FLOAT"}}}, {"name": "batch_normalization_90/batchnorm/sub", "op": "Const", "attr": {"value": {"tensor": {"dtype": "DT_FLOAT", "tensorShape": {"dim": [{"size": "32"}]}}}, "dtype": {"type": "DT_FLOAT"}}}, {"name": "conv2d_101/convolution/merged_input", "op": "Const", "attr": {"value": {"tensor": {"dtype": "DT_FLOAT", "tensorShape": {"dim": [{"size": "3"}, {"size": "3"}, {"size": "32"}, {"size": "32"}]}}}, "dtype": {"type": "DT_FLOAT"}}}, {"name": "batch_normalization_91/batchnorm/sub", "op": "Const", "attr": {"value": {"tensor": {"dtype": "DT_FLOAT", "tensorShape": {"dim": [{"size": "32"}]}}}, "dtype": {"type": "DT_FLOAT"}}}, {"name": "conv2d_102/kernel", "op": "Const", "attr": {"value": {"tensor": {"dtype": "DT_FLOAT", "tensorShape": {"dim": [{"size": "1"}, {"size": "1"}, {"size": "32"}, {"size": "128"}]}}}, "dtype": {"type": "DT_FLOAT"}}}, {"name": "batch_normalization_92/batchnorm/mul", "op": "Const", "attr": {"value": {"tensor": {"dtype": "DT_FLOAT", "tensorShape": {"dim": [{"size": "128"}]}}}, "dtype": {"type": "DT_FLOAT"}}}, {"name": "batch_normalization_92/batchnorm/sub", "op": "Const", "attr": {"value": {"tensor": {"dtype": "DT_FLOAT", "tensorShape": {"dim": [{"size": "128"}]}}}, "dtype": {"type": "DT_FLOAT"}}}, {"name": "conv2d_103/convolution/merged_input", "op": "Const", "attr": {"value": {"tensor": {"dtype": "DT_FLOAT", "tensorShape": {"dim": [{"size": "1"}, {"size": "1"}, {"size": "128"}, {"size": "32"}]}}}, "dtype": {"type": "DT_FLOAT"}}}, {"name": "batch_normalization_93/batchnorm/sub", "op": "Const", "attr": {"value": {"tensor": {"dtype": "DT_FLOAT", "tensorShape": {"dim": [{"size": "32"}]}}}, "dtype": {"type": "DT_FLOAT"}}}, {"name": "conv2d_104/convolution/merged_input", "op": "Const", "attr": {"value": {"tensor": {"dtype": "DT_FLOAT", "tensorShape": {"dim": [{"size": "3"}, {"size": "3"}, {"size": "32"}, {"size": "32"}]}}}, "dtype": {"type": "DT_FLOAT"}}}, {"name": "batch_normalization_94/batchnorm/sub", "op": "Const", "attr": {"value": {"tensor": {"dtype": "DT_FLOAT", "tensorShape": {"dim": [{"size": "32"}]}}}, "dtype": {"type": "DT_FLOAT"}}}, {"name": "conv2d_105/kernel", "op": "Const", "attr": {"dtype": {"type": "DT_FLOAT"}, "value": {"tensor": {"dtype": "DT_FLOAT", "tensorShape": {"dim": [{"size": "1"}, {"size": "1"}, {"size": "32"}, {"size": "128"}]}}}}}, {"name": "self_attention_4/gamma", "op": "Const", "attr": {"value": {"tensor": {"dtype": "DT_FLOAT", "tensorShape": {"dim": [{"size": "1"}]}}}, "dtype": {"type": "DT_FLOAT"}}}, {"name": "sub_pixel_conv2d_8/kernel", "op": "Const", "attr": {"value": {"tensor": {"dtype": "DT_FLOAT", "tensorShape": {"dim": [{"size": "1"}, {"size": "1"}, {"size": "128"}, {"size": "256"}]}}}, "dtype": {"type": "DT_FLOAT"}}}, {"name": "dense_16/kernel", "op": "Const", "attr": {"value": {"tensor": {"dtype": "DT_FLOAT", "tensorShape": {"dim": [{"size": "64"}, {"size": "32"}]}}}, "dtype": {"type": "DT_FLOAT"}}}, {"name": "dense_17/kernel", "op": "Const", "attr": {"value": {"tensor": {"dtype": "DT_FLOAT", "tensorShape": {"dim": [{"size": "32"}, {"size": "64"}]}}}, "dtype": {"type": "DT_FLOAT"}}}, {"name": "batch_normalization_7/batchnorm/mul", "op": "Const", "attr": {"value": {"tensor": {"dtype": "DT_FLOAT", "tensorShape": {"dim": [{"size": "32"}]}}}, "dtype": {"type": "DT_FLOAT"}}}, {"name": "batch_normalization_7/batchnorm/sub", "op": "Const", "attr": {"value": {"tensor": {"dtype": "DT_FLOAT", "tensorShape": {"dim": [{"size": "32"}]}}}, "dtype": {"type": "DT_FLOAT"}}}, {"name": "conv2d_8/convolution/merged_input", "op": "Const", "attr": {"value": {"tensor": {"dtype": "DT_FLOAT", "tensorShape": {"dim": [{"size": "1"}, {"size": "1"}, {"size": "32"}, {"size": "16"}]}}}, "dtype": {"type": "DT_FLOAT"}}}, {"name": "batch_normalization_8/batchnorm/sub", "op": "Const", "attr": {"value": {"tensor": {"dtype": "DT_FLOAT", "tensorShape": {"dim": [{"size": "16"}]}}}, "dtype": {"type": "DT_FLOAT"}}}, {"name": "conv2d_9/convolution/merged_input", "op": "Const", "attr": {"value": {"tensor": {"dtype": "DT_FLOAT", "tensorShape": {"dim": [{"size": "3"}, {"size": "3"}, {"size": "16"}, {"size": "16"}]}}}, "dtype": {"type": "DT_FLOAT"}}}, {"name": "batch_normalization_9/batchnorm/sub", "op": "Const", "attr": {"value": {"tensor": {"dtype": "DT_FLOAT", "tensorShape": {"dim": [{"size": "16"}]}}}, "dtype": {"type": "DT_FLOAT"}}}, {"name": "conv2d_10/kernel", "op": "Const", "attr": {"value": {"tensor": {"dtype": "DT_FLOAT", "tensorShape": {"dim": [{"size": "1"}, {"size": "1"}, {"size": "16"}, {"size": "64"}]}}}, "dtype": {"type": "DT_FLOAT"}}}, {"name": "leaky_re_lu_129/LeakyRelu/alpha", "op": "Const", "attr": {"value": {"tensor": {"dtype": "DT_FLOAT", "tensorShape": {}}}, "dtype": {"type": "DT_FLOAT"}}}, {"name": "batch_normalization_1/batchnorm/mul", "op": "Const", "attr": {"value": {"tensor": {"dtype": "DT_FLOAT", "tensorShape": {"dim": [{"size": "3"}]}}}, "dtype": {"type": "DT_FLOAT"}}}, {"name": "batch_normalization_1/batchnorm/sub", "op": "Const", "attr": {"dtype": {"type": "DT_FLOAT"}, "value": {"tensor": {"dtype": "DT_FLOAT", "tensorShape": {"dim": [{"size": "3"}]}}}}}, {"name": "conv2d_1/convolution/merged_input", "op": "Const", "attr": {"dtype": {"type": "DT_FLOAT"}, "value": {"tensor": {"dtype": "DT_FLOAT", "tensorShape": {"dim": [{"size": "1"}, {"size": "1"}, {"size": "3"}, {"size": "8"}]}}}}}, {"name": "batch_normalization_2/batchnorm/sub", "op": "Const", "attr": {"dtype": {"type": "DT_FLOAT"}, "value": {"tensor": {"dtype": "DT_FLOAT", "tensorShape": {"dim": [{"size": "8"}]}}}}}, {"name": "conv2d_2/convolution/merged_input", "op": "Const", "attr": {"value": {"tensor": {"dtype": "DT_FLOAT", "tensorShape": {"dim": [{"size": "3"}, {"size": "3"}, {"size": "8"}, {"size": "8"}]}}}, "dtype": {"type": "DT_FLOAT"}}}, {"name": "batch_normalization_3/batchnorm/sub", "op": "Const", "attr": {"value": {"tensor": {"dtype": "DT_FLOAT", "tensorShape": {"dim": [{"size": "8"}]}}}, "dtype": {"type": "DT_FLOAT"}}}, {"name": "conv2d_3/kernel", "op": "Const", "attr": {"value": {"tensor": {"dtype": "DT_FLOAT", "tensorShape": {"dim": [{"size": "1"}, {"size": "1"}, {"size": "8"}, {"size": "32"}]}}}, "dtype": {"type": "DT_FLOAT"}}}, {"name": "coordinate_channel2d_7/arange/start", "op": "Const", "attr": {"dtype": {"type": "DT_INT32"}, "value": {"tensor": {"dtype": "DT_INT32", "tensorShape": {}}}}}, {"name": "coordinate_channel2d_7/strided_slice/stack", "op": "Const", "attr": {"dtype": {"type": "DT_INT32"}, "value": {"tensor": {"dtype": "DT_INT32", "tensorShape": {"dim": [{"size": "1"}]}}}}}, {"name": "coordinate_channel2d_7/ExpandDims/dim", "op": "Const", "attr": {"dtype": {"type": "DT_INT32"}, "value": {"tensor": {"dtype": "DT_INT32", "tensorShape": {}}}}}, {"name": "coordinate_channel2d_7/transpose/perm", "op": "Const", "attr": {"value": {"tensor": {"dtype": "DT_INT32", "tensorShape": {"dim": [{"size": "4"}]}}}, "dtype": {"type": "DT_INT32"}}}, {"name": "conv2d_4/kernel", "op": "Const", "attr": {"value": {"tensor": {"dtype": "DT_FLOAT", "tensorShape": {"dim": [{"size": "1"}, {"size": "1"}, {"size": "3"}, {"size": "32"}]}}}, "dtype": {"type": "DT_FLOAT"}}}, {"name": "batch_normalization_4/batchnorm/mul", "op": "Const", "attr": {"value": {"tensor": {"dtype": "DT_FLOAT", "tensorShape": {"dim": [{"size": "32"}]}}}, "dtype": {"type": "DT_FLOAT"}}}, {"name": "batch_normalization_4/batchnorm/sub", "op": "Const", "attr": {"value": {"tensor": {"dtype": "DT_FLOAT", "tensorShape": {"dim": [{"size": "32"}]}}}, "dtype": {"type": "DT_FLOAT"}}}, {"name": "conv2d_5/convolution/merged_input", "op": "Const", "attr": {"value": {"tensor": {"dtype": "DT_FLOAT", "tensorShape": {"dim": [{"size": "1"}, {"size": "1"}, {"size": "32"}, {"size": "8"}]}}}, "dtype": {"type": "DT_FLOAT"}}}, {"name": "batch_normalization_5/batchnorm/sub", "op": "Const", "attr": {"value": {"tensor": {"dtype": "DT_FLOAT", "tensorShape": {"dim": [{"size": "8"}]}}}, "dtype": {"type": "DT_FLOAT"}}}, {"name": "conv2d_6/convolution/merged_input", "op": "Const", "attr": {"dtype": {"type": "DT_FLOAT"}, "value": {"tensor": {"dtype": "DT_FLOAT", "tensorShape": {"dim": [{"size": "3"}, {"size": "3"}, {"size": "8"}, {"size": "8"}]}}}}}, {"name": "batch_normalization_6/batchnorm/sub", "op": "Const", "attr": {"value": {"tensor": {"dtype": "DT_FLOAT", "tensorShape": {"dim": [{"size": "8"}]}}}, "dtype": {"type": "DT_FLOAT"}}}, {"name": "conv2d_7/kernel", "op": "Const", "attr": {"dtype": {"type": "DT_FLOAT"}, "value": {"tensor": {"dtype": "DT_FLOAT", "tensorShape": {"dim": [{"size": "1"}, {"size": "1"}, {"size": "8"}, {"size": "32"}]}}}}}, {"name": "conv2d_11/kernel", "op": "Const", "attr": {"dtype": {"type": "DT_FLOAT"}, "value": {"tensor": {"dtype": "DT_FLOAT", "tensorShape": {"dim": [{"size": "1"}, {"size": "1"}, {"size": "32"}, {"size": "64"}]}}}}}, {"name": "batch_normalization_10/batchnorm/mul", "op": "Const", "attr": {"value": {"tensor": {"dtype": "DT_FLOAT", "tensorShape": {"dim": [{"size": "64"}]}}}, "dtype": {"type": "DT_FLOAT"}}}, {"name": "batch_normalization_10/batchnorm/sub", "op": "Const", "attr": {"value": {"tensor": {"dtype": "DT_FLOAT", "tensorShape": {"dim": [{"size": "64"}]}}}, "dtype": {"type": "DT_FLOAT"}}}, {"name": "conv2d_12/convolution/merged_input", "op": "Const", "attr": {"value": {"tensor": {"dtype": "DT_FLOAT", "tensorShape": {"dim": [{"size": "1"}, {"size": "1"}, {"size": "64"}, {"size": "16"}]}}}, "dtype": {"type": "DT_FLOAT"}}}, {"name": "batch_normalization_11/batchnorm/sub", "op": "Const", "attr": {"value": {"tensor": {"dtype": "DT_FLOAT", "tensorShape": {"dim": [{"size": "16"}]}}}, "dtype": {"type": "DT_FLOAT"}}}, {"name": "conv2d_13/convolution/merged_input", "op": "Const", "attr": {"value": {"tensor": {"dtype": "DT_FLOAT", "tensorShape": {"dim": [{"size": "3"}, {"size": "3"}, {"size": "16"}, {"size": "16"}]}}}, "dtype": {"type": "DT_FLOAT"}}}, {"name": "batch_normalization_12/batchnorm/sub", "op": "Const", "attr": {"value": {"tensor": {"dtype": "DT_FLOAT", "tensorShape": {"dim": [{"size": "16"}]}}}, "dtype": {"type": "DT_FLOAT"}}}, {"name": "conv2d_14/kernel", "op": "Const", "attr": {"value": {"tensor": {"dtype": "DT_FLOAT", "tensorShape": {"dim": [{"size": "1"}, {"size": "1"}, {"size": "16"}, {"size": "64"}]}}}, "dtype": {"type": "DT_FLOAT"}}}, {"name": "batch_normalization_13/batchnorm/mul", "op": "Const", "attr": {"dtype": {"type": "DT_FLOAT"}, "value": {"tensor": {"dtype": "DT_FLOAT", "tensorShape": {"dim": [{"size": "64"}]}}}}}, {"name": "batch_normalization_13/batchnorm/sub", "op": "Const", "attr": {"value": {"tensor": {"dtype": "DT_FLOAT", "tensorShape": {"dim": [{"size": "64"}]}}}, "dtype": {"type": "DT_FLOAT"}}}, {"name": "conv2d_15/convolution/merged_input", "op": "Const", "attr": {"value": {"tensor": {"dtype": "DT_FLOAT", "tensorShape": {"dim": [{"size": "1"}, {"size": "1"}, {"size": "64"}, {"size": "16"}]}}}, "dtype": {"type": "DT_FLOAT"}}}, {"name": "batch_normalization_14/batchnorm/sub", "op": "Const", "attr": {"value": {"tensor": {"dtype": "DT_FLOAT", "tensorShape": {"dim": [{"size": "16"}]}}}, "dtype": {"type": "DT_FLOAT"}}}, {"name": "conv2d_16/convolution/merged_input", "op": "Const", "attr": {"dtype": {"type": "DT_FLOAT"}, "value": {"tensor": {"dtype": "DT_FLOAT", "tensorShape": {"dim": [{"size": "3"}, {"size": "3"}, {"size": "16"}, {"size": "16"}]}}}}}, {"name": "batch_normalization_15/batchnorm/sub", "op": "Const", "attr": {"value": {"tensor": {"dtype": "DT_FLOAT", "tensorShape": {"dim": [{"size": "16"}]}}}, "dtype": {"type": "DT_FLOAT"}}}, {"name": "conv2d_17/kernel", "op": "Const", "attr": {"value": {"tensor": {"dtype": "DT_FLOAT", "tensorShape": {"dim": [{"size": "1"}, {"size": "1"}, {"size": "16"}, {"size": "64"}]}}}, "dtype": {"type": "DT_FLOAT"}}}, {"name": "coordinate_channel2d_7/mul/y", "op": "Const", "attr": {"value": {"tensor": {"dtype": "DT_FLOAT", "tensorShape": {}}}, "dtype": {"type": "DT_FLOAT"}}}, {"name": "conv2d_110/kernel", "op": "Const", "attr": {"value": {"tensor": {"dtype": "DT_FLOAT", "tensorShape": {"dim": [{"size": "1"}, {"size": "1"}, {"size": "130"}, {"size": "64"}]}}}, "dtype": {"type": "DT_FLOAT"}}}, {"name": "conv2d_111/convolution/merged_input", "op": "Const", "attr": {"value": {"tensor": {"dtype": "DT_FLOAT", "tensorShape": {"dim": [{"size": "3"}, {"size": "3"}, {"size": "64"}, {"size": "64"}]}}}, "dtype": {"type": "DT_FLOAT"}}}, {"name": "batch_normalization_98/batchnorm/mul_1", "op": "Const", "attr": {"value": {"tensor": {"dtype": "DT_FLOAT", "tensorShape": {"dim": [{"size": "64"}]}}}, "dtype": {"type": "DT_FLOAT"}}}, {"name": "dense_18/kernel", "op": "Const", "attr": {"value": {"tensor": {"dtype": "DT_FLOAT", "tensorShape": {"dim": [{"size": "128"}, {"size": "64"}]}}}, "dtype": {"type": "DT_FLOAT"}}}, {"name": "dense_18/bias", "op": "Const", "attr": {"value": {"tensor": {"dtype": "DT_FLOAT", "tensorShape": {"dim": [{"size": "64"}]}}}, "dtype": {"type": "DT_FLOAT"}}}, {"name": "batch_normalization_99/batchnorm/mul", "op": "Const", "attr": {"value": {"tensor": {"dtype": "DT_FLOAT", "tensorShape": {"dim": [{"size": "64"}]}}}, "dtype": {"type": "DT_FLOAT"}}}, {"name": "batch_normalization_99/batchnorm/sub", "op": "Const", "attr": {"dtype": {"type": "DT_FLOAT"}, "value": {"tensor": {"dtype": "DT_FLOAT", "tensorShape": {"dim": [{"size": "64"}]}}}}}, {"name": "conv2d_112/convolution/merged_input", "op": "Const", "attr": {"value": {"tensor": {"dtype": "DT_FLOAT", "tensorShape": {"dim": [{"size": "1"}, {"size": "1"}, {"size": "64"}, {"size": "16"}]}}}, "dtype": {"type": "DT_FLOAT"}}}, {"name": "batch_normalization_100/batchnorm/sub", "op": "Const", "attr": {"value": {"tensor": {"dtype": "DT_FLOAT", "tensorShape": {"dim": [{"size": "16"}]}}}, "dtype": {"type": "DT_FLOAT"}}}, {"name": "conv2d_113/convolution/merged_input", "op": "Const", "attr": {"value": {"tensor": {"dtype": "DT_FLOAT", "tensorShape": {"dim": [{"size": "3"}, {"size": "3"}, {"size": "16"}, {"size": "16"}]}}}, "dtype": {"type": "DT_FLOAT"}}}, {"name": "batch_normalization_101/batchnorm/sub", "op": "Const", "attr": {"value": {"tensor": {"dtype": "DT_FLOAT", "tensorShape": {"dim": [{"size": "16"}]}}}, "dtype": {"type": "DT_FLOAT"}}}, {"name": "conv2d_114/kernel", "op": "Const", "attr": {"value": {"tensor": {"dtype": "DT_FLOAT", "tensorShape": {"dim": [{"size": "1"}, {"size": "1"}, {"size": "16"}, {"size": "64"}]}}}, "dtype": {"type": "DT_FLOAT"}}}, {"name": "batch_normalization_102/batchnorm/mul", "op": "Const", "attr": {"value": {"tensor": {"dtype": "DT_FLOAT", "tensorShape": {"dim": [{"size": "64"}]}}}, "dtype": {"type": "DT_FLOAT"}}}, {"name": "batch_normalization_102/batchnorm/sub", "op": "Const", "attr": {"value": {"tensor": {"dtype": "DT_FLOAT", "tensorShape": {"dim": [{"size": "64"}]}}}, "dtype": {"type": "DT_FLOAT"}}}, {"name": "conv2d_115/convolution/merged_input", "op": "Const", "attr": {"value": {"tensor": {"dtype": "DT_FLOAT", "tensorShape": {"dim": [{"size": "1"}, {"size": "1"}, {"size": "64"}, {"size": "16"}]}}}, "dtype": {"type": "DT_FLOAT"}}}, {"name": "batch_normalization_103/batchnorm/sub", "op": "Const", "attr": {"value": {"tensor": {"dtype": "DT_FLOAT", "tensorShape": {"dim": [{"size": "16"}]}}}, "dtype": {"type": "DT_FLOAT"}}}, {"name": "conv2d_116/convolution/merged_input", "op": "Const", "attr": {"value": {"tensor": {"dtype": "DT_FLOAT", "tensorShape": {"dim": [{"size": "3"}, {"size": "3"}, {"size": "16"}, {"size": "16"}]}}}, "dtype": {"type": "DT_FLOAT"}}}, {"name": "batch_normalization_104/batchnorm/sub", "op": "Const", "attr": {"value": {"tensor": {"dtype": "DT_FLOAT", "tensorShape": {"dim": [{"size": "16"}]}}}, "dtype": {"type": "DT_FLOAT"}}}, {"name": "conv2d_117/kernel", "op": "Const", "attr": {"value": {"tensor": {"dtype": "DT_FLOAT", "tensorShape": {"dim": [{"size": "1"}, {"size": "1"}, {"size": "16"}, {"size": "64"}]}}}, "dtype": {"type": "DT_FLOAT"}}}, {"name": "self_attention_5/gamma", "op": "Const", "attr": {"value": {"tensor": {"dtype": "DT_FLOAT", "tensorShape": {"dim": [{"size": "1"}]}}}, "dtype": {"type": "DT_FLOAT"}}}, {"name": "sub_pixel_conv2d_10/kernel", "op": "Const", "attr": {"value": {"tensor": {"dtype": "DT_FLOAT", "tensorShape": {"dim": [{"size": "1"}, {"size": "1"}, {"size": "64"}, {"size": "128"}]}}}, "dtype": {"type": "DT_FLOAT"}}}, {"name": "global_average_pooling2d_5/Mean/reduction_indices", "op": "Const", "attr": {"value": {"tensor": {"dtype": "DT_INT32", "tensorShape": {"dim": [{"size": "2"}]}}}, "dtype": {"type": "DT_INT32"}}}, {"name": "dense_20/kernel", "op": "Const", "attr": {"value": {"tensor": {"dtype": "DT_FLOAT", "tensorShape": {"dim": [{"size": "32"}, {"size": "16"}]}}}, "dtype": {"type": "DT_FLOAT"}}}, {"name": "dense_21/kernel", "op": "Const", "attr": {"dtype": {"type": "DT_FLOAT"}, "value": {"tensor": {"dtype": "DT_FLOAT", "tensorShape": {"dim": [{"size": "16"}, {"size": "32"}]}}}}}, {"name": "coordinate_channel2d_7/strided_slice_1/stack_1", "op": "Const", "attr": {"value": {"tensor": {"dtype": "DT_INT32", "tensorShape": {"dim": [{"size": "1"}]}}}, "dtype": {"type": "DT_INT32"}}}, {"name": "coordinate_channel2d_1/strided_slice_2/stack_1", "op": "Const", "attr": {"value": {"tensor": {"dtype": "DT_INT32", "tensorShape": {"dim": [{"size": "1"}]}}}, "dtype": {"type": "DT_INT32"}}}, {"name": "coordinate_channel2d_7/strided_slice/stack_1", "op": "Const", "attr": {"value": {"tensor": {"dtype": "DT_INT32", "tensorShape": {"dim": [{"size": "1"}]}}}, "dtype": {"type": "DT_INT32"}}}, {"name": "coordinate_channel2d_7/sub_1/y", "op": "Const", "attr": {"value": {"tensor": {"dtype": "DT_FLOAT", "tensorShape": {}}}, "dtype": {"type": "DT_FLOAT"}}}, {"name": "coordinate_channel2d_1/concat/axis", "op": "Const", "attr": {"value": {"tensor": {"dtype": "DT_INT32", "tensorShape": {}}}, "dtype": {"type": "DT_INT32"}}}, {"name": "conv2d_121/kernel", "op": "Const", "attr": {"value": {"tensor": {"dtype": "DT_FLOAT", "tensorShape": {"dim": [{"size": "1"}, {"size": "1"}, {"size": "66"}, {"size": "32"}]}}}, "dtype": {"type": "DT_FLOAT"}}}, {"name": "conv2d_122/convolution/merged_input", "op": "Const", "attr": {"value": {"tensor": {"dtype": "DT_FLOAT", "tensorShape": {"dim": [{"size": "3"}, {"size": "3"}, {"size": "32"}, {"size": "32"}]}}}, "dtype": {"type": "DT_FLOAT"}}}, {"name": "batch_normalization_108/batchnorm/mul_1", "op": "Const", "attr": {"value": {"tensor": {"dtype": "DT_FLOAT", "tensorShape": {"dim": [{"size": "32"}]}}}, "dtype": {"type": "DT_FLOAT"}}}, {"name": "dense_1/kernel", "op": "Const", "attr": {"value": {"tensor": {"dtype": "DT_FLOAT", "tensorShape": {"dim": [{"size": "3"}, {"size": "128"}]}}}, "dtype": {"type": "DT_FLOAT"}}}, {"name": "dense_1/bias", "op": "Const", "attr": {"value": {"tensor": {"dtype": "DT_FLOAT", "tensorShape": {"dim": [{"size": "128"}]}}}, "dtype": {"type": "DT_FLOAT"}}}, {"name": "dense_22/kernel", "op": "Const", "attr": {"value": {"tensor": {"dtype": "DT_FLOAT", "tensorShape": {"dim": [{"size": "128"}, {"size": "32"}]}}}, "dtype": {"type": "DT_FLOAT"}}}, {"name": "dense_22/bias", "op": "Const", "attr": {"dtype": {"type": "DT_FLOAT"}, "value": {"tensor": {"dtype": "DT_FLOAT", "tensorShape": {"dim": [{"size": "32"}]}}}}}, {"name": "multiply_16/ExpandDims/dim", "op": "Const", "attr": {"value": {"tensor": {"dtype": "DT_INT32", "tensorShape": {}}}, "dtype": {"type": "DT_INT32"}}}, {"name": "batch_normalization_109/batchnorm/mul", "op": "Const", "attr": {"value": {"tensor": {"dtype": "DT_FLOAT", "tensorShape": {"dim": [{"size": "32"}]}}}, "dtype": {"type": "DT_FLOAT"}}}, {"name": "batch_normalization_109/batchnorm/sub", "op": "Const", "attr": {"value": {"tensor": {"dtype": "DT_FLOAT", "tensorShape": {"dim": [{"size": "32"}]}}}, "dtype": {"type": "DT_FLOAT"}}}, {"name": "conv2d_123/convolution/merged_input", "op": "Const", "attr": {"value": {"tensor": {"dtype": "DT_FLOAT", "tensorShape": {"dim": [{"size": "1"}, {"size": "1"}, {"size": "32"}, {"size": "8"}]}}}, "dtype": {"type": "DT_FLOAT"}}}, {"name": "batch_normalization_110/batchnorm/sub", "op": "Const", "attr": {"dtype": {"type": "DT_FLOAT"}, "value": {"tensor": {"dtype": "DT_FLOAT", "tensorShape": {"dim": [{"size": "8"}]}}}}}, {"name": "conv2d_124/convolution/merged_input", "op": "Const", "attr": {"value": {"tensor": {"dtype": "DT_FLOAT", "tensorShape": {"dim": [{"size": "3"}, {"size": "3"}, {"size": "8"}, {"size": "8"}]}}}, "dtype": {"type": "DT_FLOAT"}}}, {"name": "batch_normalization_111/batchnorm/sub", "op": "Const", "attr": {"value": {"tensor": {"dtype": "DT_FLOAT", "tensorShape": {"dim": [{"size": "8"}]}}}, "dtype": {"type": "DT_FLOAT"}}}, {"name": "conv2d_125/kernel", "op": "Const", "attr": {"value": {"tensor": {"dtype": "DT_FLOAT", "tensorShape": {"dim": [{"size": "1"}, {"size": "1"}, {"size": "8"}, {"size": "32"}]}}}, "dtype": {"type": "DT_FLOAT"}}}, {"name": "batch_normalization_112/batchnorm/mul", "op": "Const", "attr": {"value": {"tensor": {"dtype": "DT_FLOAT", "tensorShape": {"dim": [{"size": "32"}]}}}, "dtype": {"type": "DT_FLOAT"}}}, {"name": "batch_normalization_112/batchnorm/sub", "op": "Const", "attr": {"value": {"tensor": {"dtype": "DT_FLOAT", "tensorShape": {"dim": [{"size": "32"}]}}}, "dtype": {"type": "DT_FLOAT"}}}, {"name": "conv2d_126/convolution/merged_input", "op": "Const", "attr": {"value": {"tensor": {"dtype": "DT_FLOAT", "tensorShape": {"dim": [{"size": "1"}, {"size": "1"}, {"size": "32"}, {"size": "8"}]}}}, "dtype": {"type": "DT_FLOAT"}}}, {"name": "batch_normalization_113/batchnorm/sub", "op": "Const", "attr": {"value": {"tensor": {"dtype": "DT_FLOAT", "tensorShape": {"dim": [{"size": "8"}]}}}, "dtype": {"type": "DT_FLOAT"}}}, {"name": "conv2d_127/convolution/merged_input", "op": "Const", "attr": {"dtype": {"type": "DT_FLOAT"}, "value": {"tensor": {"dtype": "DT_FLOAT", "tensorShape": {"dim": [{"size": "3"}, {"size": "3"}, {"size": "8"}, {"size": "8"}]}}}}}, {"name": "batch_normalization_114/batchnorm/sub", "op": "Const", "attr": {"value": {"tensor": {"dtype": "DT_FLOAT", "tensorShape": {"dim": [{"size": "8"}]}}}, "dtype": {"type": "DT_FLOAT"}}}, {"name": "conv2d_128/kernel", "op": "Const", "attr": {"value": {"tensor": {"dtype": "DT_FLOAT", "tensorShape": {"dim": [{"size": "1"}, {"size": "1"}, {"size": "8"}, {"size": "32"}]}}}, "dtype": {"type": "DT_FLOAT"}}}, {"name": "conv2d_132/kernel", "op": "Const", "attr": {"value": {"tensor": {"dtype": "DT_FLOAT", "tensorShape": {"dim": [{"size": "1"}, {"size": "1"}, {"size": "32"}, {"size": "16"}]}}}, "dtype": {"type": "DT_FLOAT"}}}, {"name": "batch_normalization_118/batchnorm/mul", "op": "Const", "attr": {"value": {"tensor": {"dtype": "DT_FLOAT", "tensorShape": {"dim": [{"size": "16"}]}}}, "dtype": {"type": "DT_FLOAT"}}}, {"name": "batch_normalization_118/batchnorm/sub", "op": "Const", "attr": {"value": {"tensor": {"dtype": "DT_FLOAT", "tensorShape": {"dim": [{"size": "16"}]}}}, "dtype": {"type": "DT_FLOAT"}}}, {"name": "conv2d_133/convolution/merged_input", "op": "Const", "attr": {"value": {"tensor": {"dtype": "DT_FLOAT", "tensorShape": {"dim": [{"size": "1"}, {"size": "1"}, {"size": "16"}, {"size": "4"}]}}}, "dtype": {"type": "DT_FLOAT"}}}, {"name": "batch_normalization_119/batchnorm/sub", "op": "Const", "attr": {"value": {"tensor": {"dtype": "DT_FLOAT", "tensorShape": {"dim": [{"size": "4"}]}}}, "dtype": {"type": "DT_FLOAT"}}}, {"name": "conv2d_134/convolution/merged_input", "op": "Const", "attr": {"value": {"tensor": {"dtype": "DT_FLOAT", "tensorShape": {"dim": [{"size": "3"}, {"size": "3"}, {"size": "4"}, {"size": "4"}]}}}, "dtype": {"type": "DT_FLOAT"}}}, {"name": "batch_normalization_120/batchnorm/sub", "op": "Const", "attr": {"dtype": {"type": "DT_FLOAT"}, "value": {"tensor": {"dtype": "DT_FLOAT", "tensorShape": {"dim": [{"size": "4"}]}}}}}, {"name": "conv2d_135/kernel", "op": "Const", "attr": {"value": {"tensor": {"dtype": "DT_FLOAT", "tensorShape": {"dim": [{"size": "1"}, {"size": "1"}, {"size": "4"}, {"size": "16"}]}}}, "dtype": {"type": "DT_FLOAT"}}}, {"name": "batch_normalization_121/batchnorm/mul", "op": "Const", "attr": {"value": {"tensor": {"dtype": "DT_FLOAT", "tensorShape": {"dim": [{"size": "16"}]}}}, "dtype": {"type": "DT_FLOAT"}}}, {"name": "batch_normalization_121/batchnorm/sub", "op": "Const", "attr": {"value": {"tensor": {"dtype": "DT_FLOAT", "tensorShape": {"dim": [{"size": "16"}]}}}, "dtype": {"type": "DT_FLOAT"}}}, {"name": "conv2d_136/convolution/merged_input", "op": "Const", "attr": {"value": {"tensor": {"dtype": "DT_FLOAT", "tensorShape": {"dim": [{"size": "1"}, {"size": "1"}, {"size": "16"}, {"size": "4"}]}}}, "dtype": {"type": "DT_FLOAT"}}}, {"name": "batch_normalization_122/batchnorm/sub", "op": "Const", "attr": {"value": {"tensor": {"dtype": "DT_FLOAT", "tensorShape": {"dim": [{"size": "4"}]}}}, "dtype": {"type": "DT_FLOAT"}}}, {"name": "conv2d_137/convolution/merged_input", "op": "Const", "attr": {"value": {"tensor": {"dtype": "DT_FLOAT", "tensorShape": {"dim": [{"size": "3"}, {"size": "3"}, {"size": "4"}, {"size": "4"}]}}}, "dtype": {"type": "DT_FLOAT"}}}, {"name": "batch_normalization_123/batchnorm/sub", "op": "Const", "attr": {"value": {"tensor": {"dtype": "DT_FLOAT", "tensorShape": {"dim": [{"size": "4"}]}}}, "dtype": {"type": "DT_FLOAT"}}}, {"name": "conv2d_138/kernel", "op": "Const", "attr": {"value": {"tensor": {"dtype": "DT_FLOAT", "tensorShape": {"dim": [{"size": "1"}, {"size": "1"}, {"size": "4"}, {"size": "16"}]}}}, "dtype": {"type": "DT_FLOAT"}}}, {"name": "conv2d_139/kernel", "op": "Const", "attr": {"value": {"tensor": {"dtype": "DT_FLOAT", "tensorShape": {"dim": [{"size": "1"}, {"size": "1"}, {"size": "16"}, {"size": "1"}]}}}, "dtype": {"type": "DT_FLOAT"}}}, {"name": "conv2d_139/bias", "op": "Const", "attr": {"value": {"tensor": {"dtype": "DT_FLOAT", "tensorShape": {"dim": [{"size": "1"}]}}}, "dtype": {"type": "DT_FLOAT"}}}, {"name": "input_1", "op": "Placeholder", "attr": {"shape": {"shape": {"dim": [{"size": "-1"}, {"size": "3"}]}}, "dtype": {"type": "DT_FLOAT"}}}, {"name": "input_2", "op": "Placeholder", "attr": {"shape": {"shape": {"dim": [{"size": "-1"}, {"size": "-1"}, {"size": "-1"}, {"size": "1"}]}}, "dtype": {"type": "DT_FLOAT"}}}, {"name": "dense_1/BiasAdd", "op": "_FusedMatMul", "input": ["input_1", "dense_1/kernel", "dense_1/bias"], "device": "/device:CPU:0", "attr": {"num_args": {"i": "1"}, "epsilon": {"f": 0.0}, "fused_ops": {"list": {"s": ["Qmlhc0FkZA=="]}}, "transpose_a": {"b": false}, "transpose_b": {"b": false}, "T": {"type": "DT_FLOAT"}}}, {"name": "coordinate_channel2d_1/Shape", "op": "Shape", "input": ["input_2"], "attr": {"T": {"type": "DT_FLOAT"}, "out_type": {"type": "DT_INT32"}}}, {"name": "dense_1/Tanh", "op": "Tanh", "input": ["dense_1/BiasAdd"], "attr": {"T": {"type": "DT_FLOAT"}}}, {"name": "coordinate_channel2d_1/strided_slice", "op": "StridedSlice", "input": ["coordinate_channel2d_1/Shape", "coordinate_channel2d_7/strided_slice/stack", "coordinate_channel2d_7/strided_slice/stack_1", "coordinate_channel2d_7/strided_slice/stack_1"], "attr": {"new_axis_mask": {"i": "0"}, "end_mask": {"i": "0"}, "Index": {"type": "DT_INT32"}, "T": {"type": "DT_INT32"}, "shrink_axis_mask": {"i": "1"}, "begin_mask": {"i": "0"}, "ellipsis_mask": {"i": "0"}}}, {"name": "coordinate_channel2d_1/strided_slice_1", "op": "StridedSlice", "input": ["coordinate_channel2d_1/Shape", "coordinate_channel2d_7/strided_slice/stack_1", "coordinate_channel2d_7/strided_slice_1/stack_1", "coordinate_channel2d_7/strided_slice/stack_1"], "attr": {"T": {"type": "DT_INT32"}, "Index": {"type": "DT_INT32"}, "shrink_axis_mask": {"i": "1"}, "begin_mask": {"i": "0"}, "ellipsis_mask": {"i": "0"}, "new_axis_mask": {"i": "0"}, "end_mask": {"i": "0"}}}, {"name": "coordinate_channel2d_1/strided_slice_2", "op": "StridedSlice", "input": ["coordinate_channel2d_1/Shape", "coordinate_channel2d_7/strided_slice_1/stack_1", "coordinate_channel2d_1/strided_slice_2/stack_1", "coordinate_channel2d_7/strided_slice/stack_1"], "attr": {"Index": {"type": "DT_INT32"}, "T": {"type": "DT_INT32"}, "shrink_axis_mask": {"i": "1"}, "begin_mask": {"i": "0"}, "ellipsis_mask": {"i": "0"}, "new_axis_mask": {"i": "0"}, "end_mask": {"i": "0"}}}, {"name": "dense_23/BiasAdd", "op": "_FusedMatMul", "input": ["dense_1/Tanh", "dense_23/kernel", "dense_23/bias"], "device": "/device:CPU:0", "attr": {"T": {"type": "DT_FLOAT"}, "num_args": {"i": "1"}, "epsilon": {"f": 0.0}, "fused_ops": {"list": {"s": ["Qmlhc0FkZA=="]}}, "transpose_a": {"b": false}, "transpose_b": {"b": false}}}, {"name": "dense_19/BiasAdd", "op": "_FusedMatMul", "input": ["dense_1/Tanh", "dense_19/kernel", "dense_19/bias"], "device": "/device:CPU:0", "attr": {"num_args": {"i": "1"}, "epsilon": {"f": 0.0}, "fused_ops": {"list": {"s": ["Qmlhc0FkZA=="]}}, "transpose_a": {"b": false}, "transpose_b": {"b": false}, "T": {"type": "DT_FLOAT"}}}, {"name": "dense_15/BiasAdd", "op": "_FusedMatMul", "input": ["dense_1/Tanh", "dense_15/kernel", "dense_15/bias"], "device": "/device:CPU:0", "attr": {"fused_ops": {"list": {"s": ["Qmlhc0FkZA=="]}}, "transpose_a": {"b": false}, "transpose_b": {"b": false}, "T": {"type": "DT_FLOAT"}, "num_args": {"i": "1"}, "epsilon": {"f": 0.0}}}, {"name": "dense_11/BiasAdd", "op": "_FusedMatMul", "input": ["dense_1/Tanh", "dense_11/kernel", "dense_11/bias"], "device": "/device:CPU:0", "attr": {"transpose_b": {"b": false}, "T": {"type": "DT_FLOAT"}, "num_args": {"i": "1"}, "epsilon": {"f": 0.0}, "fused_ops": {"list": {"s": ["Qmlhc0FkZA=="]}}, "transpose_a": {"b": false}}}, {"name": "dense_7/BiasAdd", "op": "_FusedMatMul", "input": ["dense_1/Tanh", "dense_7/kernel", "dense_7/bias"], "device": "/device:CPU:0", "attr": {"transpose_b": {"b": false}, "T": {"type": "DT_FLOAT"}, "num_args": {"i": "1"}, "epsilon": {"f": 0.0}, "fused_ops": {"list": {"s": ["Qmlhc0FkZA=="]}}, "transpose_a": {"b": false}}}, {"name": "dense_3/BiasAdd", "op": "_FusedMatMul", "input": ["dense_1/Tanh", "dense_3/kernel", "dense_3/bias"], "device": "/device:CPU:0", "attr": {"num_args": {"i": "1"}, "epsilon": {"f": 0.0}, "fused_ops": {"list": {"s": ["Qmlhc0FkZA=="]}}, "transpose_a": {"b": false}, "transpose_b": {"b": false}, "T": {"type": "DT_FLOAT"}}}, {"name": "dense_2/BiasAdd", "op": "_FusedMatMul", "input": ["dense_1/Tanh", "dense_2/kernel", "dense_2/bias"], "device": "/device:CPU:0", "attr": {"num_args": {"i": "1"}, "epsilon": {"f": 0.0}, "fused_ops": {"list": {"s": ["Qmlhc0FkZA=="]}}, "transpose_a": {"b": false}, "transpose_b": {"b": false}, "T": {"type": "DT_FLOAT"}}}, {"name": "dense_6/BiasAdd", "op": "_FusedMatMul", "input": ["dense_1/Tanh", "dense_6/kernel", "dense_6/bias"], "device": "/device:CPU:0", "attr": {"transpose_a": {"b": false}, "transpose_b": {"b": false}, "T": {"type": "DT_FLOAT"}, "num_args": {"i": "1"}, "epsilon": {"f": 0.0}, "fused_ops": {"list": {"s": ["Qmlhc0FkZA=="]}}}}, {"name": "dense_10/BiasAdd", "op": "_FusedMatMul", "input": ["dense_1/Tanh", "dense_10/kernel", "dense_10/bias"], "device": "/device:CPU:0", "attr": {"T": {"type": "DT_FLOAT"}, "num_args": {"i": "1"}, "epsilon": {"f": 0.0}, "fused_ops": {"list": {"s": ["Qmlhc0FkZA=="]}}, "transpose_a": {"b": false}, "transpose_b": {"b": false}}}, {"name": "dense_14/BiasAdd", "op": "_FusedMatMul", "input": ["dense_1/Tanh", "dense_14/kernel", "dense_14/bias"], "device": "/device:CPU:0", "attr": {"T": {"type": "DT_FLOAT"}, "num_args": {"i": "1"}, "epsilon": {"f": 0.0}, "fused_ops": {"list": {"s": ["Qmlhc0FkZA=="]}}, "transpose_a": {"b": false}, "transpose_b": {"b": false}}}, {"name": "dense_18/BiasAdd", "op": "_FusedMatMul", "input": ["dense_1/Tanh", "dense_18/kernel", "dense_18/bias"], "device": "/device:CPU:0", "attr": {"T": {"type": "DT_FLOAT"}, "num_args": {"i": "1"}, "epsilon": {"f": 0.0}, "fused_ops": {"list": {"s": ["Qmlhc0FkZA=="]}}, "transpose_a": {"b": false}, "transpose_b": {"b": false}}}, {"name": "dense_22/BiasAdd", "op": "_FusedMatMul", "input": ["dense_1/Tanh", "dense_22/kernel", "dense_22/bias"], "device": "/device:CPU:0", "attr": {"T": {"type": "DT_FLOAT"}, "num_args": {"i": "1"}, "epsilon": {"f": 0.0}, "fused_ops": {"list": {"s": ["Qmlhc0FkZA=="]}}, "transpose_a": {"b": false}, "transpose_b": {"b": false}}}, {"name": "coordinate_channel2d_1/stack_1", "op": "Pack", "input": ["coordinate_channel2d_1/strided_slice", "multiply_16/ExpandDims/dim"], "attr": {"T": {"type": "DT_INT32"}, "axis": {"i": "0"}, "N": {"i": "2"}}}, {"name": "coordinate_channel2d_1/arange", "op": "Range", "input": ["coordinate_channel2d_7/arange/start", "coordinate_channel2d_1/strided_slice_1", "multiply_16/ExpandDims/dim"], "attr": {"Tidx": {"type": "DT_INT32"}}}, {"name": "coordinate_channel2d_1/sub", "op": "Sub", "input": ["coordinate_channel2d_1/strided_slice_1", "multiply_16/ExpandDims/dim"], "attr": {"T": {"type": "DT_INT32"}}}, {"name": "coordinate_channel2d_1/stack_2", "op": "Pack", "input": ["coordinate_channel2d_1/strided_slice", "coordinate_channel2d_1/strided_slice_1"], "attr": {"N": {"i": "2"}, "T": {"type": "DT_INT32"}, "axis": {"i": "0"}}}, {"name": "coordinate_channel2d_1/stack", "op": "Pack", "input": ["coordinate_channel2d_1/strided_slice", "coordinate_channel2d_1/strided_slice_2"], "attr": {"T": {"type": "DT_INT32"}, "axis": {"i": "0"}, "N": {"i": "2"}}}, {"name": "coordinate_channel2d_1/arange_1", "op": "Range", "input": ["coordinate_channel2d_7/arange/start", "coordinate_channel2d_1/strided_slice_2", "multiply_16/ExpandDims/dim"], "attr": {"Tidx": {"type": "DT_INT32"}}}, {"name": "coordinate_channel2d_1/sub_2", "op": "Sub", "input": ["coordinate_channel2d_1/strided_slice_2", "multiply_16/ExpandDims/dim"], "attr": {"T": {"type": "DT_INT32"}}}, {"name": "add_50/ExpandDims", "op": "ExpandDims", "input": ["dense_23/BiasAdd", "multiply_16/ExpandDims/dim"], "attr": {"Tdim": {"type": "DT_INT32"}, "T": {"type": "DT_FLOAT"}}}, {"name": "add_44/ExpandDims", "op": "ExpandDims", "input": ["dense_19/BiasAdd", "multiply_16/ExpandDims/dim"], "attr": {"Tdim": {"type": "DT_INT32"}, "T": {"type": "DT_FLOAT"}}}, {"name": "add_38/ExpandDims", "op": "ExpandDims", "input": ["dense_15/BiasAdd", "multiply_16/ExpandDims/dim"], "attr": {"Tdim": {"type": "DT_INT32"}, "T": {"type": "DT_FLOAT"}}}, {"name": "add_32/ExpandDims", "op": "ExpandDims", "input": ["dense_11/BiasAdd", "multiply_16/ExpandDims/dim"], "attr": {"T": {"type": "DT_FLOAT"}, "Tdim": {"type": "DT_INT32"}}}, {"name": "add_26/ExpandDims", "op": "ExpandDims", "input": ["dense_7/BiasAdd", "multiply_16/ExpandDims/dim"], "attr": {"Tdim": {"type": "DT_INT32"}, "T": {"type": "DT_FLOAT"}}}, {"name": "add_18/ExpandDims", "op": "ExpandDims", "input": ["dense_3/BiasAdd", "multiply_16/ExpandDims/dim"], "attr": {"T": {"type": "DT_FLOAT"}, "Tdim": {"type": "DT_INT32"}}}, {"name": "multiply_1/ExpandDims", "op": "ExpandDims", "input": ["dense_2/BiasAdd", "multiply_16/ExpandDims/dim"], "attr": {"Tdim": {"type": "DT_INT32"}, "T": {"type": "DT_FLOAT"}}}, {"name": "multiply_4/ExpandDims", "op": "ExpandDims", "input": ["dense_6/BiasAdd", "multiply_16/ExpandDims/dim"], "attr": {"Tdim": {"type": "DT_INT32"}, "T": {"type": "DT_FLOAT"}}}, {"name": "multiply_7/ExpandDims", "op": "ExpandDims", "input": ["dense_10/BiasAdd", "multiply_16/ExpandDims/dim"], "attr": {"Tdim": {"type": "DT_INT32"}, "T": {"type": "DT_FLOAT"}}}, {"name": "multiply_10/ExpandDims", "op": "ExpandDims", "input": ["dense_14/BiasAdd", "multiply_16/ExpandDims/dim"], "attr": {"Tdim": {"type": "DT_INT32"}, "T": {"type": "DT_FLOAT"}}}, {"name": "multiply_13/ExpandDims", "op": "ExpandDims", "input": ["dense_18/BiasAdd", "multiply_16/ExpandDims/dim"], "attr": {"Tdim": {"type": "DT_INT32"}, "T": {"type": "DT_FLOAT"}}}, {"name": "multiply_16/ExpandDims", "op": "ExpandDims", "input": ["dense_22/BiasAdd", "multiply_16/ExpandDims/dim"], "attr": {"T": {"type": "DT_FLOAT"}, "Tdim": {"type": "DT_INT32"}}}, {"name": "coordinate_channel2d_1/ExpandDims_1", "op": "ExpandDims", "input": ["coordinate_channel2d_1/arange", "coordinate_channel2d_7/arange/start"], "attr": {"Tdim": {"type": "DT_INT32"}, "T": {"type": "DT_INT32"}}}, {"name": "coordinate_channel2d_1/Cast_1", "op": "Cast", "input": ["coordinate_channel2d_1/sub"], "attr": {"SrcT": {"type": "DT_INT32"}, "Truncate": {"b": false}, "DstT": {"type": "DT_FLOAT"}}}, {"name": "coordinate_channel2d_1/ones_1", "op": "Fill", "input": ["coordinate_channel2d_1/stack_2", "multiply_16/ExpandDims/dim"], "attr": {"T": {"type": "DT_INT32"}, "index_type": {"type": "DT_INT32"}}}, {"name": "coordinate_channel2d_1/ones", "op": "Fill", "input": ["coordinate_channel2d_1/stack", "multiply_16/ExpandDims/dim"], "attr": {"T": {"type": "DT_INT32"}, "index_type": {"type": "DT_INT32"}}}, {"name": "coordinate_channel2d_1/ExpandDims_5", "op": "ExpandDims", "input": ["coordinate_channel2d_1/arange_1", "coordinate_channel2d_7/arange/start"], "attr": {"Tdim": {"type": "DT_INT32"}, "T": {"type": "DT_INT32"}}}, {"name": "coordinate_channel2d_1/Cast_3", "op": "Cast", "input": ["coordinate_channel2d_1/sub_2"], "attr": {"SrcT": {"type": "DT_INT32"}, "Truncate": {"b": false}, "DstT": {"type": "DT_FLOAT"}}}, {"name": "add_50/ExpandDims_1", "op": "ExpandDims", "input": ["add_50/ExpandDims", "multiply_16/ExpandDims/dim"], "attr": {"Tdim": {"type": "DT_INT32"}, "T": {"type": "DT_FLOAT"}}}, {"name": "add_44/ExpandDims_1", "op": "ExpandDims", "input": ["add_44/ExpandDims", "multiply_16/ExpandDims/dim"], "attr": {"Tdim": {"type": "DT_INT32"}, "T": {"type": "DT_FLOAT"}}}, {"name": "add_38/ExpandDims_1", "op": "ExpandDims", "input": ["add_38/ExpandDims", "multiply_16/ExpandDims/dim"], "attr": {"T": {"type": "DT_FLOAT"}, "Tdim": {"type": "DT_INT32"}}}, {"name": "add_32/ExpandDims_1", "op": "ExpandDims", "input": ["add_32/ExpandDims", "multiply_16/ExpandDims/dim"], "attr": {"Tdim": {"type": "DT_INT32"}, "T": {"type": "DT_FLOAT"}}}, {"name": "add_26/ExpandDims_1", "op": "ExpandDims", "input": ["add_26/ExpandDims", "multiply_16/ExpandDims/dim"], "attr": {"Tdim": {"type": "DT_INT32"}, "T": {"type": "DT_FLOAT"}}}, {"name": "add_18/ExpandDims_1", "op": "ExpandDims", "input": ["add_18/ExpandDims", "multiply_16/ExpandDims/dim"], "attr": {"T": {"type": "DT_FLOAT"}, "Tdim": {"type": "DT_INT32"}}}, {"name": "multiply_1/ExpandDims_1", "op": "ExpandDims", "input": ["multiply_1/ExpandDims", "multiply_16/ExpandDims/dim"], "attr": {"Tdim": {"type": "DT_INT32"}, "T": {"type": "DT_FLOAT"}}}, {"name": "multiply_4/ExpandDims_1", "op": "ExpandDims", "input": ["multiply_4/ExpandDims", "multiply_16/ExpandDims/dim"], "attr": {"T": {"type": "DT_FLOAT"}, "Tdim": {"type": "DT_INT32"}}}, {"name": "multiply_7/ExpandDims_1", "op": "ExpandDims", "input": ["multiply_7/ExpandDims", "multiply_16/ExpandDims/dim"], "attr": {"Tdim": {"type": "DT_INT32"}, "T": {"type": "DT_FLOAT"}}}, {"name": "multiply_10/ExpandDims_1", "op": "ExpandDims", "input": ["multiply_10/ExpandDims", "multiply_16/ExpandDims/dim"], "attr": {"Tdim": {"type": "DT_INT32"}, "T": {"type": "DT_FLOAT"}}}, {"name": "multiply_13/ExpandDims_1", "op": "ExpandDims", "input": ["multiply_13/ExpandDims", "multiply_16/ExpandDims/dim"], "attr": {"T": {"type": "DT_FLOAT"}, "Tdim": {"type": "DT_INT32"}}}, {"name": "multiply_16/ExpandDims_1", "op": "ExpandDims", "input": ["multiply_16/ExpandDims", "multiply_16/ExpandDims/dim"], "attr": {"Tdim": {"type": "DT_INT32"}, "T": {"type": "DT_FLOAT"}}}, {"name": "coordinate_channel2d_1/Tile", "op": "Tile", "input": ["coordinate_channel2d_1/ExpandDims_1", "coordinate_channel2d_1/stack_1"], "attr": {"T": {"type": "DT_INT32"}, "Tmultiples": {"type": "DT_INT32"}}}, {"name": "coordinate_channel2d_1/ExpandDims_4", "op": "ExpandDims", "input": ["coordinate_channel2d_1/ones_1", "multiply_16/ExpandDims/dim"], "attr": {"Tdim": {"type": "DT_INT32"}, "T": {"type": "DT_INT32"}}}, {"name": "coordinate_channel2d_1/ExpandDims", "op": "ExpandDims", "input": ["coordinate_channel2d_1/ones", "coordinate_channel2d_7/ExpandDims/dim"], "attr": {"Tdim": {"type": "DT_INT32"}, "T": {"type": "DT_INT32"}}}, {"name": "coordinate_channel2d_1/Tile_1", "op": "Tile", "input": ["coordinate_channel2d_1/ExpandDims_5", "coordinate_channel2d_1/stack_1"], "attr": {"Tmultiples": {"type": "DT_INT32"}, "T": {"type": "DT_INT32"}}}, {"name": "coordinate_channel2d_1/ExpandDims_2", "op": "ExpandDims", "input": ["coordinate_channel2d_1/Tile", "multiply_16/ExpandDims/dim"], "attr": {"Tdim": {"type": "DT_INT32"}, "T": {"type": "DT_INT32"}}}, {"name": "coordinate_channel2d_1/ExpandDims_6", "op": "ExpandDims", "input": ["coordinate_channel2d_1/Tile_1", "coordinate_channel2d_7/ExpandDims/dim"], "attr": {"T": {"type": "DT_INT32"}, "Tdim": {"type": "DT_INT32"}}}, {"name": "coordinate_channel2d_1/MatMul", "op": "BatchMatMul", "input": ["coordinate_channel2d_1/ExpandDims", "coordinate_channel2d_1/ExpandDims_2"], "attr": {"adj_x": {"b": false}, "adj_y": {"b": false}, "T": {"type": "DT_INT32"}}}, {"name": "coordinate_channel2d_1/MatMul_1", "op": "BatchMatMul", "input": ["coordinate_channel2d_1/ExpandDims_6", "coordinate_channel2d_1/ExpandDims_4"], "attr": {"adj_x": {"b": false}, "adj_y": {"b": false}, "T": {"type": "DT_INT32"}}}, {"name": "coordinate_channel2d_1/ExpandDims_3", "op": "ExpandDims", "input": ["coordinate_channel2d_1/MatMul", "coordinate_channel2d_7/ExpandDims/dim"], "attr": {"Tdim": {"type": "DT_INT32"}, "T": {"type": "DT_INT32"}}}, {"name": "coordinate_channel2d_1/ExpandDims_7", "op": "ExpandDims", "input": ["coordinate_channel2d_1/MatMul_1", "coordinate_channel2d_7/ExpandDims/dim"], "attr": {"Tdim": {"type": "DT_INT32"}, "T": {"type": "DT_INT32"}}}, {"name": "coordinate_channel2d_1/transpose", "op": "Transpose", "input": ["coordinate_channel2d_1/ExpandDims_3", "coordinate_channel2d_7/transpose/perm"], "attr": {"T": {"type": "DT_INT32"}, "Tperm": {"type": "DT_INT32"}}}, {"name": "coordinate_channel2d_1/transpose_1", "op": "Transpose", "input": ["coordinate_channel2d_1/ExpandDims_7", "coordinate_channel2d_7/transpose/perm"], "attr": {"Tperm": {"type": "DT_INT32"}, "T": {"type": "DT_INT32"}}}, {"name": "coordinate_channel2d_1/Cast", "op": "Cast", "input": ["coordinate_channel2d_1/transpose"], "attr": {"DstT": {"type": "DT_FLOAT"}, "SrcT": {"type": "DT_INT32"}, "Truncate": {"b": false}}}, {"name": "coordinate_channel2d_1/Cast_2", "op": "Cast", "input": ["coordinate_channel2d_1/transpose_1"], "attr": {"SrcT": {"type": "DT_INT32"}, "Truncate": {"b": false}, "DstT": {"type": "DT_FLOAT"}}}, {"name": "coordinate_channel2d_1/truediv", "op": "RealDiv", "input": ["coordinate_channel2d_1/Cast", "coordinate_channel2d_1/Cast_1"], "attr": {"T": {"type": "DT_FLOAT"}}}, {"name": "coordinate_channel2d_1/truediv_1", "op": "RealDiv", "input": ["coordinate_channel2d_1/Cast_2", "coordinate_channel2d_1/Cast_3"], "attr": {"T": {"type": "DT_FLOAT"}}}, {"name": "coordinate_channel2d_1/mul", "op": "Mul", "input": ["coordinate_channel2d_1/truediv", "coordinate_channel2d_7/mul/y"], "attr": {"T": {"type": "DT_FLOAT"}}}, {"name": "coordinate_channel2d_1/mul_1", "op": "Mul", "input": ["coordinate_channel2d_1/truediv_1", "coordinate_channel2d_7/mul/y"], "attr": {"T": {"type": "DT_FLOAT"}}}, {"name": "coordinate_channel2d_1/sub_1", "op": "Sub", "input": ["coordinate_channel2d_1/mul", "coordinate_channel2d_7/sub_1/y"], "attr": {"T": {"type": "DT_FLOAT"}}}, {"name": "coordinate_channel2d_1/sub_3", "op": "Sub", "input": ["coordinate_channel2d_1/mul_1", "coordinate_channel2d_7/sub_1/y"], "attr": {"T": {"type": "DT_FLOAT"}}}, {"name": "coordinate_channel2d_1/concat", "op": "ConcatV2", "input": ["input_2", "coordinate_channel2d_1/sub_1", "coordinate_channel2d_1/sub_3", "coordinate_channel2d_1/concat/axis"], "attr": {"N": {"i": "3"}, "Tidx": {"type": "DT_INT32"}, "T": {"type": "DT_FLOAT"}}}, {"name": "batch_normalization_1/batchnorm/mul_1", "op": "Mul", "input": ["batch_normalization_1/batchnorm/mul", "coordinate_channel2d_1/concat"], "attr": {"T": {"type": "DT_FLOAT"}}}, {"name": "conv2d_4/convolution", "op": "Conv2D", "input": ["coordinate_channel2d_1/concat", "conv2d_4/kernel"], "device": "/device:CPU:0", "attr": {"padding": {"s": "VkFMSUQ="}, "dilations": {"list": {"i": ["1", "1", "1", "1"]}}, "T": {"type": "DT_FLOAT"}, "strides": {"list": {"i": ["1", "1", "1", "1"]}}, "data_format": {"s": "TkhXQw=="}, "explicit_paddings": {"list": {}}, "use_cudnn_on_gpu": {"b": true}}}, {"name": "batch_normalization_1/batchnorm/add_1", "op": "Add", "input": ["batch_normalization_1/batchnorm/mul_1", "batch_normalization_1/batchnorm/sub"], "attr": {"T": {"type": "DT_FLOAT"}}}, {"name": "leaky_re_lu_1/LeakyRelu/mul", "op": "Mul", "input": ["batch_normalization_1/batchnorm/add_1", "leaky_re_lu_129/LeakyRelu/alpha"], "attr": {"T": {"type": "DT_FLOAT"}}}, {"name": "leaky_re_lu_1/LeakyRelu/Maximum", "op": "Maximum", "input": ["leaky_re_lu_1/LeakyRelu/mul", "batch_normalization_1/batchnorm/add_1"], "attr": {"T": {"type": "DT_FLOAT"}}}, {"name": "batch_normalization_2/batchnorm/mul_1", "op": "Conv2D", "input": ["leaky_re_lu_1/LeakyRelu/Maximum", "conv2d_1/convolution/merged_input"], "device": "/device:CPU:0", "attr": {"dilations": {"list": {"i": ["1", "1", "1", "1"]}}, "T": {"type": "DT_FLOAT"}, "data_format": {"s": "TkhXQw=="}, "strides": {"list": {"i": ["1", "1", "1", "1"]}}, "use_cudnn_on_gpu": {"b": true}, "explicit_paddings": {"list": {}}, "padding": {"s": "VkFMSUQ="}}}, {"name": "batch_normalization_2/batchnorm/add_1", "op": "Add", "input": ["batch_normalization_2/batchnorm/mul_1", "batch_normalization_2/batchnorm/sub"], "attr": {"T": {"type": "DT_FLOAT"}}}, {"name": "leaky_re_lu_2/LeakyRelu/mul", "op": "Mul", "input": ["batch_normalization_2/batchnorm/add_1", "leaky_re_lu_129/LeakyRelu/alpha"], "attr": {"T": {"type": "DT_FLOAT"}}}, {"name": "leaky_re_lu_2/LeakyRelu/Maximum", "op": "Maximum", "input": ["leaky_re_lu_2/LeakyRelu/mul", "batch_normalization_2/batchnorm/add_1"], "attr": {"T": {"type": "DT_FLOAT"}}}, {"name": "batch_normalization_3/batchnorm/mul_1", "op": "Conv2D", "input": ["leaky_re_lu_2/LeakyRelu/Maximum", "conv2d_2/convolution/merged_input"], "device": "/device:CPU:0", "attr": {"data_format": {"s": "TkhXQw=="}, "strides": {"list": {"i": ["1", "1", "1", "1"]}}, "explicit_paddings": {"list": {}}, "use_cudnn_on_gpu": {"b": true}, "padding": {"s": "U0FNRQ=="}, "dilations": {"list": {"i": ["1", "1", "1", "1"]}}, "T": {"type": "DT_FLOAT"}}}, {"name": "batch_normalization_3/batchnorm/add_1", "op": "Add", "input": ["batch_normalization_3/batchnorm/mul_1", "batch_normalization_3/batchnorm/sub"], "attr": {"T": {"type": "DT_FLOAT"}}}, {"name": "leaky_re_lu_3/LeakyRelu/mul", "op": "Mul", "input": ["batch_normalization_3/batchnorm/add_1", "leaky_re_lu_129/LeakyRelu/alpha"], "attr": {"T": {"type": "DT_FLOAT"}}}, {"name": "leaky_re_lu_3/LeakyRelu/Maximum", "op": "Maximum", "input": ["leaky_re_lu_3/LeakyRelu/mul", "batch_normalization_3/batchnorm/add_1"], "attr": {"T": {"type": "DT_FLOAT"}}}, {"name": "conv2d_3/convolution", "op": "Conv2D", "input": ["leaky_re_lu_3/LeakyRelu/Maximum", "conv2d_3/kernel"], "device": "/device:CPU:0", "attr": {"dilations": {"list": {"i": ["1", "1", "1", "1"]}}, "T": {"type": "DT_FLOAT"}, "data_format": {"s": "TkhXQw=="}, "strides": {"list": {"i": ["1", "1", "1", "1"]}}, "use_cudnn_on_gpu": {"b": true}, "explicit_paddings": {"list": {}}, "padding": {"s": "VkFMSUQ="}}}, {"name": "add_1/add", "op": "Add", "input": ["conv2d_3/convolution", "conv2d_4/convolution"], "attr": {"T": {"type": "DT_FLOAT"}}}, {"name": "batch_normalization_4/batchnorm/mul_1", "op": "Mul", "input": ["add_1/add", "batch_normalization_4/batchnorm/mul"], "attr": {"T": {"type": "DT_FLOAT"}}}, {"name": "batch_normalization_4/batchnorm/add_1", "op": "Add", "input": ["batch_normalization_4/batchnorm/mul_1", "batch_normalization_4/batchnorm/sub"], "attr": {"T": {"type": "DT_FLOAT"}}}, {"name": "leaky_re_lu_4/LeakyRelu/mul", "op": "Mul", "input": ["batch_normalization_4/batchnorm/add_1", "leaky_re_lu_129/LeakyRelu/alpha"], "attr": {"T": {"type": "DT_FLOAT"}}}, {"name": "leaky_re_lu_4/LeakyRelu/Maximum", "op": "Maximum", "input": ["leaky_re_lu_4/LeakyRelu/mul", "batch_normalization_4/batchnorm/add_1"], "attr": {"T": {"type": "DT_FLOAT"}}}, {"name": "batch_normalization_5/batchnorm/mul_1", "op": "Conv2D", "input": ["leaky_re_lu_4/LeakyRelu/Maximum", "conv2d_5/convolution/merged_input"], "device": "/device:CPU:0", "attr": {"explicit_paddings": {"list": {}}, "use_cudnn_on_gpu": {"b": true}, "padding": {"s": "VkFMSUQ="}, "dilations": {"list": {"i": ["1", "1", "1", "1"]}}, "T": {"type": "DT_FLOAT"}, "data_format": {"s": "TkhXQw=="}, "strides": {"list": {"i": ["1", "1", "1", "1"]}}}}, {"name": "batch_normalization_5/batchnorm/add_1", "op": "Add", "input": ["batch_normalization_5/batchnorm/mul_1", "batch_normalization_5/batchnorm/sub"], "attr": {"T": {"type": "DT_FLOAT"}}}, {"name": "leaky_re_lu_5/LeakyRelu/mul", "op": "Mul", "input": ["batch_normalization_5/batchnorm/add_1", "leaky_re_lu_129/LeakyRelu/alpha"], "attr": {"T": {"type": "DT_FLOAT"}}}, {"name": "leaky_re_lu_5/LeakyRelu/Maximum", "op": "Maximum", "input": ["leaky_re_lu_5/LeakyRelu/mul", "batch_normalization_5/batchnorm/add_1"], "attr": {"T": {"type": "DT_FLOAT"}}}, {"name": "batch_normalization_6/batchnorm/mul_1", "op": "Conv2D", "input": ["leaky_re_lu_5/LeakyRelu/Maximum", "conv2d_6/convolution/merged_input"], "device": "/device:CPU:0", "attr": {"dilations": {"list": {"i": ["1", "1", "1", "1"]}}, "T": {"type": "DT_FLOAT"}, "data_format": {"s": "TkhXQw=="}, "strides": {"list": {"i": ["1", "1", "1", "1"]}}, "explicit_paddings": {"list": {}}, "use_cudnn_on_gpu": {"b": true}, "padding": {"s": "U0FNRQ=="}}}, {"name": "batch_normalization_6/batchnorm/add_1", "op": "Add", "input": ["batch_normalization_6/batchnorm/mul_1", "batch_normalization_6/batchnorm/sub"], "attr": {"T": {"type": "DT_FLOAT"}}}, {"name": "leaky_re_lu_6/LeakyRelu/mul", "op": "Mul", "input": ["batch_normalization_6/batchnorm/add_1", "leaky_re_lu_129/LeakyRelu/alpha"], "attr": {"T": {"type": "DT_FLOAT"}}}, {"name": "leaky_re_lu_6/LeakyRelu/Maximum", "op": "Maximum", "input": ["leaky_re_lu_6/LeakyRelu/mul", "batch_normalization_6/batchnorm/add_1"], "attr": {"T": {"type": "DT_FLOAT"}}}, {"name": "conv2d_7/convolution", "op": "Conv2D", "input": ["leaky_re_lu_6/LeakyRelu/Maximum", "conv2d_7/kernel"], "device": "/device:CPU:0", "attr": {"dilations": {"list": {"i": ["1", "1", "1", "1"]}}, "T": {"type": "DT_FLOAT"}, "strides": {"list": {"i": ["1", "1", "1", "1"]}}, "data_format": {"s": "TkhXQw=="}, "use_cudnn_on_gpu": {"b": true}, "explicit_paddings": {"list": {}}, "padding": {"s": "VkFMSUQ="}}}, {"name": "add_2/add", "op": "Add", "input": ["add_1/add", "conv2d_7/convolution"], "attr": {"T": {"type": "DT_FLOAT"}}}, {"name": "batch_normalization_7/batchnorm/mul_1", "op": "Mul", "input": ["add_2/add", "batch_normalization_7/batchnorm/mul"], "attr": {"T": {"type": "DT_FLOAT"}}}, {"name": "conv2d_11/convolution", "op": "Conv2D", "input": ["add_2/add", "conv2d_11/kernel"], "device": "/device:CPU:0", "attr": {"T": {"type": "DT_FLOAT"}, "strides": {"list": {"i": ["1", "2", "2", "1"]}}, "data_format": {"s": "TkhXQw=="}, "explicit_paddings": {"list": {}}, "use_cudnn_on_gpu": {"b": true}, "padding": {"s": "VkFMSUQ="}, "dilations": {"list": {"i": ["1", "1", "1", "1"]}}}}, {"name": "batch_normalization_7/batchnorm/add_1", "op": "Add", "input": ["batch_normalization_7/batchnorm/mul_1", "batch_normalization_7/batchnorm/sub"], "attr": {"T": {"type": "DT_FLOAT"}}}, {"name": "leaky_re_lu_7/LeakyRelu/mul", "op": "Mul", "input": ["batch_normalization_7/batchnorm/add_1", "leaky_re_lu_129/LeakyRelu/alpha"], "attr": {"T": {"type": "DT_FLOAT"}}}, {"name": "leaky_re_lu_7/LeakyRelu/Maximum", "op": "Maximum", "input": ["leaky_re_lu_7/LeakyRelu/mul", "batch_normalization_7/batchnorm/add_1"], "attr": {"T": {"type": "DT_FLOAT"}}}, {"name": "batch_normalization_8/batchnorm/mul_1", "op": "Conv2D", "input": ["leaky_re_lu_7/LeakyRelu/Maximum", "conv2d_8/convolution/merged_input"], "device": "/device:CPU:0", "attr": {"padding": {"s": "VkFMSUQ="}, "dilations": {"list": {"i": ["1", "1", "1", "1"]}}, "T": {"type": "DT_FLOAT"}, "strides": {"list": {"i": ["1", "1", "1", "1"]}}, "data_format": {"s": "TkhXQw=="}, "use_cudnn_on_gpu": {"b": true}, "explicit_paddings": {"list": {}}}}, {"name": "batch_normalization_8/batchnorm/add_1", "op": "Add", "input": ["batch_normalization_8/batchnorm/mul_1", "batch_normalization_8/batchnorm/sub"], "attr": {"T": {"type": "DT_FLOAT"}}}, {"name": "leaky_re_lu_8/LeakyRelu/mul", "op": "Mul", "input": ["batch_normalization_8/batchnorm/add_1", "leaky_re_lu_129/LeakyRelu/alpha"], "attr": {"T": {"type": "DT_FLOAT"}}}, {"name": "leaky_re_lu_8/LeakyRelu/Maximum", "op": "Maximum", "input": ["leaky_re_lu_8/LeakyRelu/mul", "batch_normalization_8/batchnorm/add_1"], "attr": {"T": {"type": "DT_FLOAT"}}}, {"name": "batch_normalization_9/batchnorm/mul_1", "op": "Conv2D", "input": ["leaky_re_lu_8/LeakyRelu/Maximum", "conv2d_9/convolution/merged_input"], "device": "/device:CPU:0", "attr": {"padding": {"s": "U0FNRQ=="}, "dilations": {"list": {"i": ["1", "1", "1", "1"]}}, "T": {"type": "DT_FLOAT"}, "data_format": {"s": "TkhXQw=="}, "strides": {"list": {"i": ["1", "2", "2", "1"]}}, "use_cudnn_on_gpu": {"b": true}, "explicit_paddings": {"list": {}}}}, {"name": "batch_normalization_9/batchnorm/add_1", "op": "Add", "input": ["batch_normalization_9/batchnorm/mul_1", "batch_normalization_9/batchnorm/sub"], "attr": {"T": {"type": "DT_FLOAT"}}}, {"name": "leaky_re_lu_9/LeakyRelu/mul", "op": "Mul", "input": ["batch_normalization_9/batchnorm/add_1", "leaky_re_lu_129/LeakyRelu/alpha"], "attr": {"T": {"type": "DT_FLOAT"}}}, {"name": "leaky_re_lu_9/LeakyRelu/Maximum", "op": "Maximum", "input": ["leaky_re_lu_9/LeakyRelu/mul", "batch_normalization_9/batchnorm/add_1"], "attr": {"T": {"type": "DT_FLOAT"}}}, {"name": "conv2d_10/convolution", "op": "Conv2D", "input": ["leaky_re_lu_9/LeakyRelu/Maximum", "conv2d_10/kernel"], "device": "/device:CPU:0", "attr": {"padding": {"s": "VkFMSUQ="}, "dilations": {"list": {"i": ["1", "1", "1", "1"]}}, "T": {"type": "DT_FLOAT"}, "data_format": {"s": "TkhXQw=="}, "strides": {"list": {"i": ["1", "1", "1", "1"]}}, "use_cudnn_on_gpu": {"b": true}, "explicit_paddings": {"list": {}}}}, {"name": "add_3/add", "op": "Add", "input": ["conv2d_10/convolution", "conv2d_11/convolution"], "attr": {"T": {"type": "DT_FLOAT"}}}, {"name": "batch_normalization_10/batchnorm/mul_1", "op": "Mul", "input": ["add_3/add", "batch_normalization_10/batchnorm/mul"], "attr": {"T": {"type": "DT_FLOAT"}}}, {"name": "batch_normalization_10/batchnorm/add_1", "op": "Add", "input": ["batch_normalization_10/batchnorm/mul_1", "batch_normalization_10/batchnorm/sub"], "attr": {"T": {"type": "DT_FLOAT"}}}, {"name": "leaky_re_lu_10/LeakyRelu/mul", "op": "Mul", "input": ["batch_normalization_10/batchnorm/add_1", "leaky_re_lu_129/LeakyRelu/alpha"], "attr": {"T": {"type": "DT_FLOAT"}}}, {"name": "leaky_re_lu_10/LeakyRelu/Maximum", "op": "Maximum", "input": ["leaky_re_lu_10/LeakyRelu/mul", "batch_normalization_10/batchnorm/add_1"], "attr": {"T": {"type": "DT_FLOAT"}}}, {"name": "batch_normalization_11/batchnorm/mul_1", "op": "Conv2D", "input": ["leaky_re_lu_10/LeakyRelu/Maximum", "conv2d_12/convolution/merged_input"], "device": "/device:CPU:0", "attr": {"dilations": {"list": {"i": ["1", "1", "1", "1"]}}, "T": {"type": "DT_FLOAT"}, "data_format": {"s": "TkhXQw=="}, "strides": {"list": {"i": ["1", "1", "1", "1"]}}, "explicit_paddings": {"list": {}}, "use_cudnn_on_gpu": {"b": true}, "padding": {"s": "VkFMSUQ="}}}, {"name": "batch_normalization_11/batchnorm/add_1", "op": "Add", "input": ["batch_normalization_11/batchnorm/mul_1", "batch_normalization_11/batchnorm/sub"], "attr": {"T": {"type": "DT_FLOAT"}}}, {"name": "leaky_re_lu_11/LeakyRelu/mul", "op": "Mul", "input": ["batch_normalization_11/batchnorm/add_1", "leaky_re_lu_129/LeakyRelu/alpha"], "attr": {"T": {"type": "DT_FLOAT"}}}, {"name": "leaky_re_lu_11/LeakyRelu/Maximum", "op": "Maximum", "input": ["leaky_re_lu_11/LeakyRelu/mul", "batch_normalization_11/batchnorm/add_1"], "attr": {"T": {"type": "DT_FLOAT"}}}, {"name": "batch_normalization_12/batchnorm/mul_1", "op": "Conv2D", "input": ["leaky_re_lu_11/LeakyRelu/Maximum", "conv2d_13/convolution/merged_input"], "device": "/device:CPU:0", "attr": {"dilations": {"list": {"i": ["1", "1", "1", "1"]}}, "T": {"type": "DT_FLOAT"}, "strides": {"list": {"i": ["1", "1", "1", "1"]}}, "data_format": {"s": "TkhXQw=="}, "use_cudnn_on_gpu": {"b": true}, "explicit_paddings": {"list": {}}, "padding": {"s": "U0FNRQ=="}}}, {"name": "batch_normalization_12/batchnorm/add_1", "op": "Add", "input": ["batch_normalization_12/batchnorm/mul_1", "batch_normalization_12/batchnorm/sub"], "attr": {"T": {"type": "DT_FLOAT"}}}, {"name": "leaky_re_lu_12/LeakyRelu/mul", "op": "Mul", "input": ["batch_normalization_12/batchnorm/add_1", "leaky_re_lu_129/LeakyRelu/alpha"], "attr": {"T": {"type": "DT_FLOAT"}}}, {"name": "leaky_re_lu_12/LeakyRelu/Maximum", "op": "Maximum", "input": ["leaky_re_lu_12/LeakyRelu/mul", "batch_normalization_12/batchnorm/add_1"], "attr": {"T": {"type": "DT_FLOAT"}}}, {"name": "conv2d_14/convolution", "op": "Conv2D", "input": ["leaky_re_lu_12/LeakyRelu/Maximum", "conv2d_14/kernel"], "device": "/device:CPU:0", "attr": {"dilations": {"list": {"i": ["1", "1", "1", "1"]}}, "T": {"type": "DT_FLOAT"}, "strides": {"list": {"i": ["1", "1", "1", "1"]}}, "data_format": {"s": "TkhXQw=="}, "use_cudnn_on_gpu": {"b": true}, "explicit_paddings": {"list": {}}, "padding": {"s": "VkFMSUQ="}}}, {"name": "add_4/add", "op": "Add", "input": ["add_3/add", "conv2d_14/convolution"], "attr": {"T": {"type": "DT_FLOAT"}}}, {"name": "batch_normalization_13/batchnorm/mul_1", "op": "Mul", "input": ["add_4/add", "batch_normalization_13/batchnorm/mul"], "attr": {"T": {"type": "DT_FLOAT"}}}, {"name": "batch_normalization_13/batchnorm/add_1", "op": "Add", "input": ["batch_normalization_13/batchnorm/mul_1", "batch_normalization_13/batchnorm/sub"], "attr": {"T": {"type": "DT_FLOAT"}}}, {"name": "leaky_re_lu_13/LeakyRelu/mul", "op": "Mul", "input": ["batch_normalization_13/batchnorm/add_1", "leaky_re_lu_129/LeakyRelu/alpha"], "attr": {"T": {"type": "DT_FLOAT"}}}, {"name": "leaky_re_lu_13/LeakyRelu/Maximum", "op": "Maximum", "input": ["leaky_re_lu_13/LeakyRelu/mul", "batch_normalization_13/batchnorm/add_1"], "attr": {"T": {"type": "DT_FLOAT"}}}, {"name": "batch_normalization_14/batchnorm/mul_1", "op": "Conv2D", "input": ["leaky_re_lu_13/LeakyRelu/Maximum", "conv2d_15/convolution/merged_input"], "device": "/device:CPU:0", "attr": {"data_format": {"s": "TkhXQw=="}, "strides": {"list": {"i": ["1", "1", "1", "1"]}}, "explicit_paddings": {"list": {}}, "use_cudnn_on_gpu": {"b": true}, "padding": {"s": "VkFMSUQ="}, "dilations": {"list": {"i": ["1", "1", "1", "1"]}}, "T": {"type": "DT_FLOAT"}}}, {"name": "batch_normalization_14/batchnorm/add_1", "op": "Add", "input": ["batch_normalization_14/batchnorm/mul_1", "batch_normalization_14/batchnorm/sub"], "attr": {"T": {"type": "DT_FLOAT"}}}, {"name": "leaky_re_lu_14/LeakyRelu/mul", "op": "Mul", "input": ["batch_normalization_14/batchnorm/add_1", "leaky_re_lu_129/LeakyRelu/alpha"], "attr": {"T": {"type": "DT_FLOAT"}}}, {"name": "leaky_re_lu_14/LeakyRelu/Maximum", "op": "Maximum", "input": ["leaky_re_lu_14/LeakyRelu/mul", "batch_normalization_14/batchnorm/add_1"], "attr": {"T": {"type": "DT_FLOAT"}}}, {"name": "batch_normalization_15/batchnorm/mul_1", "op": "Conv2D", "input": ["leaky_re_lu_14/LeakyRelu/Maximum", "conv2d_16/convolution/merged_input"], "device": "/device:CPU:0", "attr": {"T": {"type": "DT_FLOAT"}, "strides": {"list": {"i": ["1", "1", "1", "1"]}}, "data_format": {"s": "TkhXQw=="}, "use_cudnn_on_gpu": {"b": true}, "explicit_paddings": {"list": {}}, "padding": {"s": "U0FNRQ=="}, "dilations": {"list": {"i": ["1", "1", "1", "1"]}}}}, {"name": "batch_normalization_15/batchnorm/add_1", "op": "Add", "input": ["batch_normalization_15/batchnorm/mul_1", "batch_normalization_15/batchnorm/sub"], "attr": {"T": {"type": "DT_FLOAT"}}}, {"name": "leaky_re_lu_15/LeakyRelu/mul", "op": "Mul", "input": ["batch_normalization_15/batchnorm/add_1", "leaky_re_lu_129/LeakyRelu/alpha"], "attr": {"T": {"type": "DT_FLOAT"}}}, {"name": "leaky_re_lu_15/LeakyRelu/Maximum", "op": "Maximum", "input": ["leaky_re_lu_15/LeakyRelu/mul", "batch_normalization_15/batchnorm/add_1"], "attr": {"T": {"type": "DT_FLOAT"}}}, {"name": "conv2d_17/convolution", "op": "Conv2D", "input": ["leaky_re_lu_15/LeakyRelu/Maximum", "conv2d_17/kernel"], "device": "/device:CPU:0", "attr": {"explicit_paddings": {"list": {}}, "use_cudnn_on_gpu": {"b": true}, "padding": {"s": "VkFMSUQ="}, "dilations": {"list": {"i": ["1", "1", "1", "1"]}}, "T": {"type": "DT_FLOAT"}, "data_format": {"s": "TkhXQw=="}, "strides": {"list": {"i": ["1", "1", "1", "1"]}}}}, {"name": "add_5/add", "op": "Add", "input": ["add_4/add", "conv2d_17/convolution"], "attr": {"T": {"type": "DT_FLOAT"}}}, {"name": "batch_normalization_16/batchnorm/mul_1", "op": "Mul", "input": ["add_5/add", "batch_normalization_16/batchnorm/mul"], "attr": {"T": {"type": "DT_FLOAT"}}}, {"name": "conv2d_21/convolution", "op": "Conv2D", "input": ["add_5/add", "conv2d_21/kernel"], "device": "/device:CPU:0", "attr": {"padding": {"s": "VkFMSUQ="}, "dilations": {"list": {"i": ["1", "1", "1", "1"]}}, "T": {"type": "DT_FLOAT"}, "strides": {"list": {"i": ["1", "2", "2", "1"]}}, "data_format": {"s": "TkhXQw=="}, "use_cudnn_on_gpu": {"b": true}, "explicit_paddings": {"list": {}}}}, {"name": "batch_normalization_16/batchnorm/add_1", "op": "Add", "input": ["batch_normalization_16/batchnorm/mul_1", "batch_normalization_16/batchnorm/sub"], "attr": {"T": {"type": "DT_FLOAT"}}}, {"name": "leaky_re_lu_16/LeakyRelu/mul", "op": "Mul", "input": ["batch_normalization_16/batchnorm/add_1", "leaky_re_lu_129/LeakyRelu/alpha"], "attr": {"T": {"type": "DT_FLOAT"}}}, {"name": "leaky_re_lu_16/LeakyRelu/Maximum", "op": "Maximum", "input": ["leaky_re_lu_16/LeakyRelu/mul", "batch_normalization_16/batchnorm/add_1"], "attr": {"T": {"type": "DT_FLOAT"}}}, {"name": "batch_normalization_17/batchnorm/mul_1", "op": "Conv2D", "input": ["leaky_re_lu_16/LeakyRelu/Maximum", "conv2d_18/convolution/merged_input"], "device": "/device:CPU:0", "attr": {"dilations": {"list": {"i": ["1", "1", "1", "1"]}}, "T": {"type": "DT_FLOAT"}, "data_format": {"s": "TkhXQw=="}, "strides": {"list": {"i": ["1", "1", "1", "1"]}}, "explicit_paddings": {"list": {}}, "use_cudnn_on_gpu": {"b": true}, "padding": {"s": "VkFMSUQ="}}}, {"name": "batch_normalization_17/batchnorm/add_1", "op": "Add", "input": ["batch_normalization_17/batchnorm/mul_1", "batch_normalization_17/batchnorm/sub"], "attr": {"T": {"type": "DT_FLOAT"}}}, {"name": "leaky_re_lu_17/LeakyRelu/mul", "op": "Mul", "input": ["batch_normalization_17/batchnorm/add_1", "leaky_re_lu_129/LeakyRelu/alpha"], "attr": {"T": {"type": "DT_FLOAT"}}}, {"name": "leaky_re_lu_17/LeakyRelu/Maximum", "op": "Maximum", "input": ["leaky_re_lu_17/LeakyRelu/mul", "batch_normalization_17/batchnorm/add_1"], "attr": {"T": {"type": "DT_FLOAT"}}}, {"name": "batch_normalization_18/batchnorm/mul_1", "op": "Conv2D", "input": ["leaky_re_lu_17/LeakyRelu/Maximum", "conv2d_19/convolution/merged_input"], "device": "/device:CPU:0", "attr": {"strides": {"list": {"i": ["1", "2", "2", "1"]}}, "data_format": {"s": "TkhXQw=="}, "explicit_paddings": {"list": {}}, "use_cudnn_on_gpu": {"b": true}, "padding": {"s": "U0FNRQ=="}, "dilations": {"list": {"i": ["1", "1", "1", "1"]}}, "T": {"type": "DT_FLOAT"}}}, {"name": "batch_normalization_18/batchnorm/add_1", "op": "Add", "input": ["batch_normalization_18/batchnorm/mul_1", "batch_normalization_18/batchnorm/sub"], "attr": {"T": {"type": "DT_FLOAT"}}}, {"name": "leaky_re_lu_18/LeakyRelu/mul", "op": "Mul", "input": ["batch_normalization_18/batchnorm/add_1", "leaky_re_lu_129/LeakyRelu/alpha"], "attr": {"T": {"type": "DT_FLOAT"}}}, {"name": "leaky_re_lu_18/LeakyRelu/Maximum", "op": "Maximum", "input": ["leaky_re_lu_18/LeakyRelu/mul", "batch_normalization_18/batchnorm/add_1"], "attr": {"T": {"type": "DT_FLOAT"}}}, {"name": "conv2d_20/convolution", "op": "Conv2D", "input": ["leaky_re_lu_18/LeakyRelu/Maximum", "conv2d_20/kernel"], "device": "/device:CPU:0", "attr": {"dilations": {"list": {"i": ["1", "1", "1", "1"]}}, "T": {"type": "DT_FLOAT"}, "data_format": {"s": "TkhXQw=="}, "strides": {"list": {"i": ["1", "1", "1", "1"]}}, "explicit_paddings": {"list": {}}, "use_cudnn_on_gpu": {"b": true}, "padding": {"s": "VkFMSUQ="}}}, {"name": "add_6/add", "op": "Add", "input": ["conv2d_20/convolution", "conv2d_21/convolution"], "attr": {"T": {"type": "DT_FLOAT"}}}, {"name": "batch_normalization_19/batchnorm/mul_1", "op": "Mul", "input": ["add_6/add", "batch_normalization_19/batchnorm/mul"], "attr": {"T": {"type": "DT_FLOAT"}}}, {"name": "batch_normalization_19/batchnorm/add_1", "op": "Add", "input": ["batch_normalization_19/batchnorm/mul_1", "batch_normalization_19/batchnorm/sub"], "attr": {"T": {"type": "DT_FLOAT"}}}, {"name": "leaky_re_lu_19/LeakyRelu/mul", "op": "Mul", "input": ["batch_normalization_19/batchnorm/add_1", "leaky_re_lu_129/LeakyRelu/alpha"], "attr": {"T": {"type": "DT_FLOAT"}}}, {"name": "leaky_re_lu_19/LeakyRelu/Maximum", "op": "Maximum", "input": ["leaky_re_lu_19/LeakyRelu/mul", "batch_normalization_19/batchnorm/add_1"], "attr": {"T": {"type": "DT_FLOAT"}}}, {"name": "batch_normalization_20/batchnorm/mul_1", "op": "Conv2D", "input": ["leaky_re_lu_19/LeakyRelu/Maximum", "conv2d_22/convolution/merged_input"], "device": "/device:CPU:0", "attr": {"dilations": {"list": {"i": ["1", "1", "1", "1"]}}, "T": {"type": "DT_FLOAT"}, "strides": {"list": {"i": ["1", "1", "1", "1"]}}, "data_format": {"s": "TkhXQw=="}, "explicit_paddings": {"list": {}}, "use_cudnn_on_gpu": {"b": true}, "padding": {"s": "VkFMSUQ="}}}, {"name": "batch_normalization_20/batchnorm/add_1", "op": "Add", "input": ["batch_normalization_20/batchnorm/mul_1", "batch_normalization_20/batchnorm/sub"], "attr": {"T": {"type": "DT_FLOAT"}}}, {"name": "leaky_re_lu_20/LeakyRelu/mul", "op": "Mul", "input": ["batch_normalization_20/batchnorm/add_1", "leaky_re_lu_129/LeakyRelu/alpha"], "attr": {"T": {"type": "DT_FLOAT"}}}, {"name": "leaky_re_lu_20/LeakyRelu/Maximum", "op": "Maximum", "input": ["leaky_re_lu_20/LeakyRelu/mul", "batch_normalization_20/batchnorm/add_1"], "attr": {"T": {"type": "DT_FLOAT"}}}, {"name": "batch_normalization_21/batchnorm/mul_1", "op": "Conv2D", "input": ["leaky_re_lu_20/LeakyRelu/Maximum", "conv2d_23/convolution/merged_input"], "device": "/device:CPU:0", "attr": {"dilations": {"list": {"i": ["1", "1", "1", "1"]}}, "T": {"type": "DT_FLOAT"}, "data_format": {"s": "TkhXQw=="}, "strides": {"list": {"i": ["1", "1", "1", "1"]}}, "explicit_paddings": {"list": {}}, "use_cudnn_on_gpu": {"b": true}, "padding": {"s": "U0FNRQ=="}}}, {"name": "batch_normalization_21/batchnorm/add_1", "op": "Add", "input": ["batch_normalization_21/batchnorm/mul_1", "batch_normalization_21/batchnorm/sub"], "attr": {"T": {"type": "DT_FLOAT"}}}, {"name": "leaky_re_lu_21/LeakyRelu/mul", "op": "Mul", "input": ["batch_normalization_21/batchnorm/add_1", "leaky_re_lu_129/LeakyRelu/alpha"], "attr": {"T": {"type": "DT_FLOAT"}}}, {"name": "leaky_re_lu_21/LeakyRelu/Maximum", "op": "Maximum", "input": ["leaky_re_lu_21/LeakyRelu/mul", "batch_normalization_21/batchnorm/add_1"], "attr": {"T": {"type": "DT_FLOAT"}}}, {"name": "conv2d_24/convolution", "op": "Conv2D", "input": ["leaky_re_lu_21/LeakyRelu/Maximum", "conv2d_24/kernel"], "device": "/device:CPU:0", "attr": {"strides": {"list": {"i": ["1", "1", "1", "1"]}}, "data_format": {"s": "TkhXQw=="}, "explicit_paddings": {"list": {}}, "use_cudnn_on_gpu": {"b": true}, "padding": {"s": "VkFMSUQ="}, "dilations": {"list": {"i": ["1", "1", "1", "1"]}}, "T": {"type": "DT_FLOAT"}}}, {"name": "add_7/add", "op": "Add", "input": ["add_6/add", "conv2d_24/convolution"], "attr": {"T": {"type": "DT_FLOAT"}}}, {"name": "batch_normalization_22/batchnorm/mul_1", "op": "Mul", "input": ["add_7/add", "batch_normalization_22/batchnorm/mul"], "attr": {"T": {"type": "DT_FLOAT"}}}, {"name": "batch_normalization_22/batchnorm/add_1", "op": "Add", "input": ["batch_normalization_22/batchnorm/mul_1", "batch_normalization_22/batchnorm/sub"], "attr": {"T": {"type": "DT_FLOAT"}}}, {"name": "leaky_re_lu_22/LeakyRelu/mul", "op": "Mul", "input": ["batch_normalization_22/batchnorm/add_1", "leaky_re_lu_129/LeakyRelu/alpha"], "attr": {"T": {"type": "DT_FLOAT"}}}, {"name": "leaky_re_lu_22/LeakyRelu/Maximum", "op": "Maximum", "input": ["leaky_re_lu_22/LeakyRelu/mul", "batch_normalization_22/batchnorm/add_1"], "attr": {"T": {"type": "DT_FLOAT"}}}, {"name": "batch_normalization_23/batchnorm/mul_1", "op": "Conv2D", "input": ["leaky_re_lu_22/LeakyRelu/Maximum", "conv2d_25/convolution/merged_input"], "device": "/device:CPU:0", "attr": {"use_cudnn_on_gpu": {"b": true}, "explicit_paddings": {"list": {}}, "padding": {"s": "VkFMSUQ="}, "dilations": {"list": {"i": ["1", "1", "1", "1"]}}, "T": {"type": "DT_FLOAT"}, "data_format": {"s": "TkhXQw=="}, "strides": {"list": {"i": ["1", "1", "1", "1"]}}}}, {"name": "batch_normalization_23/batchnorm/add_1", "op": "Add", "input": ["batch_normalization_23/batchnorm/mul_1", "batch_normalization_23/batchnorm/sub"], "attr": {"T": {"type": "DT_FLOAT"}}}, {"name": "leaky_re_lu_23/LeakyRelu/mul", "op": "Mul", "input": ["batch_normalization_23/batchnorm/add_1", "leaky_re_lu_129/LeakyRelu/alpha"], "attr": {"T": {"type": "DT_FLOAT"}}}, {"name": "leaky_re_lu_23/LeakyRelu/Maximum", "op": "Maximum", "input": ["leaky_re_lu_23/LeakyRelu/mul", "batch_normalization_23/batchnorm/add_1"], "attr": {"T": {"type": "DT_FLOAT"}}}, {"name": "batch_normalization_24/batchnorm/mul_1", "op": "Conv2D", "input": ["leaky_re_lu_23/LeakyRelu/Maximum", "conv2d_26/convolution/merged_input"], "device": "/device:CPU:0", "attr": {"dilations": {"list": {"i": ["1", "1", "1", "1"]}}, "T": {"type": "DT_FLOAT"}, "data_format": {"s": "TkhXQw=="}, "strides": {"list": {"i": ["1", "1", "1", "1"]}}, "explicit_paddings": {"list": {}}, "use_cudnn_on_gpu": {"b": true}, "padding": {"s": "U0FNRQ=="}}}, {"name": "batch_normalization_24/batchnorm/add_1", "op": "Add", "input": ["batch_normalization_24/batchnorm/mul_1", "batch_normalization_24/batchnorm/sub"], "attr": {"T": {"type": "DT_FLOAT"}}}, {"name": "leaky_re_lu_24/LeakyRelu/mul", "op": "Mul", "input": ["batch_normalization_24/batchnorm/add_1", "leaky_re_lu_129/LeakyRelu/alpha"], "attr": {"T": {"type": "DT_FLOAT"}}}, {"name": "leaky_re_lu_24/LeakyRelu/Maximum", "op": "Maximum", "input": ["leaky_re_lu_24/LeakyRelu/mul", "batch_normalization_24/batchnorm/add_1"], "attr": {"T": {"type": "DT_FLOAT"}}}, {"name": "conv2d_27/convolution", "op": "Conv2D", "input": ["leaky_re_lu_24/LeakyRelu/Maximum", "conv2d_27/kernel"], "device": "/device:CPU:0", "attr": {"dilations": {"list": {"i": ["1", "1", "1", "1"]}}, "T": {"type": "DT_FLOAT"}, "strides": {"list": {"i": ["1", "1", "1", "1"]}}, "data_format": {"s": "TkhXQw=="}, "explicit_paddings": {"list": {}}, "use_cudnn_on_gpu": {"b": true}, "padding": {"s": "VkFMSUQ="}}}, {"name": "add_8/add", "op": "Add", "input": ["add_7/add", "conv2d_27/convolution"], "attr": {"T": {"type": "DT_FLOAT"}}}, {"name": "batch_normalization_25/batchnorm/mul_1", "op": "Mul", "input": ["add_8/add", "batch_normalization_25/batchnorm/mul"], "attr": {"T": {"type": "DT_FLOAT"}}}, {"name": "conv2d_31/convolution", "op": "Conv2D", "input": ["add_8/add", "conv2d_31/kernel"], "device": "/device:CPU:0", "attr": {"dilations": {"list": {"i": ["1", "1", "1", "1"]}}, "T": {"type": "DT_FLOAT"}, "data_format": {"s": "TkhXQw=="}, "strides": {"list": {"i": ["1", "2", "2", "1"]}}, "use_cudnn_on_gpu": {"b": true}, "explicit_paddings": {"list": {}}, "padding": {"s": "VkFMSUQ="}}}, {"name": "batch_normalization_25/batchnorm/add_1", "op": "Add", "input": ["batch_normalization_25/batchnorm/mul_1", "batch_normalization_25/batchnorm/sub"], "attr": {"T": {"type": "DT_FLOAT"}}}, {"name": "leaky_re_lu_25/LeakyRelu/mul", "op": "Mul", "input": ["batch_normalization_25/batchnorm/add_1", "leaky_re_lu_129/LeakyRelu/alpha"], "attr": {"T": {"type": "DT_FLOAT"}}}, {"name": "leaky_re_lu_25/LeakyRelu/Maximum", "op": "Maximum", "input": ["leaky_re_lu_25/LeakyRelu/mul", "batch_normalization_25/batchnorm/add_1"], "attr": {"T": {"type": "DT_FLOAT"}}}, {"name": "batch_normalization_26/batchnorm/mul_1", "op": "Conv2D", "input": ["leaky_re_lu_25/LeakyRelu/Maximum", "conv2d_28/convolution/merged_input"], "device": "/device:CPU:0", "attr": {"dilations": {"list": {"i": ["1", "1", "1", "1"]}}, "T": {"type": "DT_FLOAT"}, "strides": {"list": {"i": ["1", "1", "1", "1"]}}, "data_format": {"s": "TkhXQw=="}, "explicit_paddings": {"list": {}}, "use_cudnn_on_gpu": {"b": true}, "padding": {"s": "VkFMSUQ="}}}, {"name": "batch_normalization_26/batchnorm/add_1", "op": "Add", "input": ["batch_normalization_26/batchnorm/mul_1", "batch_normalization_26/batchnorm/sub"], "attr": {"T": {"type": "DT_FLOAT"}}}, {"name": "leaky_re_lu_26/LeakyRelu/mul", "op": "Mul", "input": ["batch_normalization_26/batchnorm/add_1", "leaky_re_lu_129/LeakyRelu/alpha"], "attr": {"T": {"type": "DT_FLOAT"}}}, {"name": "leaky_re_lu_26/LeakyRelu/Maximum", "op": "Maximum", "input": ["leaky_re_lu_26/LeakyRelu/mul", "batch_normalization_26/batchnorm/add_1"], "attr": {"T": {"type": "DT_FLOAT"}}}, {"name": "batch_normalization_27/batchnorm/mul_1", "op": "Conv2D", "input": ["leaky_re_lu_26/LeakyRelu/Maximum", "conv2d_29/convolution/merged_input"], "device": "/device:CPU:0", "attr": {"padding": {"s": "U0FNRQ=="}, "dilations": {"list": {"i": ["1", "1", "1", "1"]}}, "T": {"type": "DT_FLOAT"}, "data_format": {"s": "TkhXQw=="}, "strides": {"list": {"i": ["1", "2", "2", "1"]}}, "use_cudnn_on_gpu": {"b": true}, "explicit_paddings": {"list": {}}}}, {"name": "batch_normalization_27/batchnorm/add_1", "op": "Add", "input": ["batch_normalization_27/batchnorm/mul_1", "batch_normalization_27/batchnorm/sub"], "attr": {"T": {"type": "DT_FLOAT"}}}, {"name": "leaky_re_lu_27/LeakyRelu/mul", "op": "Mul", "input": ["batch_normalization_27/batchnorm/add_1", "leaky_re_lu_129/LeakyRelu/alpha"], "attr": {"T": {"type": "DT_FLOAT"}}}, {"name": "leaky_re_lu_27/LeakyRelu/Maximum", "op": "Maximum", "input": ["leaky_re_lu_27/LeakyRelu/mul", "batch_normalization_27/batchnorm/add_1"], "attr": {"T": {"type": "DT_FLOAT"}}}, {"name": "conv2d_30/convolution", "op": "Conv2D", "input": ["leaky_re_lu_27/LeakyRelu/Maximum", "conv2d_30/kernel"], "device": "/device:CPU:0", "attr": {"dilations": {"list": {"i": ["1", "1", "1", "1"]}}, "T": {"type": "DT_FLOAT"}, "strides": {"list": {"i": ["1", "1", "1", "1"]}}, "data_format": {"s": "TkhXQw=="}, "explicit_paddings": {"list": {}}, "use_cudnn_on_gpu": {"b": true}, "padding": {"s": "VkFMSUQ="}}}, {"name": "add_9/add", "op": "Add", "input": ["conv2d_30/convolution", "conv2d_31/convolution"], "attr": {"T": {"type": "DT_FLOAT"}}}, {"name": "batch_normalization_28/batchnorm/mul_1", "op": "Mul", "input": ["add_9/add", "batch_normalization_28/batchnorm/mul"], "attr": {"T": {"type": "DT_FLOAT"}}}, {"name": "batch_normalization_28/batchnorm/add_1", "op": "Add", "input": ["batch_normalization_28/batchnorm/mul_1", "batch_normalization_28/batchnorm/sub"], "attr": {"T": {"type": "DT_FLOAT"}}}, {"name": "leaky_re_lu_28/LeakyRelu/mul", "op": "Mul", "input": ["batch_normalization_28/batchnorm/add_1", "leaky_re_lu_129/LeakyRelu/alpha"], "attr": {"T": {"type": "DT_FLOAT"}}}, {"name": "leaky_re_lu_28/LeakyRelu/Maximum", "op": "Maximum", "input": ["leaky_re_lu_28/LeakyRelu/mul", "batch_normalization_28/batchnorm/add_1"], "attr": {"T": {"type": "DT_FLOAT"}}}, {"name": "batch_normalization_29/batchnorm/mul_1", "op": "Conv2D", "input": ["leaky_re_lu_28/LeakyRelu/Maximum", "conv2d_32/convolution/merged_input"], "device": "/device:CPU:0", "attr": {"T": {"type": "DT_FLOAT"}, "data_format": {"s": "TkhXQw=="}, "strides": {"list": {"i": ["1", "1", "1", "1"]}}, "explicit_paddings": {"list": {}}, "use_cudnn_on_gpu": {"b": true}, "padding": {"s": "VkFMSUQ="}, "dilations": {"list": {"i": ["1", "1", "1", "1"]}}}}, {"name": "batch_normalization_29/batchnorm/add_1", "op": "Add", "input": ["batch_normalization_29/batchnorm/mul_1", "batch_normalization_29/batchnorm/sub"], "attr": {"T": {"type": "DT_FLOAT"}}}, {"name": "leaky_re_lu_29/LeakyRelu/mul", "op": "Mul", "input": ["batch_normalization_29/batchnorm/add_1", "leaky_re_lu_129/LeakyRelu/alpha"], "attr": {"T": {"type": "DT_FLOAT"}}}, {"name": "leaky_re_lu_29/LeakyRelu/Maximum", "op": "Maximum", "input": ["leaky_re_lu_29/LeakyRelu/mul", "batch_normalization_29/batchnorm/add_1"], "attr": {"T": {"type": "DT_FLOAT"}}}, {"name": "batch_normalization_30/batchnorm/mul_1", "op": "Conv2D", "input": ["leaky_re_lu_29/LeakyRelu/Maximum", "conv2d_33/convolution/merged_input"], "device": "/device:CPU:0", "attr": {"dilations": {"list": {"i": ["1", "1", "1", "1"]}}, "T": {"type": "DT_FLOAT"}, "strides": {"list": {"i": ["1", "1", "1", "1"]}}, "data_format": {"s": "TkhXQw=="}, "explicit_paddings": {"list": {}}, "use_cudnn_on_gpu": {"b": true}, "padding": {"s": "U0FNRQ=="}}}, {"name": "batch_normalization_30/batchnorm/add_1", "op": "Add", "input": ["batch_normalization_30/batchnorm/mul_1", "batch_normalization_30/batchnorm/sub"], "attr": {"T": {"type": "DT_FLOAT"}}}, {"name": "leaky_re_lu_30/LeakyRelu/mul", "op": "Mul", "input": ["batch_normalization_30/batchnorm/add_1", "leaky_re_lu_129/LeakyRelu/alpha"], "attr": {"T": {"type": "DT_FLOAT"}}}, {"name": "leaky_re_lu_30/LeakyRelu/Maximum", "op": "Maximum", "input": ["leaky_re_lu_30/LeakyRelu/mul", "batch_normalization_30/batchnorm/add_1"], "attr": {"T": {"type": "DT_FLOAT"}}}, {"name": "conv2d_34/convolution", "op": "Conv2D", "input": ["leaky_re_lu_30/LeakyRelu/Maximum", "conv2d_34/kernel"], "device": "/device:CPU:0", "attr": {"dilations": {"list": {"i": ["1", "1", "1", "1"]}}, "T": {"type": "DT_FLOAT"}, "data_format": {"s": "TkhXQw=="}, "strides": {"list": {"i": ["1", "1", "1", "1"]}}, "use_cudnn_on_gpu": {"b": true}, "explicit_paddings": {"list": {}}, "padding": {"s": "VkFMSUQ="}}}, {"name": "add_10/add", "op": "Add", "input": ["add_9/add", "conv2d_34/convolution"], "attr": {"T": {"type": "DT_FLOAT"}}}, {"name": "batch_normalization_31/batchnorm/mul_1", "op": "Mul", "input": ["add_10/add", "batch_normalization_31/batchnorm/mul"], "attr": {"T": {"type": "DT_FLOAT"}}}, {"name": "batch_normalization_31/batchnorm/add_1", "op": "Add", "input": ["batch_normalization_31/batchnorm/mul_1", "batch_normalization_31/batchnorm/sub"], "attr": {"T": {"type": "DT_FLOAT"}}}, {"name": "leaky_re_lu_31/LeakyRelu/mul", "op": "Mul", "input": ["batch_normalization_31/batchnorm/add_1", "leaky_re_lu_129/LeakyRelu/alpha"], "attr": {"T": {"type": "DT_FLOAT"}}}, {"name": "leaky_re_lu_31/LeakyRelu/Maximum", "op": "Maximum", "input": ["leaky_re_lu_31/LeakyRelu/mul", "batch_normalization_31/batchnorm/add_1"], "attr": {"T": {"type": "DT_FLOAT"}}}, {"name": "batch_normalization_32/batchnorm/mul_1", "op": "Conv2D", "input": ["leaky_re_lu_31/LeakyRelu/Maximum", "conv2d_35/convolution/merged_input"], "device": "/device:CPU:0", "attr": {"dilations": {"list": {"i": ["1", "1", "1", "1"]}}, "T": {"type": "DT_FLOAT"}, "strides": {"list": {"i": ["1", "1", "1", "1"]}}, "data_format": {"s": "TkhXQw=="}, "use_cudnn_on_gpu": {"b": true}, "explicit_paddings": {"list": {}}, "padding": {"s": "VkFMSUQ="}}}, {"name": "batch_normalization_32/batchnorm/add_1", "op": "Add", "input": ["batch_normalization_32/batchnorm/mul_1", "batch_normalization_32/batchnorm/sub"], "attr": {"T": {"type": "DT_FLOAT"}}}, {"name": "leaky_re_lu_32/LeakyRelu/mul", "op": "Mul", "input": ["batch_normalization_32/batchnorm/add_1", "leaky_re_lu_129/LeakyRelu/alpha"], "attr": {"T": {"type": "DT_FLOAT"}}}, {"name": "leaky_re_lu_32/LeakyRelu/Maximum", "op": "Maximum", "input": ["leaky_re_lu_32/LeakyRelu/mul", "batch_normalization_32/batchnorm/add_1"], "attr": {"T": {"type": "DT_FLOAT"}}}, {"name": "batch_normalization_33/batchnorm/mul_1", "op": "Conv2D", "input": ["leaky_re_lu_32/LeakyRelu/Maximum", "conv2d_36/convolution/merged_input"], "device": "/device:CPU:0", "attr": {"dilations": {"list": {"i": ["1", "1", "1", "1"]}}, "T": {"type": "DT_FLOAT"}, "strides": {"list": {"i": ["1", "1", "1", "1"]}}, "data_format": {"s": "TkhXQw=="}, "explicit_paddings": {"list": {}}, "use_cudnn_on_gpu": {"b": true}, "padding": {"s": "U0FNRQ=="}}}, {"name": "batch_normalization_33/batchnorm/add_1", "op": "Add", "input": ["batch_normalization_33/batchnorm/mul_1", "batch_normalization_33/batchnorm/sub"], "attr": {"T": {"type": "DT_FLOAT"}}}, {"name": "leaky_re_lu_33/LeakyRelu/mul", "op": "Mul", "input": ["batch_normalization_33/batchnorm/add_1", "leaky_re_lu_129/LeakyRelu/alpha"], "attr": {"T": {"type": "DT_FLOAT"}}}, {"name": "leaky_re_lu_33/LeakyRelu/Maximum", "op": "Maximum", "input": ["leaky_re_lu_33/LeakyRelu/mul", "batch_normalization_33/batchnorm/add_1"], "attr": {"T": {"type": "DT_FLOAT"}}}, {"name": "conv2d_37/convolution", "op": "Conv2D", "input": ["leaky_re_lu_33/LeakyRelu/Maximum", "conv2d_37/kernel"], "device": "/device:CPU:0", "attr": {"use_cudnn_on_gpu": {"b": true}, "explicit_paddings": {"list": {}}, "padding": {"s": "VkFMSUQ="}, "dilations": {"list": {"i": ["1", "1", "1", "1"]}}, "T": {"type": "DT_FLOAT"}, "data_format": {"s": "TkhXQw=="}, "strides": {"list": {"i": ["1", "1", "1", "1"]}}}}, {"name": "add_11/add", "op": "Add", "input": ["add_10/add", "conv2d_37/convolution"], "attr": {"T": {"type": "DT_FLOAT"}}}, {"name": "batch_normalization_34/batchnorm/mul_1", "op": "Mul", "input": ["add_11/add", "batch_normalization_34/batchnorm/mul"], "attr": {"T": {"type": "DT_FLOAT"}}}, {"name": "conv2d_41/convolution", "op": "Conv2D", "input": ["add_11/add", "conv2d_41/kernel"], "device": "/device:CPU:0", "attr": {"dilations": {"list": {"i": ["1", "1", "1", "1"]}}, "T": {"type": "DT_FLOAT"}, "strides": {"list": {"i": ["1", "2", "2", "1"]}}, "data_format": {"s": "TkhXQw=="}, "explicit_paddings": {"list": {}}, "use_cudnn_on_gpu": {"b": true}, "padding": {"s": "VkFMSUQ="}}}, {"name": "batch_normalization_34/batchnorm/add_1", "op": "Add", "input": ["batch_normalization_34/batchnorm/mul_1", "batch_normalization_34/batchnorm/sub"], "attr": {"T": {"type": "DT_FLOAT"}}}, {"name": "leaky_re_lu_34/LeakyRelu/mul", "op": "Mul", "input": ["batch_normalization_34/batchnorm/add_1", "leaky_re_lu_129/LeakyRelu/alpha"], "attr": {"T": {"type": "DT_FLOAT"}}}, {"name": "leaky_re_lu_34/LeakyRelu/Maximum", "op": "Maximum", "input": ["leaky_re_lu_34/LeakyRelu/mul", "batch_normalization_34/batchnorm/add_1"], "attr": {"T": {"type": "DT_FLOAT"}}}, {"name": "batch_normalization_35/batchnorm/mul_1", "op": "Conv2D", "input": ["leaky_re_lu_34/LeakyRelu/Maximum", "conv2d_38/convolution/merged_input"], "device": "/device:CPU:0", "attr": {"padding": {"s": "VkFMSUQ="}, "dilations": {"list": {"i": ["1", "1", "1", "1"]}}, "T": {"type": "DT_FLOAT"}, "data_format": {"s": "TkhXQw=="}, "strides": {"list": {"i": ["1", "1", "1", "1"]}}, "use_cudnn_on_gpu": {"b": true}, "explicit_paddings": {"list": {}}}}, {"name": "batch_normalization_35/batchnorm/add_1", "op": "Add", "input": ["batch_normalization_35/batchnorm/mul_1", "batch_normalization_35/batchnorm/sub"], "attr": {"T": {"type": "DT_FLOAT"}}}, {"name": "leaky_re_lu_35/LeakyRelu/mul", "op": "Mul", "input": ["batch_normalization_35/batchnorm/add_1", "leaky_re_lu_129/LeakyRelu/alpha"], "attr": {"T": {"type": "DT_FLOAT"}}}, {"name": "leaky_re_lu_35/LeakyRelu/Maximum", "op": "Maximum", "input": ["leaky_re_lu_35/LeakyRelu/mul", "batch_normalization_35/batchnorm/add_1"], "attr": {"T": {"type": "DT_FLOAT"}}}, {"name": "batch_normalization_36/batchnorm/mul_1", "op": "Conv2D", "input": ["leaky_re_lu_35/LeakyRelu/Maximum", "conv2d_39/convolution/merged_input"], "device": "/device:CPU:0", "attr": {"dilations": {"list": {"i": ["1", "1", "1", "1"]}}, "T": {"type": "DT_FLOAT"}, "strides": {"list": {"i": ["1", "2", "2", "1"]}}, "data_format": {"s": "TkhXQw=="}, "explicit_paddings": {"list": {}}, "use_cudnn_on_gpu": {"b": true}, "padding": {"s": "U0FNRQ=="}}}, {"name": "batch_normalization_36/batchnorm/add_1", "op": "Add", "input": ["batch_normalization_36/batchnorm/mul_1", "batch_normalization_36/batchnorm/sub"], "attr": {"T": {"type": "DT_FLOAT"}}}, {"name": "leaky_re_lu_36/LeakyRelu/mul", "op": "Mul", "input": ["batch_normalization_36/batchnorm/add_1", "leaky_re_lu_129/LeakyRelu/alpha"], "attr": {"T": {"type": "DT_FLOAT"}}}, {"name": "leaky_re_lu_36/LeakyRelu/Maximum", "op": "Maximum", "input": ["leaky_re_lu_36/LeakyRelu/mul", "batch_normalization_36/batchnorm/add_1"], "attr": {"T": {"type": "DT_FLOAT"}}}, {"name": "conv2d_40/convolution", "op": "Conv2D", "input": ["leaky_re_lu_36/LeakyRelu/Maximum", "conv2d_40/kernel"], "device": "/device:CPU:0", "attr": {"use_cudnn_on_gpu": {"b": true}, "explicit_paddings": {"list": {}}, "padding": {"s": "VkFMSUQ="}, "dilations": {"list": {"i": ["1", "1", "1", "1"]}}, "T": {"type": "DT_FLOAT"}, "data_format": {"s": "TkhXQw=="}, "strides": {"list": {"i": ["1", "1", "1", "1"]}}}}, {"name": "add_12/add", "op": "Add", "input": ["conv2d_40/convolution", "conv2d_41/convolution"], "attr": {"T": {"type": "DT_FLOAT"}}}, {"name": "batch_normalization_37/batchnorm/mul_1", "op": "Mul", "input": ["add_12/add", "batch_normalization_37/batchnorm/mul"], "attr": {"T": {"type": "DT_FLOAT"}}}, {"name": "batch_normalization_37/batchnorm/add_1", "op": "Add", "input": ["batch_normalization_37/batchnorm/mul_1", "batch_normalization_37/batchnorm/sub"], "attr": {"T": {"type": "DT_FLOAT"}}}, {"name": "leaky_re_lu_37/LeakyRelu/mul", "op": "Mul", "input": ["batch_normalization_37/batchnorm/add_1", "leaky_re_lu_129/LeakyRelu/alpha"], "attr": {"T": {"type": "DT_FLOAT"}}}, {"name": "leaky_re_lu_37/LeakyRelu/Maximum", "op": "Maximum", "input": ["leaky_re_lu_37/LeakyRelu/mul", "batch_normalization_37/batchnorm/add_1"], "attr": {"T": {"type": "DT_FLOAT"}}}, {"name": "batch_normalization_38/batchnorm/mul_1", "op": "Conv2D", "input": ["leaky_re_lu_37/LeakyRelu/Maximum", "conv2d_42/convolution/merged_input"], "device": "/device:CPU:0", "attr": {"strides": {"list": {"i": ["1", "1", "1", "1"]}}, "data_format": {"s": "TkhXQw=="}, "use_cudnn_on_gpu": {"b": true}, "explicit_paddings": {"list": {}}, "padding": {"s": "VkFMSUQ="}, "dilations": {"list": {"i": ["1", "1", "1", "1"]}}, "T": {"type": "DT_FLOAT"}}}, {"name": "batch_normalization_38/batchnorm/add_1", "op": "Add", "input": ["batch_normalization_38/batchnorm/mul_1", "batch_normalization_38/batchnorm/sub"], "attr": {"T": {"type": "DT_FLOAT"}}}, {"name": "leaky_re_lu_38/LeakyRelu/mul", "op": "Mul", "input": ["batch_normalization_38/batchnorm/add_1", "leaky_re_lu_129/LeakyRelu/alpha"], "attr": {"T": {"type": "DT_FLOAT"}}}, {"name": "leaky_re_lu_38/LeakyRelu/Maximum", "op": "Maximum", "input": ["leaky_re_lu_38/LeakyRelu/mul", "batch_normalization_38/batchnorm/add_1"], "attr": {"T": {"type": "DT_FLOAT"}}}, {"name": "batch_normalization_39/batchnorm/mul_1", "op": "Conv2D", "input": ["leaky_re_lu_38/LeakyRelu/Maximum", "conv2d_43/convolution/merged_input"], "device": "/device:CPU:0", "attr": {"dilations": {"list": {"i": ["1", "1", "1", "1"]}}, "T": {"type": "DT_FLOAT"}, "data_format": {"s": "TkhXQw=="}, "strides": {"list": {"i": ["1", "1", "1", "1"]}}, "use_cudnn_on_gpu": {"b": true}, "explicit_paddings": {"list": {}}, "padding": {"s": "U0FNRQ=="}}}, {"name": "batch_normalization_39/batchnorm/add_1", "op": "Add", "input": ["batch_normalization_39/batchnorm/mul_1", "batch_normalization_39/batchnorm/sub"], "attr": {"T": {"type": "DT_FLOAT"}}}, {"name": "leaky_re_lu_39/LeakyRelu/mul", "op": "Mul", "input": ["batch_normalization_39/batchnorm/add_1", "leaky_re_lu_129/LeakyRelu/alpha"], "attr": {"T": {"type": "DT_FLOAT"}}}, {"name": "leaky_re_lu_39/LeakyRelu/Maximum", "op": "Maximum", "input": ["leaky_re_lu_39/LeakyRelu/mul", "batch_normalization_39/batchnorm/add_1"], "attr": {"T": {"type": "DT_FLOAT"}}}, {"name": "conv2d_44/convolution", "op": "Conv2D", "input": ["leaky_re_lu_39/LeakyRelu/Maximum", "conv2d_44/kernel"], "device": "/device:CPU:0", "attr": {"dilations": {"list": {"i": ["1", "1", "1", "1"]}}, "T": {"type": "DT_FLOAT"}, "strides": {"list": {"i": ["1", "1", "1", "1"]}}, "data_format": {"s": "TkhXQw=="}, "explicit_paddings": {"list": {}}, "use_cudnn_on_gpu": {"b": true}, "padding": {"s": "VkFMSUQ="}}}, {"name": "add_13/add", "op": "Add", "input": ["add_12/add", "conv2d_44/convolution"], "attr": {"T": {"type": "DT_FLOAT"}}}, {"name": "batch_normalization_40/batchnorm/mul_1", "op": "Mul", "input": ["add_13/add", "batch_normalization_40/batchnorm/mul"], "attr": {"T": {"type": "DT_FLOAT"}}}, {"name": "batch_normalization_40/batchnorm/add_1", "op": "Add", "input": ["batch_normalization_40/batchnorm/mul_1", "batch_normalization_40/batchnorm/sub"], "attr": {"T": {"type": "DT_FLOAT"}}}, {"name": "leaky_re_lu_40/LeakyRelu/mul", "op": "Mul", "input": ["batch_normalization_40/batchnorm/add_1", "leaky_re_lu_129/LeakyRelu/alpha"], "attr": {"T": {"type": "DT_FLOAT"}}}, {"name": "leaky_re_lu_40/LeakyRelu/Maximum", "op": "Maximum", "input": ["leaky_re_lu_40/LeakyRelu/mul", "batch_normalization_40/batchnorm/add_1"], "attr": {"T": {"type": "DT_FLOAT"}}}, {"name": "batch_normalization_41/batchnorm/mul_1", "op": "Conv2D", "input": ["leaky_re_lu_40/LeakyRelu/Maximum", "conv2d_45/convolution/merged_input"], "device": "/device:CPU:0", "attr": {"padding": {"s": "VkFMSUQ="}, "dilations": {"list": {"i": ["1", "1", "1", "1"]}}, "T": {"type": "DT_FLOAT"}, "data_format": {"s": "TkhXQw=="}, "strides": {"list": {"i": ["1", "1", "1", "1"]}}, "explicit_paddings": {"list": {}}, "use_cudnn_on_gpu": {"b": true}}}, {"name": "batch_normalization_41/batchnorm/add_1", "op": "Add", "input": ["batch_normalization_41/batchnorm/mul_1", "batch_normalization_41/batchnorm/sub"], "attr": {"T": {"type": "DT_FLOAT"}}}, {"name": "leaky_re_lu_41/LeakyRelu/mul", "op": "Mul", "input": ["batch_normalization_41/batchnorm/add_1", "leaky_re_lu_129/LeakyRelu/alpha"], "attr": {"T": {"type": "DT_FLOAT"}}}, {"name": "leaky_re_lu_41/LeakyRelu/Maximum", "op": "Maximum", "input": ["leaky_re_lu_41/LeakyRelu/mul", "batch_normalization_41/batchnorm/add_1"], "attr": {"T": {"type": "DT_FLOAT"}}}, {"name": "batch_normalization_42/batchnorm/mul_1", "op": "Conv2D", "input": ["leaky_re_lu_41/LeakyRelu/Maximum", "conv2d_46/convolution/merged_input"], "device": "/device:CPU:0", "attr": {"T": {"type": "DT_FLOAT"}, "data_format": {"s": "TkhXQw=="}, "strides": {"list": {"i": ["1", "1", "1", "1"]}}, "use_cudnn_on_gpu": {"b": true}, "explicit_paddings": {"list": {}}, "padding": {"s": "U0FNRQ=="}, "dilations": {"list": {"i": ["1", "1", "1", "1"]}}}}, {"name": "batch_normalization_42/batchnorm/add_1", "op": "Add", "input": ["batch_normalization_42/batchnorm/mul_1", "batch_normalization_42/batchnorm/sub"], "attr": {"T": {"type": "DT_FLOAT"}}}, {"name": "leaky_re_lu_42/LeakyRelu/mul", "op": "Mul", "input": ["batch_normalization_42/batchnorm/add_1", "leaky_re_lu_129/LeakyRelu/alpha"], "attr": {"T": {"type": "DT_FLOAT"}}}, {"name": "leaky_re_lu_42/LeakyRelu/Maximum", "op": "Maximum", "input": ["leaky_re_lu_42/LeakyRelu/mul", "batch_normalization_42/batchnorm/add_1"], "attr": {"T": {"type": "DT_FLOAT"}}}, {"name": "conv2d_47/convolution", "op": "Conv2D", "input": ["leaky_re_lu_42/LeakyRelu/Maximum", "conv2d_47/kernel"], "device": "/device:CPU:0", "attr": {"dilations": {"list": {"i": ["1", "1", "1", "1"]}}, "T": {"type": "DT_FLOAT"}, "strides": {"list": {"i": ["1", "1", "1", "1"]}}, "data_format": {"s": "TkhXQw=="}, "use_cudnn_on_gpu": {"b": true}, "explicit_paddings": {"list": {}}, "padding": {"s": "VkFMSUQ="}}}, {"name": "add_14/add", "op": "Add", "input": ["add_13/add", "conv2d_47/convolution"], "attr": {"T": {"type": "DT_FLOAT"}}}, {"name": "batch_normalization_43/batchnorm/mul_1", "op": "Mul", "input": ["add_14/add", "batch_normalization_43/batchnorm/mul"], "attr": {"T": {"type": "DT_FLOAT"}}}, {"name": "conv2d_51/convolution", "op": "Conv2D", "input": ["add_14/add", "conv2d_51/kernel"], "device": "/device:CPU:0", "attr": {"padding": {"s": "VkFMSUQ="}, "dilations": {"list": {"i": ["1", "1", "1", "1"]}}, "T": {"type": "DT_FLOAT"}, "strides": {"list": {"i": ["1", "2", "2", "1"]}}, "data_format": {"s": "TkhXQw=="}, "explicit_paddings": {"list": {}}, "use_cudnn_on_gpu": {"b": true}}}, {"name": "batch_normalization_43/batchnorm/add_1", "op": "Add", "input": ["batch_normalization_43/batchnorm/mul_1", "batch_normalization_43/batchnorm/sub"], "attr": {"T": {"type": "DT_FLOAT"}}}, {"name": "leaky_re_lu_43/LeakyRelu/mul", "op": "Mul", "input": ["batch_normalization_43/batchnorm/add_1", "leaky_re_lu_129/LeakyRelu/alpha"], "attr": {"T": {"type": "DT_FLOAT"}}}, {"name": "leaky_re_lu_43/LeakyRelu/Maximum", "op": "Maximum", "input": ["leaky_re_lu_43/LeakyRelu/mul", "batch_normalization_43/batchnorm/add_1"], "attr": {"T": {"type": "DT_FLOAT"}}}, {"name": "batch_normalization_44/batchnorm/mul_1", "op": "Conv2D", "input": ["leaky_re_lu_43/LeakyRelu/Maximum", "conv2d_48/convolution/merged_input"], "device": "/device:CPU:0", "attr": {"dilations": {"list": {"i": ["1", "1", "1", "1"]}}, "T": {"type": "DT_FLOAT"}, "strides": {"list": {"i": ["1", "1", "1", "1"]}}, "data_format": {"s": "TkhXQw=="}, "use_cudnn_on_gpu": {"b": true}, "explicit_paddings": {"list": {}}, "padding": {"s": "VkFMSUQ="}}}, {"name": "batch_normalization_44/batchnorm/add_1", "op": "Add", "input": ["batch_normalization_44/batchnorm/mul_1", "batch_normalization_44/batchnorm/sub"], "attr": {"T": {"type": "DT_FLOAT"}}}, {"name": "leaky_re_lu_44/LeakyRelu/mul", "op": "Mul", "input": ["batch_normalization_44/batchnorm/add_1", "leaky_re_lu_129/LeakyRelu/alpha"], "attr": {"T": {"type": "DT_FLOAT"}}}, {"name": "leaky_re_lu_44/LeakyRelu/Maximum", "op": "Maximum", "input": ["leaky_re_lu_44/LeakyRelu/mul", "batch_normalization_44/batchnorm/add_1"], "attr": {"T": {"type": "DT_FLOAT"}}}, {"name": "batch_normalization_45/batchnorm/mul_1", "op": "Conv2D", "input": ["leaky_re_lu_44/Leaky…
": {"b": true}, "padding": {"s": "VkFMSUQ="}}}, {"name": "batch_normalization_110/batchnorm/add_1", "op": "Add", "input": ["batch_normalization_110/batchnorm/mul_1", "batch_normalization_110/batchnorm/sub"], "attr": {"T": {"type": "DT_FLOAT"}}}, {"name": "leaky_re_lu_116/LeakyRelu/mul", "op": "Mul", "input": ["batch_normalization_110/batchnorm/add_1", "leaky_re_lu_129/LeakyRelu/alpha"], "attr": {"T": {"type": "DT_FLOAT"}}}, {"name": "leaky_re_lu_116/LeakyRelu/Maximum", "op": "Maximum", "input": ["leaky_re_lu_116/LeakyRelu/mul", "batch_normalization_110/batchnorm/add_1"], "attr": {"T": {"type": "DT_FLOAT"}}}, {"name": "batch_normalization_111/batchnorm/mul_1", "op": "Conv2D", "input": ["leaky_re_lu_116/LeakyRelu/Maximum", "conv2d_124/convolution/merged_input"], "device": "/device:CPU:0", "attr": {"padding": {"s": "U0FNRQ=="}, "dilations": {"list": {"i": ["1", "1", "1", "1"]}}, "T": {"type": "DT_FLOAT"}, "strides": {"list": {"i": ["1", "1", "1", "1"]}}, "data_format": {"s": "TkhXQw=="}, "explicit_paddings": {"list": {}}, "use_cudnn_on_gpu": {"b": true}}}, {"name": "batch_normalization_111/batchnorm/add_1", "op": "Add", "input": ["batch_normalization_111/batchnorm/mul_1", "batch_normalization_111/batchnorm/sub"], "attr": {"T": {"type": "DT_FLOAT"}}}, {"name": "leaky_re_lu_117/LeakyRelu/mul", "op": "Mul", "input": ["batch_normalization_111/batchnorm/add_1", "leaky_re_lu_129/LeakyRelu/alpha"], "attr": {"T": {"type": "DT_FLOAT"}}}, {"name": "leaky_re_lu_117/LeakyRelu/Maximum", "op": "Maximum", "input": ["leaky_re_lu_117/LeakyRelu/mul", "batch_normalization_111/batchnorm/add_1"], "attr": {"T": {"type": "DT_FLOAT"}}}, {"name": "conv2d_125/convolution", "op": "Conv2D", "input": ["leaky_re_lu_117/LeakyRelu/Maximum", "conv2d_125/kernel"], "device": "/device:CPU:0", "attr": {"dilations": {"list": {"i": ["1", "1", "1", "1"]}}, "T": {"type": "DT_FLOAT"}, "data_format": {"s": "TkhXQw=="}, "strides": {"list": {"i": ["1", "1", "1", "1"]}}, "explicit_paddings": {"list": {}}, "use_cudnn_on_gpu": {"b": true}, "padding": {"s": "VkFMSUQ="}}}, {"name": "add_52/add", "op": "Add", "input": ["add_51/add", "conv2d_125/convolution"], "attr": {"T": {"type": "DT_FLOAT"}}}, {"name": "batch_normalization_112/batchnorm/mul_1", "op": "Mul", "input": ["add_52/add", "batch_normalization_112/batchnorm/mul"], "attr": {"T": {"type": "DT_FLOAT"}}}, {"name": "batch_normalization_112/batchnorm/add_1", "op": "Add", "input": ["batch_normalization_112/batchnorm/mul_1", "batch_normalization_112/batchnorm/sub"], "attr": {"T": {"type": "DT_FLOAT"}}}, {"name": "leaky_re_lu_118/LeakyRelu/mul", "op": "Mul", "input": ["batch_normalization_112/batchnorm/add_1", "leaky_re_lu_129/LeakyRelu/alpha"], "attr": {"T": {"type": "DT_FLOAT"}}}, {"name": "leaky_re_lu_118/LeakyRelu/Maximum", "op": "Maximum", "input": ["leaky_re_lu_118/LeakyRelu/mul", "batch_normalization_112/batchnorm/add_1"], "attr": {"T": {"type": "DT_FLOAT"}}}, {"name": "batch_normalization_113/batchnorm/mul_1", "op": "Conv2D", "input": ["leaky_re_lu_118/LeakyRelu/Maximum", "conv2d_126/convolution/merged_input"], "device": "/device:CPU:0", "attr": {"dilations": {"list": {"i": ["1", "1", "1", "1"]}}, "T": {"type": "DT_FLOAT"}, "strides": {"list": {"i": ["1", "1", "1", "1"]}}, "data_format": {"s": "TkhXQw=="}, "explicit_paddings": {"list": {}}, "use_cudnn_on_gpu": {"b": true}, "padding": {"s": "VkFMSUQ="}}}, {"name": "batch_normalization_113/batchnorm/add_1", "op": "Add", "input": ["batch_normalization_113/batchnorm/mul_1", "batch_normalization_113/batchnorm/sub"], "attr": {"T": {"type": "DT_FLOAT"}}}, {"name": "leaky_re_lu_119/LeakyRelu/mul", "op": "Mul", "input": ["batch_normalization_113/batchnorm/add_1", "leaky_re_lu_129/LeakyRelu/alpha"], "attr": {"T": {"type": "DT_FLOAT"}}}, {"name": "leaky_re_lu_119/LeakyRelu/Maximum", "op": "Maximum", "input": ["leaky_re_lu_119/LeakyRelu/mul", "batch_normalization_113/batchnorm/add_1"], "attr": {"T": {"type": "DT_FLOAT"}}}, {"name": "batch_normalization_114/batchnorm/mul_1", "op": "Conv2D", "input": ["leaky_re_lu_119/LeakyRelu/Maximum", "conv2d_127/convolution/merged_input"], "device": "/device:CPU:0", "attr": {"dilations": {"list": {"i": ["1", "1", "1", "1"]}}, "T": {"type": "DT_FLOAT"}, "data_format": {"s": "TkhXQw=="}, "strides": {"list": {"i": ["1", "1", "1", "1"]}}, "use_cudnn_on_gpu": {"b": true}, "explicit_paddings": {"list": {}}, "padding": {"s": "U0FNRQ=="}}}, {"name": "batch_normalization_114/batchnorm/add_1", "op": "Add", "input": ["batch_normalization_114/batchnorm/mul_1", "batch_normalization_114/batchnorm/sub"], "attr": {"T": {"type": "DT_FLOAT"}}}, {"name": "leaky_re_lu_120/LeakyRelu/mul", "op": "Mul", "input": ["batch_normalization_114/batchnorm/add_1", "leaky_re_lu_129/LeakyRelu/alpha"], "attr": {"T": {"type": "DT_FLOAT"}}}, {"name": "leaky_re_lu_120/LeakyRelu/Maximum", "op": "Maximum", "input": ["leaky_re_lu_120/LeakyRelu/mul", "batch_normalization_114/batchnorm/add_1"], "attr": {"T": {"type": "DT_FLOAT"}}}, {"name": "conv2d_128/convolution", "op": "Conv2D", "input": ["leaky_re_lu_120/LeakyRelu/Maximum", "conv2d_128/kernel"], "device": "/device:CPU:0", "attr": {"T": {"type": "DT_FLOAT"}, "data_format": {"s": "TkhXQw=="}, "strides": {"list": {"i": ["1", "1", "1", "1"]}}, "use_cudnn_on_gpu": {"b": true}, "explicit_paddings": {"list": {}}, "padding": {"s": "VkFMSUQ="}, "dilations": {"list": {"i": ["1", "1", "1", "1"]}}}}, {"name": "add_53/add", "op": "Add", "input": ["add_52/add", "conv2d_128/convolution"], "attr": {"T": {"type": "DT_FLOAT"}}}, {"name": "batch_normalization_115/batchnorm/mul_1", "op": "Mul", "input": ["add_53/add", "batch_normalization_115/batchnorm/mul"], "attr": {"T": {"type": "DT_FLOAT"}}}, {"name": "conv2d_132/convolution", "op": "Conv2D", "input": ["add_53/add", "conv2d_132/kernel"], "device": "/device:CPU:0", "attr": {"dilations": {"list": {"i": ["1", "1", "1", "1"]}}, "T": {"type": "DT_FLOAT"}, "data_format": {"s": "TkhXQw=="}, "strides": {"list": {"i": ["1", "1", "1", "1"]}}, "use_cudnn_on_gpu": {"b": true}, "explicit_paddings": {"list": {}}, "padding": {"s": "VkFMSUQ="}}}, {"name": "batch_normalization_115/batchnorm/add_1", "op": "Add", "input": ["batch_normalization_115/batchnorm/mul_1", "batch_normalization_115/batchnorm/sub"], "attr": {"T": {"type": "DT_FLOAT"}}}, {"name": "leaky_re_lu_121/LeakyRelu/mul", "op": "Mul", "input": ["batch_normalization_115/batchnorm/add_1", "leaky_re_lu_129/LeakyRelu/alpha"], "attr": {"T": {"type": "DT_FLOAT"}}}, {"name": "leaky_re_lu_121/LeakyRelu/Maximum", "op": "Maximum", "input": ["leaky_re_lu_121/LeakyRelu/mul", "batch_normalization_115/batchnorm/add_1"], "attr": {"T": {"type": "DT_FLOAT"}}}, {"name": "batch_normalization_116/batchnorm/mul_1", "op": "Conv2D", "input": ["leaky_re_lu_121/LeakyRelu/Maximum", "conv2d_129/convolution/merged_input"], "device": "/device:CPU:0", "attr": {"strides": {"list": {"i": ["1", "1", "1", "1"]}}, "data_format": {"s": "TkhXQw=="}, "use_cudnn_on_gpu": {"b": true}, "explicit_paddings": {"list": {}}, "padding": {"s": "VkFMSUQ="}, "dilations": {"list": {"i": ["1", "1", "1", "1"]}}, "T": {"type": "DT_FLOAT"}}}, {"name": "batch_normalization_116/batchnorm/add_1", "op": "Add", "input": ["batch_normalization_116/batchnorm/mul_1", "batch_normalization_116/batchnorm/sub"], "attr": {"T": {"type": "DT_FLOAT"}}}, {"name": "leaky_re_lu_122/LeakyRelu/mul", "op": "Mul", "input": ["batch_normalization_116/batchnorm/add_1", "leaky_re_lu_129/LeakyRelu/alpha"], "attr": {"T": {"type": "DT_FLOAT"}}}, {"name": "leaky_re_lu_122/LeakyRelu/Maximum", "op": "Maximum", "input": ["leaky_re_lu_122/LeakyRelu/mul", "batch_normalization_116/batchnorm/add_1"], "attr": {"T": {"type": "DT_FLOAT"}}}, {"name": "batch_normalization_117/batchnorm/mul_1", "op": "Conv2D", "input": ["leaky_re_lu_122/LeakyRelu/Maximum", "conv2d_130/convolution/merged_input"], "device": "/device:CPU:0", "attr": {"dilations": {"list": {"i": ["1", "1", "1", "1"]}}, "T": {"type": "DT_FLOAT"}, "strides": {"list": {"i": ["1", "1", "1", "1"]}}, "data_format": {"s": "TkhXQw=="}, "use_cudnn_on_gpu": {"b": true}, "explicit_paddings": {"list": {}}, "padding": {"s": "U0FNRQ=="}}}, {"name": "batch_normalization_117/batchnorm/add_1", "op": "Add", "input": ["batch_normalization_117/batchnorm/mul_1", "batch_normalization_117/batchnorm/sub"], "attr": {"T": {"type": "DT_FLOAT"}}}, {"name": "leaky_re_lu_123/LeakyRelu/mul", "op": "Mul", "input": ["batch_normalization_117/batchnorm/add_1", "leaky_re_lu_129/LeakyRelu/alpha"], "attr": {"T": {"type": "DT_FLOAT"}}}, {"name": "leaky_re_lu_123/LeakyRelu/Maximum", "op": "Maximum", "input": ["leaky_re_lu_123/LeakyRelu/mul", "batch_normalization_117/batchnorm/add_1"], "attr": {"T": {"type": "DT_FLOAT"}}}, {"name": "conv2d_131/convolution", "op": "Conv2D", "input": ["leaky_re_lu_123/LeakyRelu/Maximum", "conv2d_131/kernel"], "device": "/device:CPU:0", "attr": {"padding": {"s": "VkFMSUQ="}, "dilations": {"list": {"i": ["1", "1", "1", "1"]}}, "T": {"type": "DT_FLOAT"}, "strides": {"list": {"i": ["1", "1", "1", "1"]}}, "data_format": {"s": "TkhXQw=="}, "use_cudnn_on_gpu": {"b": true}, "explicit_paddings": {"list": {}}}}, {"name": "add_54/add", "op": "Add", "input": ["conv2d_131/convolution", "conv2d_132/convolution"], "attr": {"T": {"type": "DT_FLOAT"}}}, {"name": "batch_normalization_118/batchnorm/mul_1", "op": "Mul", "input": ["add_54/add", "batch_normalization_118/batchnorm/mul"], "attr": {"T": {"type": "DT_FLOAT"}}}, {"name": "batch_normalization_118/batchnorm/add_1", "op": "Add", "input": ["batch_normalization_118/batchnorm/mul_1", "batch_normalization_118/batchnorm/sub"], "attr": {"T": {"type": "DT_FLOAT"}}}, {"name": "leaky_re_lu_124/LeakyRelu/mul", "op": "Mul", "input": ["batch_normalization_118/batchnorm/add_1", "leaky_re_lu_129/LeakyRelu/alpha"], "attr": {"T": {"type": "DT_FLOAT"}}}, {"name": "leaky_re_lu_124/LeakyRelu/Maximum", "op": "Maximum", "input": ["leaky_re_lu_124/LeakyRelu/mul", "batch_normalization_118/batchnorm/add_1"], "attr": {"T": {"type": "DT_FLOAT"}}}, {"name": "batch_normalization_119/batchnorm/mul_1", "op": "Conv2D", "input": ["leaky_re_lu_124/LeakyRelu/Maximum", "conv2d_133/convolution/merged_input"], "device": "/device:CPU:0", "attr": {"dilations": {"list": {"i": ["1", "1", "1", "1"]}}, "T": {"type": "DT_FLOAT"}, "data_format": {"s": "TkhXQw=="}, "strides": {"list": {"i": ["1", "1", "1", "1"]}}, "use_cudnn_on_gpu": {"b": true}, "explicit_paddings": {"list": {}}, "padding": {"s": "VkFMSUQ="}}}, {"name": "batch_normalization_119/batchnorm/add_1", "op": "Add", "input": ["batch_normalization_119/batchnorm/mul_1", "batch_normalization_119/batchnorm/sub"], "attr": {"T": {"type": "DT_FLOAT"}}}, {"name": "leaky_re_lu_125/LeakyRelu/mul", "op": "Mul", "input": ["batch_normalization_119/batchnorm/add_1", "leaky_re_lu_129/LeakyRelu/alpha"], "attr": {"T": {"type": "DT_FLOAT"}}}, {"name": "leaky_re_lu_125/LeakyRelu/Maximum", "op": "Maximum", "input": ["leaky_re_lu_125/LeakyRelu/mul", "batch_normalization_119/batchnorm/add_1"], "attr": {"T": {"type": "DT_FLOAT"}}}, {"name": "batch_normalization_120/batchnorm/mul_1", "op": "Conv2D", "input": ["leaky_re_lu_125/LeakyRelu/Maximum", "conv2d_134/convolution/merged_input"], "device": "/device:CPU:0", "attr": {"T": {"type": "DT_FLOAT"}, "strides": {"list": {"i": ["1", "1", "1", "1"]}}, "data_format": {"s": "TkhXQw=="}, "use_cudnn_on_gpu": {"b": true}, "explicit_paddings": {"list": {}}, "padding": {"s": "U0FNRQ=="}, "dilations": {"list": {"i": ["1", "1", "1", "1"]}}}}, {"name": "batch_normalization_120/batchnorm/add_1", "op": "Add", "input": ["batch_normalization_120/batchnorm/mul_1", "batch_normalization_120/batchnorm/sub"], "attr": {"T": {"type": "DT_FLOAT"}}}, {"name": "leaky_re_lu_126/LeakyRelu/mul", "op": "Mul", "input": ["batch_normalization_120/batchnorm/add_1", "leaky_re_lu_129/LeakyRelu/alpha"], "attr": {"T": {"type": "DT_FLOAT"}}}, {"name": "leaky_re_lu_126/LeakyRelu/Maximum", "op": "Maximum", "input": ["leaky_re_lu_126/LeakyRelu/mul", "batch_normalization_120/batchnorm/add_1"], "attr": {"T": {"type": "DT_FLOAT"}}}, {"name": "conv2d_135/convolution", "op": "Conv2D", "input": ["leaky_re_lu_126/LeakyRelu/Maximum", "conv2d_135/kernel"], "device": "/device:CPU:0", "attr": {"dilations": {"list": {"i": ["1", "1", "1", "1"]}}, "T": {"type": "DT_FLOAT"}, "strides": {"list": {"i": ["1", "1", "1", "1"]}}, "data_format": {"s": "TkhXQw=="}, "explicit_paddings": {"list": {}}, "use_cudnn_on_gpu": {"b": true}, "padding": {"s": "VkFMSUQ="}}}, {"name": "add_55/add", "op": "Add", "input": ["add_54/add", "conv2d_135/convolution"], "attr": {"T": {"type": "DT_FLOAT"}}}, {"name": "batch_normalization_121/batchnorm/mul_1", "op": "Mul", "input": ["add_55/add", "batch_normalization_121/batchnorm/mul"], "attr": {"T": {"type": "DT_FLOAT"}}}, {"name": "batch_normalization_121/batchnorm/add_1", "op": "Add", "input": ["batch_normalization_121/batchnorm/mul_1", "batch_normalization_121/batchnorm/sub"], "attr": {"T": {"type": "DT_FLOAT"}}}, {"name": "leaky_re_lu_127/LeakyRelu/mul", "op": "Mul", "input": ["batch_normalization_121/batchnorm/add_1", "leaky_re_lu_129/LeakyRelu/alpha"], "attr": {"T": {"type": "DT_FLOAT"}}}, {"name": "leaky_re_lu_127/LeakyRelu/Maximum", "op": "Maximum", "input": ["leaky_re_lu_127/LeakyRelu/mul", "batch_normalization_121/batchnorm/add_1"], "attr": {"T": {"type": "DT_FLOAT"}}}, {"name": "batch_normalization_122/batchnorm/mul_1", "op": "Conv2D", "input": ["leaky_re_lu_127/LeakyRelu/Maximum", "conv2d_136/convolution/merged_input"], "device": "/device:CPU:0", "attr": {"padding": {"s": "VkFMSUQ="}, "dilations": {"list": {"i": ["1", "1", "1", "1"]}}, "T": {"type": "DT_FLOAT"}, "data_format": {"s": "TkhXQw=="}, "strides": {"list": {"i": ["1", "1", "1", "1"]}}, "use_cudnn_on_gpu": {"b": true}, "explicit_paddings": {"list": {}}}}, {"name": "batch_normalization_122/batchnorm/add_1", "op": "Add", "input": ["batch_normalization_122/batchnorm/mul_1", "batch_normalization_122/batchnorm/sub"], "attr": {"T": {"type": "DT_FLOAT"}}}, {"name": "leaky_re_lu_128/LeakyRelu/mul", "op": "Mul", "input": ["batch_normalization_122/batchnorm/add_1", "leaky_re_lu_129/LeakyRelu/alpha"], "attr": {"T": {"type": "DT_FLOAT"}}}, {"name": "leaky_re_lu_128/LeakyRelu/Maximum", "op": "Maximum", "input": ["leaky_re_lu_128/LeakyRelu/mul", "batch_normalization_122/batchnorm/add_1"], "attr": {"T": {"type": "DT_FLOAT"}}}, {"name": "batch_normalization_123/batchnorm/mul_1", "op": "Conv2D", "input": ["leaky_re_lu_128/LeakyRelu/Maximum", "conv2d_137/convolution/merged_input"], "device": "/device:CPU:0", "attr": {"dilations": {"list": {"i": ["1", "1", "1", "1"]}}, "T": {"type": "DT_FLOAT"}, "data_format": {"s": "TkhXQw=="}, "strides": {"list": {"i": ["1", "1", "1", "1"]}}, "explicit_paddings": {"list": {}}, "use_cudnn_on_gpu": {"b": true}, "padding": {"s": "U0FNRQ=="}}}, {"name": "batch_normalization_123/batchnorm/add_1", "op": "Add", "input": ["batch_normalization_123/batchnorm/mul_1", "batch_normalization_123/batchnorm/sub"], "attr": {"T": {"type": "DT_FLOAT"}}}, {"name": "leaky_re_lu_129/LeakyRelu/mul", "op": "Mul", "input": ["batch_normalization_123/batchnorm/add_1", "leaky_re_lu_129/LeakyRelu/alpha"], "attr": {"T": {"type": "DT_FLOAT"}}}, {"name": "leaky_re_lu_129/LeakyRelu/Maximum", "op": "Maximum", "input": ["leaky_re_lu_129/LeakyRelu/mul", "batch_normalization_123/batchnorm/add_1"], "attr": {"T": {"type": "DT_FLOAT"}}}, {"name": "conv2d_138/convolution", "op": "Conv2D", "input": ["leaky_re_lu_129/LeakyRelu/Maximum", "conv2d_138/kernel"], "device": "/device:CPU:0", "attr": {"dilations": {"list": {"i": ["1", "1", "1", "1"]}}, "T": {"type": "DT_FLOAT"}, "strides": {"list": {"i": ["1", "1", "1", "1"]}}, "data_format": {"s": "TkhXQw=="}, "use_cudnn_on_gpu": {"b": true}, "explicit_paddings": {"list": {}}, "padding": {"s": "VkFMSUQ="}}}, {"name": "add_56/add", "op": "Add", "input": ["add_55/add", "conv2d_138/convolution"], "attr": {"T": {"type": "DT_FLOAT"}}}, {"name": "conv2d_139/BiasAdd", "op": "_FusedConv2D", "input": ["add_56/add", "conv2d_139/kernel", "conv2d_139/bias"], "device": "/device:CPU:0", "attr": {"epsilon": {"f": 0.0}, "padding": {"s": "VkFMSUQ="}, "fused_ops": {"list": {"s": ["Qmlhc0FkZA=="]}}, "dilations": {"list": {"i": ["1", "1", "1", "1"]}}, "T": {"type": "DT_FLOAT"}, "strides": {"list": {"i": ["1", "1", "1", "1"]}}, "data_format": {"s": "TkhXQw=="}, "explicit_paddings": {"list": {}}, "use_cudnn_on_gpu": {"b": true}, "num_args": {"i": "1"}}}, {"name": "conv2d_139/Tanh", "op": "Tanh", "input": ["conv2d_139/BiasAdd"], "attr": {"T": {"type": "DT_FLOAT"}}}], "versions": {}}, "weightsManifest": [{"paths": ["group1-shard1of10.bin", "group1-shard2of10.bin", "group1-shard3of10.bin", "group1-shard4of10.bin", "group1-shard5of10.bin", "group1-shard6of10.bin", "group1-shard7of10.bin", "group1-shard8of10.bin", "group1-shard9of10.bin", "group1-shard10of10.bin"], "weights": [{"name": "batch_normalization_115/batchnorm/mul", "shape": [32], "dtype": "float32"}, {"name": "batch_normalization_115/batchnorm/sub", "shape": [32], "dtype": "float32"}, {"name": "conv2d_129/convolution/merged_input", "shape": [1, 1, 32, 4], "dtype": "float32"}, {"name": "batch_normalization_116/batchnorm/sub", "shape": [4], "dtype": "float32"}, {"name": "conv2d_130/convolution/merged_input", "shape": [3, 3, 4, 4], "dtype": "float32"}, {"name": "batch_normalization_117/batchnorm/sub", "shape": [4], "dtype": "float32"}, {"name": "conv2d_131/kernel", "shape": [1, 1, 4, 16], "dtype": "float32"}, {"name": "dense_23/kernel", "shape": [128, 32], "dtype": "float32"}, {"name": "dense_23/bias", "shape": [32], "dtype": "float32"}, {"name": "conv2d_120/kernel", "shape": [1, 1, 32, 1], "dtype": "float32"}, {"name": "batch_normalization_107/batchnorm/mul", "shape": [8], "dtype": "float32"}, {"name": "batch_normalization_105/batchnorm/mul", "shape": [64], "dtype": "float32"}, {"name": "batch_normalization_105/batchnorm/sub", "shape": [64], "dtype": "float32"}, {"name": "conv2d_118/convolution/merged_input", "shape": [1, 1, 64, 8], "dtype": "float32"}, {"name": "batch_normalization_106/batchnorm/sub", "shape": [8], "dtype": "float32"}, {"name": "sub_pixel_conv2d_9/kernel", "shape": [3, 3, 8, 32], "dtype": "float32"}, {"name": "batch_normalization_107/batchnorm/sub", "shape": [8], "dtype": "float32"}, {"name": "conv2d_119/kernel", "shape": [1, 1, 8, 32], "dtype": "float32"}, {"name": "self_attention_5/kernel_g", "shape": [1, 1, 64, 8], "dtype": "float32"}, {"name": "self_attention_5/bias_g", "shape": [8], "dtype": "float32"}, {"name": "self_attention_5/kernel_f", "shape": [1, 1, 64, 8], "dtype": "float32"}, {"name": "self_attention_5/bias_f", "shape": [8], "dtype": "float32"}, {"name": "self_attention_5/kernel_h", "shape": [1, 1, 64, 64], "dtype": "float32"}, {"name": "self_attention_5/bias_h", "shape": [64], "dtype": "float32"}, {"name": "dense_19/kernel", "shape": [128, 64], "dtype": "float32"}, {"name": "dense_19/bias", "shape": [64], "dtype": "float32"}, {"name": "conv2d_109/kernel", "shape": [1, 1, 64, 1], "dtype": "float32"}, {"name": "batch_normalization_97/batchnorm/mul", "shape": [16], "dtype": "float32"}, {"name": "batch_normalization_95/batchnorm/mul", "shape": [128], "dtype": "float32"}, {"name": "batch_normalization_95/batchnorm/sub", "shape": [128], "dtype": "float32"}, {"name": "conv2d_107/convolution/merged_input", "shape": [1, 1, 128, 16], "dtype": "float32"}, {"name": "batch_normalization_96/batchnorm/sub", "shape": [16], "dtype": "float32"}, {"name": "sub_pixel_conv2d_7/kernel", "shape": [3, 3, 16, 64], "dtype": "float32"}, {"name": "batch_normalization_97/batchnorm/sub", "shape": [16], "dtype": "float32"}, {"name": "conv2d_108/kernel", "shape": [1, 1, 16, 64], "dtype": "float32"}, {"name": "self_attention_4/kernel_g", "shape": [1, 1, 128, 16], "dtype": "float32"}, {"name": "self_attention_4/bias_g", "shape": [16], "dtype": "float32"}, {"name": "self_attention_4/kernel_f", "shape": [1, 1, 128, 16], "dtype": "float32"}, {"name": "self_attention_4/bias_f", "shape": [16], "dtype": "float32"}, {"name": "self_attention_4/kernel_h", "shape": [1, 1, 128, 128], "dtype": "float32"}, {"name": "self_attention_4/bias_h", "shape": [128], "dtype": "float32"}, {"name": "dense_15/kernel", "shape": [128, 128], "dtype": "float32"}, {"name": "dense_15/bias", "shape": [128], "dtype": "float32"}, {"name": "conv2d_97/kernel", "shape": [1, 1, 128, 1], "dtype": "float32"}, {"name": "batch_normalization_87/batchnorm/mul", "shape": [32], "dtype": "float32"}, {"name": "batch_normalization_85/batchnorm/mul", "shape": [256], "dtype": "float32"}, {"name": "batch_normalization_85/batchnorm/sub", "shape": [256], "dtype": "float32"}, {"name": "conv2d_95/convolution/merged_input", "shape": [1, 1, 256, 32], "dtype": "float32"}, {"name": "batch_normalization_86/batchnorm/sub", "shape": [32], "dtype": "float32"}, {"name": "sub_pixel_conv2d_5/kernel", "shape": [3, 3, 32, 128], "dtype": "float32"}, {"name": "batch_normalization_87/batchnorm/sub", "shape": [32], "dtype": "float32"}, {"name": "conv2d_96/kernel", "shape": [1, 1, 32, 128], "dtype": "float32"}, {"name": "self_attention_3/kernel_g", "shape": [1, 1, 256, 32], "dtype": "float32"}, {"name": "self_attention_3/bias_g", "shape": [32], "dtype": "float32"}, {"name": "self_attention_3/kernel_f", "shape": [1, 1, 256, 32], "dtype": "float32"}, {"name": "self_attention_3/bias_f", "shape": [32], "dtype": "float32"}, {"name": "self_attention_3/kernel_h", "shape": [1, 1, 256, 256], "dtype": "float32"}, {"name": "self_attention_3/bias_h", "shape": [256], "dtype": "float32"}, {"name": "dense_11/kernel", "shape": [128, 256], "dtype": "float32"}, {"name": "dense_11/bias", "shape": [256], "dtype": "float32"}, {"name": "conv2d_86/kernel", "shape": [1, 1, 256, 1], "dtype": "float32"}, {"name": "batch_normalization_77/batchnorm/mul", "shape": [64], "dtype": "float32"}, {"name": "batch_normalization_75/batchnorm/mul", "shape": [256], "dtype": "float32"}, {"name": "batch_normalization_75/batchnorm/sub", "shape": [256], "dtype": "float32"}, {"name": "conv2d_84/convolution/merged_input", "shape": [1, 1, 256, 64], "dtype": "float32"}, {"name": "batch_normalization_76/batchnorm/sub", "shape": [64], "dtype": "float32"}, {"name": "sub_pixel_conv2d_3/kernel", "shape": [3, 3, 64, 256], "dtype": "float32"}, {"name": "batch_normalization_77/batchnorm/sub", "shape": [64], "dtype": "float32"}, {"name": "conv2d_85/kernel", "shape": [1, 1, 64, 256], "dtype": "float32"}, {"name": "self_attention_2/kernel_g", "shape": [1, 1, 256, 32], "dtype": "float32"}, {"name": "self_attention_2/bias_g", "shape": [32], "dtype": "float32"}, {"name": "self_attention_2/kernel_f", "shape": [1, 1, 256, 32], "dtype": "float32"}, {"name": "self_attention_2/bias_f", "shape": [32], "dtype": "float32"}, {"name": "self_attention_2/kernel_h", "shape": [1, 1, 256, 256], "dtype": "float32"}, {"name": "self_attention_2/bias_h", "shape": [256], "dtype": "float32"}, {"name": "dense_7/kernel", "shape": [128, 256], "dtype": "float32"}, {"name": "dense_7/bias", "shape": [256], "dtype": "float32"}, {"name": "conv2d_74/kernel", "shape": [1, 1, 256, 1], "dtype": "float32"}, {"name": "batch_normalization_67/batchnorm/mul", "shape": [64], "dtype": "float32"}, {"name": "batch_normalization_65/batchnorm/mul", "shape": [512], "dtype": "float32"}, {"name": "batch_normalization_65/batchnorm/sub", "shape": [512], "dtype": "float32"}, {"name": "conv2d_72/convolution/merged_input", "shape": [1, 1, 512, 64], "dtype": "float32"}, {"name": "batch_normalization_66/batchnorm/sub", "shape": [64], "dtype": "float32"}, {"name": "sub_pixel_conv2d_1/kernel", "shape": [3, 3, 64, 256], "dtype": "float32"}, {"name": "batch_normalization_67/batchnorm/sub", "shape": [64], "dtype": "float32"}, {"name": "conv2d_73/kernel", "shape": [1, 1, 64, 256], "dtype": "float32"}, {"name": "self_attention_1/kernel_g", "shape": [1, 1, 512, 64], "dtype": "float32"}, {"name": "self_attention_1/bias_g", "shape": [64], "dtype": "float32"}, {"name": "self_attention_1/kernel_f", "shape": [1, 1, 512, 64], "dtype": "float32"}, {"name": "self_attention_1/bias_f", "shape": [64], "dtype": "float32"}, {"name": "self_attention_1/kernel_h", "shape": [1, 1, 512, 512], "dtype": "float32"}, {"name": "self_attention_1/bias_h", "shape": [512], "dtype": "float32"}, {"name": "dense_3/kernel", "shape": [128, 512], "dtype": "float32"}, {"name": "dense_3/bias", "shape": [512], "dtype": "float32"}, {"name": "batch_normalization_43/batchnorm/mul", "shape": [256], "dtype": "float32"}, {"name": "batch_normalization_43/batchnorm/sub", "shape": [256], "dtype": "float32"}, {"name": "conv2d_48/convolution/merged_input", "shape": [1, 1, 256, 128], "dtype": "float32"}, {"name": "batch_normalization_44/batchnorm/sub", "shape": [128], "dtype": "float32"}, {"name": "conv2d_49/convolution/merged_input", "shape": [3, 3, 128, 128], "dtype": "float32"}, {"name": "batch_normalization_45/batchnorm/sub", "shape": [128], "dtype": "float32"}, {"name": "conv2d_50/kernel", "shape": [1, 1, 128, 512], "dtype": "float32"}, {"name": "batch_normalization_34/batchnorm/mul", "shape": [256], "dtype": "float32"}, {"name": "batch_normalization_34/batchnorm/sub", "shape": [256], "dtype": "float32"}, {"name": "conv2d_38/convolution/merged_input", "shape": [1, 1, 256, 64], "dtype": "float32"}, {"name": "batch_normalization_35/batchnorm/sub", "shape": [64], "dtype": "float32"}, {"name": "conv2d_39/convolution/merged_input", "shape": [3, 3, 64, 64], "dtype": "float32"}, {"name": "batch_normalization_36/batchnorm/sub", "shape": [64], "dtype": "float32"}, {"name": "conv2d_40/kernel", "shape": [1, 1, 64, 256], "dtype": "float32"}, {"name": "batch_normalization_25/batchnorm/mul", "shape": [128], "dtype": "float32"}, {"name": "batch_normalization_25/batchnorm/sub", "shape": [128], "dtype": "float32"}, {"name": "conv2d_28/convolution/merged_input", "shape": [1, 1, 128, 64], "dtype": "float32"}, {"name": "batch_normalization_26/batchnorm/sub", "shape": [64], "dtype": "float32"}, {"name": "conv2d_29/convolution/merged_input", "shape": [3, 3, 64, 64], "dtype": "float32"}, {"name": "batch_normalization_27/batchnorm/sub", "shape": [64], "dtype": "float32"}, {"name": "conv2d_30/kernel", "shape": [1, 1, 64, 256], "dtype": "float32"}, {"name": "conv2d_31/kernel", "shape": [1, 1, 128, 256], "dtype": "float32"}, {"name": "batch_normalization_28/batchnorm/mul", "shape": [256], "dtype": "float32"}, {"name": "batch_normalization_28/batchnorm/sub", "shape": [256], "dtype": "float32"}, {"name": "conv2d_32/convolution/merged_input", "shape": [1, 1, 256, 64], "dtype": "float32"}, {"name": "batch_normalization_29/batchnorm/sub", "shape": [64], "dtype": "float32"}, {"name": "conv2d_33/convolution/merged_input", "shape": [3, 3, 64, 64], "dtype": "float32"}, {"name": "batch_normalization_30/batchnorm/sub", "shape": [64], "dtype": "float32"}, {"name": "conv2d_34/kernel", "shape": [1, 1, 64, 256], "dtype": "float32"}, {"name": "batch_normalization_31/batchnorm/mul", "shape": [256], "dtype": "float32"}, {"name": "batch_normalization_31/batchnorm/sub", "shape": [256], "dtype": "float32"}, {"name": "conv2d_35/convolution/merged_input", "shape": [1, 1, 256, 64], "dtype": "float32"}, {"name": "batch_normalization_32/batchnorm/sub", "shape": [64], "dtype": "float32"}, {"name": "conv2d_36/convolution/merged_input", "shape": [3, 3, 64, 64], "dtype": "float32"}, {"name": "batch_normalization_33/batchnorm/sub", "shape": [64], "dtype": "float32"}, {"name": "conv2d_37/kernel", "shape": [1, 1, 64, 256], "dtype": "float32"}, {"name": "conv2d_41/kernel", "shape": [1, 1, 256, 256], "dtype": "float32"}, {"name": "batch_normalization_37/batchnorm/mul", "shape": [256], "dtype": "float32"}, {"name": "batch_normalization_37/batchnorm/sub", "shape": [256], "dtype": "float32"}, {"name": "conv2d_42/convolution/merged_input", "shape": [1, 1, 256, 64], "dtype": "float32"}, {"name": "batch_normalization_38/batchnorm/sub", "shape": [64], "dtype": "float32"}, {"name": "conv2d_43/convolution/merged_input", "shape": [3, 3, 64, 64], "dtype": "float32"}, {"name": "batch_normalization_39/batchnorm/sub", "shape": [64], "dtype": "float32"}, {"name": "conv2d_44/kernel", "shape": [1, 1, 64, 256], "dtype": "float32"}, {"name": "batch_normalization_40/batchnorm/mul", "shape": [256], "dtype": "float32"}, {"name": "batch_normalization_40/batchnorm/sub", "shape": [256], "dtype": "float32"}, {"name": "conv2d_45/convolution/merged_input", "shape": [1, 1, 256, 64], "dtype": "float32"}, {"name": "batch_normalization_41/batchnorm/sub", "shape": [64], "dtype": "float32"}, {"name": "conv2d_46/convolution/merged_input", "shape": [3, 3, 64, 64], "dtype": "float32"}, {"name": "batch_normalization_42/batchnorm/sub", "shape": [64], "dtype": "float32"}, {"name": "conv2d_47/kernel", "shape": [1, 1, 64, 256], "dtype": "float32"}, {"name": "conv2d_51/kernel", "shape": [1, 1, 256, 512], "dtype": "float32"}, {"name": "batch_normalization_46/batchnorm/mul", "shape": [512], "dtype": "float32"}, {"name": "batch_normalization_46/batchnorm/sub", "shape": [512], "dtype": "float32"}, {"name": "conv2d_52/convolution/merged_input", "shape": [1, 1, 512, 128], "dtype": "float32"}, {"name": "batch_normalization_47/batchnorm/sub", "shape": [128], "dtype": "float32"}, {"name": "conv2d_53/convolution/merged_input", "shape": [3, 3, 128, 128], "dtype": "float32"}, {"name": "batch_normalization_48/batchnorm/sub", "shape": [128], "dtype": "float32"}, {"name": "conv2d_54/kernel", "shape": [1, 1, 128, 512], "dtype": "float32"}, {"name": "batch_normalization_49/batchnorm/mul", "shape": [512], "dtype": "float32"}, {"name": "batch_normalization_49/batchnorm/sub", "shape": [512], "dtype": "float32"}, {"name": "conv2d_55/convolution/merged_input", "shape": [1, 1, 512, 128], "dtype": "float32"}, {"name": "batch_normalization_50/batchnorm/sub", "shape": [128], "dtype": "float32"}, {"name": "conv2d_56/convolution/merged_input", "shape": [3, 3, 128, 128], "dtype": "float32"}, {"name": "batch_normalization_51/batchnorm/sub", "shape": [128], "dtype": "float32"}, {"name": "conv2d_57/kernel", "shape": [1, 1, 128, 512], "dtype": "float32"}, {"name": "conv2d_58/kernel", "shape": [1, 1, 514, 512], "dtype": "float32"}, {"name": "conv2d_59/convolution/merged_input", "shape": [3, 3, 512, 512], "dtype": "float32"}, {"name": "batch_normalization_52/batchnorm/mul_1", "shape": [512], "dtype": "float32"}, {"name": "dense_2/kernel", "shape": [128, 512], "dtype": "float32"}, {"name": "dense_2/bias", "shape": [512], "dtype": "float32"}, {"name": "batch_normalization_53/batchnorm/mul", "shape": [512], "dtype": "float32"}, {"name": "batch_normalization_53/batchnorm/sub", "shape": [512], "dtype": "float32"}, {"name": "conv2d_60/convolution/merged_input", "shape": [1, 1, 512, 128], "dtype": "float32"}, {"name": "batch_normalization_54/batchnorm/sub", "shape": [128], "dtype": "float32"}, {"name": "conv2d_61/convolution/merged_input", "shape": [3, 3, 128, 128], "dtype": "float32"}, {"name": "batch_normalization_55/batchnorm/sub", "shape": [128], "dtype": "float32"}, {"name": "conv2d_62/kernel", "shape": [1, 1, 128, 512], "dtype": "float32"}, {"name": "batch_normalization_56/batchnorm/mul", "shape": [512], "dtype": "float32"}, {"name": "batch_normalization_56/batchnorm/sub", "shape": [512], "dtype": "float32"}, {"name": "conv2d_63/convolution/merged_input", "shape": [1, 1, 512, 128], "dtype": "float32"}, {"name": "batch_normalization_57/batchnorm/sub", "shape": [128], "dtype": "float32"}, {"name": "conv2d_64/convolution/merged_input", "shape": [3, 3, 128, 128], "dtype": "float32"}, {"name": "batch_normalization_58/batchnorm/sub", "shape": [128], "dtype": "float32"}, {"name": "conv2d_65/kernel", "shape": [1, 1, 128, 512], "dtype": "float32"}, {"name": "batch_normalization_59/batchnorm/mul", "shape": [512], "dtype": "float32"}, {"name": "batch_normalization_59/batchnorm/sub", "shape": [512], "dtype": "float32"}, {"name": "conv2d_66/convolution/merged_input", "shape": [1, 1, 512, 128], "dtype": "float32"}, {"name": "batch_normalization_60/batchnorm/sub", "shape": [128], "dtype": "float32"}, {"name": "conv2d_67/convolution/merged_input", "shape": [3, 3, 128, 128], "dtype": "float32"}, {"name": "batch_normalization_61/batchnorm/sub", "shape": [128], "dtype": "float32"}, {"name": "conv2d_68/kernel", "shape": [1, 1, 128, 512], "dtype": "float32"}, {"name": "batch_normalization_62/batchnorm/mul", "shape": [512], "dtype": "float32"}, {"name": "batch_normalization_62/batchnorm/sub", "shape": [512], "dtype": "float32"}, {"name": "conv2d_69/convolution/merged_input", "shape": [1, 1, 512, 128], "dtype": "float32"}, {"name": "batch_normalization_63/batchnorm/sub", "shape": [128], "dtype": "float32"}, {"name": "conv2d_70/convolution/merged_input", "shape": [3, 3, 128, 128], "dtype": "float32"}, {"name": "batch_normalization_64/batchnorm/sub", "shape": [128], "dtype": "float32"}, {"name": "conv2d_71/kernel", "shape": [1, 1, 128, 512], "dtype": "float32"}, {"name": "self_attention_1/gamma", "shape": [1], "dtype": "float32"}, {"name": "sub_pixel_conv2d_2/kernel", "shape": [1, 1, 512, 1024], "dtype": "float32"}, {"name": "dense_4/kernel", "shape": [256, 128], "dtype": "float32"}, {"name": "dense_5/kernel", "shape": [128, 256], "dtype": "float32"}, {"name": "conv2d_75/kernel", "shape": [1, 1, 514, 256], "dtype": "float32"}, {"name": "conv2d_76/convolution/merged_input", "shape": [3, 3, 256, 256], "dtype": "float32"}, {"name": "batch_normalization_68/batchnorm/mul_1", "shape": [256], "dtype": "float32"}, {"name": "dense_6/kernel", "shape": [128, 256], "dtype": "float32"}, {"name": "dense_6/bias", "shape": [256], "dtype": "float32"}, {"name": "batch_normalization_69/batchnorm/mul", "shape": [256], "dtype": "float32"}, {"name": "batch_normalization_69/batchnorm/sub", "shape": [256], "dtype": "float32"}, {"name": "conv2d_77/convolution/merged_input", "shape": [1, 1, 256, 64], "dtype": "float32"}, {"name": "batch_normalization_70/batchnorm/sub", "shape": [64], "dtype": "float32"}, {"name": "conv2d_78/convolution/merged_input", "shape": [3, 3, 64, 64], "dtype": "float32"}, {"name": "batch_normalization_71/batchnorm/sub", "shape": [64], "dtype": "float32"}, {"name": "conv2d_79/kernel", "shape": [1, 1, 64, 256], "dtype": "float32"}, {"name": "batch_normalization_72/batchnorm/mul", "shape": [256], "dtype": "float32"}, {"name": "batch_normalization_72/batchnorm/sub", "shape": [256], "dtype": "float32"}, {"name": "conv2d_80/convolution/merged_input", "shape": [1, 1, 256, 64], "dtype": "float32"}, {"name": "batch_normalization_73/batchnorm/sub", "shape": [64], "dtype": "float32"}, {"name": "conv2d_81/convolution/merged_input", "shape": [3, 3, 64, 64], "dtype": "float32"}, {"name": "batch_normalization_74/batchnorm/sub", "shape": [64], "dtype": "float32"}, {"name": "conv2d_82/kernel", "shape": [1, 1, 64, 256], "dtype": "float32"}, {"name": "self_attention_2/gamma", "shape": [1], "dtype": "float32"}, {"name": "sub_pixel_conv2d_4/kernel", "shape": [1, 1, 256, 1024], "dtype": "float32"}, {"name": "dense_8/kernel", "shape": [256, 128], "dtype": "float32"}, {"name": "dense_9/kernel", "shape": [128, 256], "dtype": "float32"}, {"name": "conv2d_87/kernel", "shape": [1, 1, 514, 256], "dtype": "float32"}, {"name": "conv2d_88/convolution/merged_input", "shape": [3, 3, 256, 256], "dtype": "float32"}, {"name": "batch_normalization_78/batchnorm/mul_1", "shape": [256], "dtype": "float32"}, {"name": "dense_10/kernel", "shape": [128, 256], "dtype": "float32"}, {"name": "dense_10/bias", "shape": [256], "dtype": "float32"}, {"name": "batch_normalization_79/batchnorm/mul", "shape": [256], "dtype": "float32"}, {"name": "batch_normalization_79/batchnorm/sub", "shape": [256], "dtype": "float32"}, {"name": "conv2d_89/convolution/merged_input", "shape": [1, 1, 256, 64], "dtype": "float32"}, {"name": "batch_normalization_80/batchnorm/sub", "shape": [64], "dtype": "float32"}, {"name": "conv2d_90/convolution/merged_input", "shape": [3, 3, 64, 64], "dtype": "float32"}, {"name": "batch_normalization_81/batchnorm/sub", "shape": [64], "dtype": "float32"}, {"name": "conv2d_91/kernel", "shape": [1, 1, 64, 256], "dtype": "float32"}, {"name": "batch_normalization_82/batchnorm/mul", "shape": [256], "dtype": "float32"}, {"name": "batch_normalization_82/batchnorm/sub", "shape": [256], "dtype": "float32"}, {"name": "conv2d_92/convolution/merged_input", "shape": [1, 1, 256, 64], "dtype": "float32"}, {"name": "batch_normalization_83/batchnorm/sub", "shape": [64], "dtype": "float32"}, {"name": "conv2d_93/convolution/merged_input", "shape": [3, 3, 64, 64], "dtype": "float32"}, {"name": "batch_normalization_84/batchnorm/sub", "shape": [64], "dtype": "float32"}, {"name": "conv2d_94/kernel", "shape": [1, 1, 64, 256], "dtype": "float32"}, {"name": "self_attention_3/gamma", "shape": [1], "dtype": "float32"}, {"name": "sub_pixel_conv2d_6/kernel", "shape": [1, 1, 256, 512], "dtype": "float32"}, {"name": "dense_12/kernel", "shape": [128, 64], "dtype": "float32"}, {"name": "dense_13/kernel", "shape": [64, 128], "dtype": "float32"}, {"name": "batch_normalization_16/batchnorm/mul", "shape": [64], "dtype": "float32"}, {"name": "batch_normalization_16/batchnorm/sub", "shape": [64], "dtype": "float32"}, {"name": "conv2d_18/convolution/merged_input", "shape": [1, 1, 64, 32], "dtype": "float32"}, {"name": "batch_normalization_17/batchnorm/sub", "shape": [32], "dtype": "float32"}, {"name": "conv2d_19/convolution/merged_input", "shape": [3, 3, 32, 32], "dtype": "float32"}, {"name": "batch_normalization_18/batchnorm/sub", "shape": [32], "dtype": "float32"}, {"name": "conv2d_20/kernel", "shape": [1, 1, 32, 128], "dtype": "float32"}, {"name": "conv2d_21/kernel", "shape": [1, 1, 64, 128], "dtype": "float32"}, {"name": "batch_normalization_19/batchnorm/mul", "shape": [128], "dtype": "float32"}, {"name": "batch_normalization_19/batchnorm/sub", "shape": [128], "dtype": "float32"}, {"name": "conv2d_22/convolution/merged_input", "shape": [1, 1, 128, 32], "dtype": "float32"}, {"name": "batch_normalization_20/batchnorm/sub", "shape": [32], "dtype": "float32"}, {"name": "conv2d_23/convolution/merged_input", "shape": [3, 3, 32, 32], "dtype": "float32"}, {"name": "batch_normalization_21/batchnorm/sub", "shape": [32], "dtype": "float32"}, {"name": "conv2d_24/kernel", "shape": [1, 1, 32, 128], "dtype": "float32"}, {"name": "batch_normalization_22/batchnorm/mul", "shape": [128], "dtype": "float32"}, {"name": "batch_normalization_22/batchnorm/sub", "shape": [128], "dtype": "float32"}, {"name": "conv2d_25/convolution/merged_input", "shape": [1, 1, 128, 32], "dtype": "float32"}, {"name": "batch_normalization_23/batchnorm/sub", "shape": [32], "dtype": "float32"}, {"name": "conv2d_26/convolution/merged_input", "shape": [3, 3, 32, 32], "dtype": "float32"}, {"name": "batch_normalization_24/batchnorm/sub", "shape": [32], "dtype": "float32"}, {"name": "conv2d_27/kernel", "shape": [1, 1, 32, 128], "dtype": "float32"}, {"name": "conv2d_98/kernel", "shape": [1, 1, 258, 128], "dtype": "float32"}, {"name": "conv2d_99/convolution/merged_input", "shape": [3, 3, 128, 128], "dtype": "float32"}, {"name": "batch_normalization_88/batchnorm/mul_1", "shape": [128], "dtype": "float32"}, {"name": "dense_14/kernel", "shape": [128, 128], "dtype": "float32"}, {"name": "dense_14/bias", "shape": [128], "dtype": "float32"}, {"name": "batch_normalization_89/batchnorm/mul", "shape": [128], "dtype": "float32"}, {"name": "batch_normalization_89/batchnorm/sub", "shape": [128], "dtype": "float32"}, {"name": "conv2d_100/convolution/merged_input", "shape": [1, 1, 128, 32], "dtype": "float32"}, {"name": "batch_normalization_90/batchnorm/sub", "shape": [32], "dtype": "float32"}, {"name": "conv2d_101/convolution/merged_input", "shape": [3, 3, 32, 32], "dtype": "float32"}, {"name": "batch_normalization_91/batchnorm/sub", "shape": [32], "dtype": "float32"}, {"name": "conv2d_102/kernel", "shape": [1, 1, 32, 128], "dtype": "float32"}, {"name": "batch_normalization_92/batchnorm/mul", "shape": [128], "dtype": "float32"}, {"name": "batch_normalization_92/batchnorm/sub", "shape": [128], "dtype": "float32"}, {"name": "conv2d_103/convolution/merged_input", "shape": [1, 1, 128, 32], "dtype": "float32"}, {"name": "batch_normalization_93/batchnorm/sub", "shape": [32], "dtype": "float32"}, {"name": "conv2d_104/convolution/merged_input", "shape": [3, 3, 32, 32], "dtype": "float32"}, {"name": "batch_normalization_94/batchnorm/sub", "shape": [32], "dtype": "float32"}, {"name": "conv2d_105/kernel", "shape": [1, 1, 32, 128], "dtype": "float32"}, {"name": "self_attention_4/gamma", "shape": [1], "dtype": "float32"}, {"name": "sub_pixel_conv2d_8/kernel", "shape": [1, 1, 128, 256], "dtype": "float32"}, {"name": "dense_16/kernel", "shape": [64, 32], "dtype": "float32"}, {"name": "dense_17/kernel", "shape": [32, 64], "dtype": "float32"}, {"name": "batch_normalization_7/batchnorm/mul", "shape": [32], "dtype": "float32"}, {"name": "batch_normalization_7/batchnorm/sub", "shape": [32], "dtype": "float32"}, {"name": "conv2d_8/convolution/merged_input", "shape": [1, 1, 32, 16], "dtype": "float32"}, {"name": "batch_normalization_8/batchnorm/sub", "shape": [16], "dtype": "float32"}, {"name": "conv2d_9/convolution/merged_input", "shape": [3, 3, 16, 16], "dtype": "float32"}, {"name": "batch_normalization_9/batchnorm/sub", "shape": [16], "dtype": "float32"}, {"name": "conv2d_10/kernel", "shape": [1, 1, 16, 64], "dtype": "float32"}, {"name": "leaky_re_lu_129/LeakyRelu/alpha", "shape": [], "dtype": "float32"}, {"name": "batch_normalization_1/batchnorm/mul", "shape": [3], "dtype": "float32"}, {"name": "batch_normalization_1/batchnorm/sub", "shape": [3], "dtype": "float32"}, {"name": "conv2d_1/convolution/merged_input", "shape": [1, 1, 3, 8], "dtype": "float32"}, {"name": "batch_normalization_2/batchnorm/sub", "shape": [8], "dtype": "float32"}, {"name": "conv2d_2/convolution/merged_input", "shape": [3, 3, 8, 8], "dtype": "float32"}, {"name": "batch_normalization_3/batchnorm/sub", "shape": [8], "dtype": "float32"}, {"name": "conv2d_3/kernel", "shape": [1, 1, 8, 32], "dtype": "float32"}, {"name": "coordinate_channel2d_7/arange/start", "shape": [], "dtype": "int32"}, {"name": "coordinate_channel2d_7/strided_slice/stack", "shape": [1], "dtype": "int32"}, {"name": "coordinate_channel2d_7/ExpandDims/dim", "shape": [], "dtype": "int32"}, {"name": "coordinate_channel2d_7/transpose/perm", "shape": [4], "dtype": "int32"}, {"name": "conv2d_4/kernel", "shape": [1, 1, 3, 32], "dtype": "float32"}, {"name": "batch_normalization_4/batchnorm/mul", "shape": [32], "dtype": "float32"}, {"name": "batch_normalization_4/batchnorm/sub", "shape": [32], "dtype": "float32"}, {"name": "conv2d_5/convolution/merged_input", "shape": [1, 1, 32, 8], "dtype": "float32"}, {"name": "batch_normalization_5/batchnorm/sub", "shape": [8], "dtype": "float32"}, {"name": "conv2d_6/convolution/merged_input", "shape": [3, 3, 8, 8], "dtype": "float32"}, {"name": "batch_normalization_6/batchnorm/sub", "shape": [8], "dtype": "float32"}, {"name": "conv2d_7/kernel", "shape": [1, 1, 8, 32], "dtype": "float32"}, {"name": "conv2d_11/kernel", "shape": [1, 1, 32, 64], "dtype": "float32"}, {"name": "batch_normalization_10/batchnorm/mul", "shape": [64], "dtype": "float32"}, {"name": "batch_normalization_10/batchnorm/sub", "shape": [64], "dtype": "float32"}, {"name": "conv2d_12/convolution/merged_input", "shape": [1, 1, 64, 16], "dtype": "float32"}, {"name": "batch_normalization_11/batchnorm/sub", "shape": [16], "dtype": "float32"}, {"name": "conv2d_13/convolution/merged_input", "shape": [3, 3, 16, 16], "dtype": "float32"}, {"name": "batch_normalization_12/batchnorm/sub", "shape": [16], "dtype": "float32"}, {"name": "conv2d_14/kernel", "shape": [1, 1, 16, 64], "dtype": "float32"}, {"name": "batch_normalization_13/batchnorm/mul", "shape": [64], "dtype": "float32"}, {"name": "batch_normalization_13/batchnorm/sub", "shape": [64], "dtype": "float32"}, {"name": "conv2d_15/convolution/merged_input", "shape": [1, 1, 64, 16], "dtype": "float32"}, {"name": "batch_normalization_14/batchnorm/sub", "shape": [16], "dtype": "float32"}, {"name": "conv2d_16/convolution/merged_input", "shape": [3, 3, 16, 16], "dtype": "float32"}, {"name": "batch_normalization_15/batchnorm/sub", "shape": [16], "dtype": "float32"}, {"name": "conv2d_17/kernel", "shape": [1, 1, 16, 64], "dtype": "float32"}, {"name": "coordinate_channel2d_7/mul/y", "shape": [], "dtype": "float32"}, {"name": "conv2d_110/kernel", "shape": [1, 1, 130, 64], "dtype": "float32"}, {"name": "conv2d_111/convolution/merged_input", "shape": [3, 3, 64, 64], "dtype": "float32"}, {"name": "batch_normalization_98/batchnorm/mul_1", "shape": [64], "dtype": "float32"}, {"name": "dense_18/kernel", "shape": [128, 64], "dtype": "float32"}, {"name": "dense_18/bias", "shape": [64], "dtype": "float32"}, {"name": "batch_normalization_99/batchnorm/mul", "shape": [64], "dtype": "float32"}, {"name": "batch_normalization_99/batchnorm/sub", "shape": [64], "dtype": "float32"}, {"name": "conv2d_112/convolution/merged_input", "shape": [1, 1, 64, 16], "dtype": "float32"}, {"name": "batch_normalization_100/batchnorm/sub", "shape": [16], "dtype": "float32"}, {"name": "conv2d_113/convolution/merged_input", "shape": [3, 3, 16, 16], "dtype": "float32"}, {"name": "batch_normalization_101/batchnorm/sub", "shape": [16], "dtype": "float32"}, {"name": "conv2d_114/kernel", "shape": [1, 1, 16, 64], "dtype": "float32"}, {"name": "batch_normalization_102/batchnorm/mul", "shape": [64], "dtype": "float32"}, {"name": "batch_normalization_102/batchnorm/sub", "shape": [64], "dtype": "float32"}, {"name": "conv2d_115/convolution/merged_input", "shape": [1, 1, 64, 16], "dtype": "float32"}, {"name": "batch_normalization_103/batchnorm/sub", "shape": [16], "dtype": "float32"}, {"name": "conv2d_116/convolution/merged_input", "shape": [3, 3, 16, 16], "dtype": "float32"}, {"name": "batch_normalization_104/batchnorm/sub", "shape": [16], "dtype": "float32"}, {"name": "conv2d_117/kernel", "shape": [1, 1, 16, 64], "dtype": "float32"}, {"name": "self_attention_5/gamma", "shape": [1], "dtype": "float32"}, {"name": "sub_pixel_conv2d_10/kernel", "shape": [1, 1, 64, 128], "dtype": "float32"}, {"name": "global_average_pooling2d_5/Mean/reduction_indices", "shape": [2], "dtype": "int32"}, {"name": "dense_20/kernel", "shape": [32, 16], "dtype": "float32"}, {"name": "dense_21/kernel", "shape": [16, 32], "dtype": "float32"}, {"name": "coordinate_channel2d_7/strided_slice_1/stack_1", "shape": [1], "dtype": "int32"}, {"name": "coordinate_channel2d_1/strided_slice_2/stack_1", "shape": [1], "dtype": "int32"}, {"name": "coordinate_channel2d_7/strided_slice/stack_1", "shape": [1], "dtype": "int32"}, {"name": "coordinate_channel2d_7/sub_1/y", "shape": [], "dtype": "float32"}, {"name": "coordinate_channel2d_1/concat/axis", "shape": [], "dtype": "int32"}, {"name": "conv2d_121/kernel", "shape": [1, 1, 66, 32], "dtype": "float32"}, {"name": "conv2d_122/convolution/merged_input", "shape": [3, 3, 32, 32], "dtype": "float32"}, {"name": "batch_normalization_108/batchnorm/mul_1", "shape": [32], "dtype": "float32"}, {"name": "dense_1/kernel", "shape": [3, 128], "dtype": "float32"}, {"name": "dense_1/bias", "shape": [128], "dtype": "float32"}, {"name": "dense_22/kernel", "shape": [128, 32], "dtype": "float32"}, {"name": "dense_22/bias", "shape": [32], "dtype": "float32"}, {"name": "multiply_16/ExpandDims/dim", "shape": [], "dtype": "int32"}, {"name": "batch_normalization_109/batchnorm/mul", "shape": [32], "dtype": "float32"}, {"name": "batch_normalization_109/batchnorm/sub", "shape": [32], "dtype": "float32"}, {"name": "conv2d_123/convolution/merged_input", "shape": [1, 1, 32, 8], "dtype": "float32"}, {"name": "batch_normalization_110/batchnorm/sub", "shape": [8], "dtype": "float32"}, {"name": "conv2d_124/convolution/merged_input", "shape": [3, 3, 8, 8], "dtype": "float32"}, {"name": "batch_normalization_111/batchnorm/sub", "shape": [8], "dtype": "float32"}, {"name": "conv2d_125/kernel", "shape": [1, 1, 8, 32], "dtype": "float32"}, {"name": "batch_normalization_112/batchnorm/mul", "shape": [32], "dtype": "float32"}, {"name": "batch_normalization_112/batchnorm/sub", "shape": [32], "dtype": "float32"}, {"name": "conv2d_126/convolution/merged_input", "shape": [1, 1, 32, 8], "dtype": "float32"}, {"name": "batch_normalization_113/batchnorm/sub", "shape": [8], "dtype": "float32"}, {"name": "conv2d_127/convolution/merged_input", "shape": [3, 3, 8, 8], "dtype": "float32"}, {"name": "batch_normalization_114/batchnorm/sub", "shape": [8], "dtype": "float32"}, {"name": "conv2d_128/kernel", "shape": [1, 1, 8, 32], "dtype": "float32"}, {"name": "conv2d_132/kernel", "shape": [1, 1, 32, 16], "dtype": "float32"}, {"name": "batch_normalization_118/batchnorm/mul", "shape": [16], "dtype": "float32"}, {"name": "batch_normalization_118/batchnorm/sub", "shape": [16], "dtype": "float32"}, {"name": "conv2d_133/convolution/merged_input", "shape": [1, 1, 16, 4], "dtype": "float32"}, {"name": "batch_normalization_119/batchnorm/sub", "shape": [4], "dtype": "float32"}, {"name": "conv2d_134/convolution/merged_input", "shape": [3, 3, 4, 4], "dtype": "float32"}, {"name": "batch_normalization_120/batchnorm/sub", "shape": [4], "dtype": "float32"}, {"name": "conv2d_135/kernel", "shape": [1, 1, 4, 16], "dtype": "float32"}, {"name": "batch_normalization_121/batchnorm/mul", "shape": [16], "dtype": "float32"}, {"name": "batch_normalization_121/batchnorm/sub", "shape": [16], "dtype": "float32"}, {"name": "conv2d_136/convolution/merged_input", "shape": [1, 1, 16, 4], "dtype": "float32"}, {"name": "batch_normalization_122/batchnorm/sub", "shape": [4], "dtype": "float32"}, {"name": "conv2d_137/convolution/merged_input", "shape": [3, 3, 4, 4], "dtype": "float32"}, {"name": "batch_normalization_123/batchnorm/sub", "shape": [4], "dtype": "float32"}, {"name": "conv2d_138/kernel", "shape": [1, 1, 4, 16], "dtype": "float32"}, {"name": "conv2d_139/kernel", "shape": [1, 1, 16, 1], "dtype": "float32"}, {"name": "conv2d_139/bias", "shape": [1], "dtype": "float32"}]}]}