{"format": "graph-model", "generatedBy": "2.1.0", "convertedBy": "TensorFlow.js Converter v1.6.0", "userDefinedMetadata": {"signature": {"outputs": {"conv2d_139/Tanh:0": {"name": "conv2d_139/Tanh:0"}}}}, "modelTopology": {"node": [{"name": "batch_normalization_115/batchnorm/mul", "op": "Const", "attr": {"value": {"tensor": {"dtype": "DT_FLOAT", "tensorShape": {"dim": [{"size": "32"}]}}}, "dtype": {"type": "DT_FLOAT"}}}, {"name": "batch_normalization_115/batchnorm/sub", "op": "Const", "attr": {"value": {"tensor": {"dtype": "DT_FLOAT", "tensorShape": {"dim": [{"size": "32"}]}}}, "dtype": {"type": "DT_FLOAT"}}}, {"name": "conv2d_129/convolution/merged_input", "op": "Const", "attr": {"value": {"tensor": {"dtype": "DT_FLOAT", "tensorShape": {"dim": [{"size": "1"}, {"size": "1"}, {"size": "32"}, {"size": "4"}]}}}, "dtype": {"type": "DT_FLOAT"}}}, {"name": "batch_normalization_116/batchnorm/sub", "op": "Const", "attr": {"value": {"tensor": {"dtype": "DT_FLOAT", "tensorShape": {"dim": [{"size": "4"}]}}}, "dtype": {"type": "DT_FLOAT"}}}, {"name": "conv2d_130/convolution/merged_input", "op": "Const", "attr": {"value": {"tensor": {"dtype": "DT_FLOAT", "tensorShape": {"dim": [{"size": "3"}, {"size": "3"}, {"size": "4"}, {"size": "4"}]}}}, "dtype": {"type": "DT_FLOAT"}}}, {"name": "batch_normalization_117/batchnorm/sub", "op": "Const", "attr": {"value": {"tensor": {"dtype": "DT_FLOAT", "tensorShape": {"dim": [{"size": "4"}]}}}, "dtype": {"type": "DT_FLOAT"}}}, {"name": "conv2d_131/kernel", "op": "Const", "attr": {"value": {"tensor": {"dtype": "DT_FLOAT", "tensorShape": {"dim": [{"size": "1"}, {"size": "1"}, {"size": "4"}, {"size": "16"}]}}}, "dtype": {"type": "DT_FLOAT"}}}, {"name": "dense_23/kernel", "op": "Const", "attr": {"value": {"tensor": {"dtype": "DT_FLOAT", "tensorShape": {"dim": [{"size": "128"}, {"size": "32"}]}}}, "dtype": {"type": "DT_FLOAT"}}}, {"name": "dense_23/bias", "op": "Const", "attr": {"value": {"tensor": {"dtype": "DT_FLOAT", "tensorShape": {"dim": [{"size": "32"}]}}}, "dtype": {"type": "DT_FLOAT"}}}, {"name": "conv2d_120/kernel", "op": "Const", "attr": {"value": {"tensor": {"dtype": "DT_FLOAT", "tensorShape": {"dim": [{"size": "1"}, {"size": "1"}, {"size": "32"}, {"size": "1"}]}}}, "dtype": {"type": "DT_FLOAT"}}}, {"name": "batch_normalization_107/batchnorm/mul", "op": "Const", "attr": {"value": {"tensor": {"dtype": "DT_FLOAT", "tensorShape": {"dim": [{"size": "8"}]}}}, "dtype": {"type": "DT_FLOAT"}}}, {"name": "batch_normalization_105/batchnorm/mul", "op": "Const", "attr": {"dtype": {"type": "DT_FLOAT"}, "value": {"tensor": {"dtype": "DT_FLOAT", "tensorShape": {"dim": [{"size": "64"}]}}}}}, {"name": "batch_normalization_105/batchnorm/sub", "op": "Const", "attr": {"value": {"tensor": {"dtype": "DT_FLOAT", "tensorShape": {"dim": [{"size": "64"}]}}}, "dtype": {"type": "DT_FLOAT"}}}, {"name": "conv2d_118/convolution/merged_input", "op": "Const", "attr": {"value": {"tensor": {"dtype": "DT_FLOAT", "tensorShape": {"dim": [{"size": "1"}, {"size": "1"}, {"size": "64"}, {"size": "8"}]}}}, "dtype": {"type": "DT_FLOAT"}}}, {"name": "batch_normalization_106/batchnorm/sub", "op": "Const", "attr": {"value": {"tensor": {"dtype": "DT_FLOAT", "tensorShape": {"dim": [{"size": "8"}]}}}, "dtype": {"type": "DT_FLOAT"}}}, {"name": "sub_pixel_conv2d_9/kernel", "op": "Const", "attr": {"value": {"tensor": {"dtype": "DT_FLOAT", "tensorShape": {"dim": [{"size": "3"}, {"size": "3"}, {"size": "8"}, {"size": "32"}]}}}, "dtype": {"type": "DT_FLOAT"}}}, {"name": "batch_normalization_107/batchnorm/sub", "op": "Const", "attr": {"value": {"tensor": {"dtype": "DT_FLOAT", "tensorShape": {"dim": [{"size": "8"}]}}}, "dtype": {"type": "DT_FLOAT"}}}, {"name": "conv2d_119/kernel", "op": "Const", "attr": {"value": {"tensor": {"dtype": "DT_FLOAT", "tensorShape": {"dim": [{"size": "1"}, {"size": "1"}, {"size": "8"}, {"size": "32"}]}}}, "dtype": {"type": "DT_FLOAT"}}}, {"name": "self_attention_5/kernel_g", "op": "Const", "attr": {"value": {"tensor": {"dtype": "DT_FLOAT", "tensorShape": {"dim": [{"size": "1"}, {"size": "1"}, {"size": "64"}, {"size": "8"}]}}}, "dtype": {"type": "DT_FLOAT"}}}, {"name": "self_attention_5/bias_g", "op": "Const", "attr": {"value": {"tensor": {"dtype": "DT_FLOAT", "tensorShape": {"dim": [{"size": "8"}]}}}, "dtype": {"type": "DT_FLOAT"}}}, {"name": "self_attention_5/kernel_f", "op": "Const", "attr": {"value": {"tensor": {"dtype": "DT_FLOAT", "tensorShape": {"dim": [{"size": "1"}, {"size": "1"}, {"size": "64"}, {"size": "8"}]}}}, "dtype": {"type": "DT_FLOAT"}}}, {"name": "self_attention_5/bias_f", "op": "Const", "attr": {"value": {"tensor": {"dtype": "DT_FLOAT", "tensorShape": {"dim": [{"size": "8"}]}}}, "dtype": {"type": "DT_FLOAT"}}}, {"name": "self_attention_5/kernel_h", "op": "Const", "attr": {"value": {"tensor": {"dtype": "DT_FLOAT", "tensorShape": {"dim": [{"size": "1"}, {"size": "1"}, {"size": "64"}, {"size": "64"}]}}}, "dtype": {"type": "DT_FLOAT"}}}, {"name": "self_attention_5/bias_h", "op": "Const", "attr": {"value": {"tensor": {"dtype": "DT_FLOAT", "tensorShape": {"dim": [{"size": "64"}]}}}, "dtype": {"type": "DT_FLOAT"}}}, {"name": "dense_19/kernel", "op": "Const", "attr": {"dtype": {"type": "DT_FLOAT"}, "value": {"tensor": {"dtype": "DT_FLOAT", "tensorShape": {"dim": [{"size": "128"}, {"size": "64"}]}}}}}, {"name": "dense_19/bias", "op": "Const", "attr": {"value": {"tensor": {"dtype": "DT_FLOAT", "tensorShape": {"dim": [{"size": "64"}]}}}, "dtype": {"type": "DT_FLOAT"}}}, {"name": "conv2d_109/kernel", "op": "Const", "attr": {"value": {"tensor": {"dtype": "DT_FLOAT", "tensorShape": {"dim": [{"size": "1"}, {"size": "1"}, {"size": "64"}, {"size": "1"}]}}}, "dtype": {"type": "DT_FLOAT"}}}, {"name": "batch_normalization_97/batchnorm/mul", "op": "Const", "attr": {"dtype": {"type": "DT_FLOAT"}, "value": {"tensor": {"dtype": "DT_FLOAT", "tensorShape": {"dim": [{"size": "16"}]}}}}}, {"name": "batch_normalization_95/batchnorm/mul", "op": "Const", "attr": {"value": {"tensor": {"dtype": "DT_FLOAT", "tensorShape": {"dim": [{"size": "128"}]}}}, "dtype": {"type": "DT_FLOAT"}}}, {"name": "batch_normalization_95/batchnorm/sub", "op": "Const", "attr": {"value": {"tensor": {"dtype": "DT_FLOAT", "tensorShape": {"dim": [{"size": "128"}]}}}, "dtype": {"type": "DT_FLOAT"}}}, {"name": "conv2d_107/convolution/merged_input", "op": "Const", "attr": {"value": {"tensor": {"dtype": "DT_FLOAT", "tensorShape": {"dim": [{"size": "1"}, {"size": "1"}, {"size": "128"}, {"size": "16"}]}}}, "dtype": {"type": "DT_FLOAT"}}}, {"name": "batch_normalization_96/batchnorm/sub", "op": "Const", "attr": {"value": {"tensor": {"dtype": "DT_FLOAT", "tensorShape": {"dim": [{"size": "16"}]}}}, "dtype": {"type": "DT_FLOAT"}}}, {"name": "sub_pixel_conv2d_7/kernel", "op": "Const", "attr": {"value": {"tensor": {"dtype": "DT_FLOAT", "tensorShape": {"dim": [{"size": "3"}, {"size": "3"}, {"size": "16"}, {"size": "64"}]}}}, "dtype": {"type": "DT_FLOAT"}}}, {"name": "batch_normalization_97/batchnorm/sub", "op": "Const", "attr": {"dtype": {"type": "DT_FLOAT"}, "value": {"tensor": {"dtype": "DT_FLOAT", "tensorShape": {"dim": [{"size": "16"}]}}}}}, {"name": "conv2d_108/kernel", "op": "Const", "attr": {"value": {"tensor": {"dtype": "DT_FLOAT", "tensorShape": {"dim": [{"size": "1"}, {"size": "1"}, {"size": "16"}, {"size": "64"}]}}}, "dtype": {"type": "DT_FLOAT"}}}, {"name": "self_attention_4/kernel_g", "op": "Const", "attr": {"value": {"tensor": {"dtype": "DT_FLOAT", "tensorShape": {"dim": [{"size": "1"}, {"size": "1"}, {"size": "128"}, {"size": "16"}]}}}, "dtype": {"type": "DT_FLOAT"}}}, {"name": "self_attention_4/bias_g", "op": "Const", "attr": {"dtype": {"type": "DT_FLOAT"}, "value": {"tensor": {"dtype": "DT_FLOAT", "tensorShape": {"dim": [{"size": "16"}]}}}}}, {"name": "self_attention_4/kernel_f", "op": "Const", "attr": {"value": {"tensor": {"dtype": "DT_FLOAT", "tensorShape": {"dim": [{"size": "1"}, {"size": "1"}, {"size": "128"}, {"size": "16"}]}}}, "dtype": {"type": "DT_FLOAT"}}}, {"name": "self_attention_4/bias_f", "op": "Const", "attr": {"value": {"tensor": {"dtype": "DT_FLOAT", "tensorShape": {"dim": [{"size": "16"}]}}}, "dtype": {"type": "DT_FLOAT"}}}, {"name": "self_attention_4/kernel_h", "op": "Const", "attr": {"value": {"tensor": {"dtype": "DT_FLOAT", "tensorShape": {"dim": [{"size": "1"}, {"size": "1"}, {"size": "128"}, {"size": "128"}]}}}, "dtype": {"type": "DT_FLOAT"}}}, {"name": "self_attention_4/bias_h", "op": "Const", "attr": {"value": {"tensor": {"dtype": "DT_FLOAT", "tensorShape": {"dim": [{"size": "128"}]}}}, "dtype": {"type": "DT_FLOAT"}}}, {"name": "dense_15/kernel", "op": "Const", "attr": {"value": {"tensor": {"dtype": "DT_FLOAT", "tensorShape": {"dim": [{"size": "128"}, {"size": "128"}]}}}, "dtype": {"type": "DT_FLOAT"}}}, {"name": "dense_15/bias", "op": "Const", "attr": {"value": {"tensor": {"dtype": "DT_FLOAT", "tensorShape": {"dim": [{"size": "128"}]}}}, "dtype": {"type": "DT_FLOAT"}}}, {"name": "conv2d_97/kernel", "op": "Const", "attr": {"value": {"tensor": {"dtype": "DT_FLOAT", "tensorShape": {"dim": [{"size": "1"}, {"size": "1"}, {"size": "128"}, {"size": "1"}]}}}, "dtype": {"type": "DT_FLOAT"}}}, {"name": "batch_normalization_87/batchnorm/mul", "op": "Const", "attr": {"value": {"tensor": {"dtype": "DT_FLOAT", "tensorShape": {"dim": [{"size": "32"}]}}}, "dtype": {"type": "DT_FLOAT"}}}, {"name": "batch_normalization_85/batchnorm/mul", "op": "Const", "attr": {"value": {"tensor": {"dtype": "DT_FLOAT", "tensorShape": {"dim": [{"size": "256"}]}}}, "dtype": {"type": "DT_FLOAT"}}}, {"name": "batch_normalization_85/batchnorm/sub", "op": "Const", "attr": {"value": {"tensor": {"dtype": "DT_FLOAT", "tensorShape": {"dim": [{"size": "256"}]}}}, "dtype": {"type": "DT_FLOAT"}}}, {"name": "conv2d_95/convolution/merged_input", "op": "Const", "attr": {"value": {"tensor": {"dtype": "DT_FLOAT", "tensorShape": {"dim": [{"size": "1"}, {"size": "1"}, {"size": "256"}, {"size": "32"}]}}}, "dtype": {"type": "DT_FLOAT"}}}, {"name": "batch_normalization_86/batchnorm/sub", "op": "Const", "attr": {"value": {"tensor": {"dtype": "DT_FLOAT", "tensorShape": {"dim": [{"size": "32"}]}}}, "dtype": {"type": "DT_FLOAT"}}}, {"name": "sub_pixel_conv2d_5/kernel", "op": "Const", "attr": {"value": {"tensor": {"dtype": "DT_FLOAT", "tensorShape": {"dim": [{"size": "3"}, {"size": "3"}, {"size": "32"}, {"size": "128"}]}}}, "dtype": {"type": "DT_FLOAT"}}}, {"name": "batch_normalization_87/batchnorm/sub", "op": "Const", "attr": {"value": {"tensor": {"dtype": "DT_FLOAT", "tensorShape": {"dim": [{"size": "32"}]}}}, "dtype": {"type": "DT_FLOAT"}}}, {"name": "conv2d_96/kernel", "op": "Const", "attr": {"dtype": {"type": "DT_FLOAT"}, "value": {"tensor": {"dtype": "DT_FLOAT", "tensorShape": {"dim": [{"size": "1"}, {"size": "1"}, {"size": "32"}, {"size": "128"}]}}}}}, {"name": "self_attention_3/kernel_g", "op": "Const", "attr": {"value": {"tensor": {"dtype": "DT_FLOAT", "tensorShape": {"dim": [{"size": "1"}, {"size": "1"}, {"size": "256"}, {"size": "32"}]}}}, "dtype": {"type": "DT_FLOAT"}}}, {"name": "self_attention_3/bias_g", "op": "Const", "attr": {"value": {"tensor": {"dtype": "DT_FLOAT", "tensorShape": {"dim": [{"size": "32"}]}}}, "dtype": {"type": "DT_FLOAT"}}}, {"name": "self_attention_3/kernel_f", "op": "Const", "attr": {"value": {"tensor": {"dtype": "DT_FLOAT", "tensorShape": {"dim": [{"size": "1"}, {"size": "1"}, {"size": "256"}, {"size": "32"}]}}}, "dtype": {"type": "DT_FLOAT"}}}, {"name": "self_attention_3/bias_f", "op": "Const", "attr": {"value": {"tensor": {"dtype": "DT_FLOAT", "tensorShape": {"dim": [{"size": "32"}]}}}, "dtype": {"type": "DT_FLOAT"}}}, {"name": "self_attention_3/kernel_h", "op": "Const", "attr": {"value": {"tensor": {"dtype": "DT_FLOAT", "tensorShape": {"dim": [{"size": "1"}, {"size": "1"}, {"size": "256"}, {"size": "256"}]}}}, "dtype": {"type": "DT_FLOAT"}}}, {"name": "self_attention_3/bias_h", "op": "Const", "attr": {"value": {"tensor": {"dtype": "DT_FLOAT", "tensorShape": {"dim": [{"size": "256"}]}}}, "dtype": {"type": "DT_FLOAT"}}}, {"name": "dense_11/kernel", "op": "Const", "attr": {"value": {"tensor": {"dtype": "DT_FLOAT", "tensorShape": {"dim": [{"size": "128"}, {"size": "256"}]}}}, "dtype": {"type": "DT_FLOAT"}}}, {"name": "dense_11/bias", "op": "Const", "attr": {"value": {"tensor": {"dtype": "DT_FLOAT", "tensorShape": {"dim": [{"size": "256"}]}}}, "dtype": {"type": "DT_FLOAT"}}}, {"name": "conv2d_86/kernel", "op": "Const", "attr": {"value": {"tensor": {"dtype": "DT_FLOAT", "tensorShape": {"dim": [{"size": "1"}, {"size": "1"}, {"size": "256"}, {"size": "1"}]}}}, "dtype": {"type": "DT_FLOAT"}}}, {"name": "batch_normalization_77/batchnorm/mul", "op": "Const", "attr": {"value": {"tensor": {"dtype": "DT_FLOAT", "tensorShape": {"dim": [{"size": "64"}]}}}, "dtype": {"type": "DT_FLOAT"}}}, {"name": "batch_normalization_75/batchnorm/mul", "op": "Const", "attr": {"value": {"tensor": {"dtype": "DT_FLOAT", "tensorShape": {"dim": [{"size": "256"}]}}}, "dtype": {"type": "DT_FLOAT"}}}, {"name": "batch_normalization_75/batchnorm/sub", "op": "Const", "attr": {"value": {"tensor": {"dtype": "DT_FLOAT", "tensorShape": {"dim": [{"size": "256"}]}}}, "dtype": {"type": "DT_FLOAT"}}}, {"name": "conv2d_84/convolution/merged_input", "op": "Const", "attr": {"value": {"tensor": {"dtype": "DT_FLOAT", "tensorShape": {"dim": [{"size": "1"}, {"size": "1"}, {"size": "256"}, {"size": "64"}]}}}, "dtype": {"type": "DT_FLOAT"}}}, {"name": "batch_normalization_76/batchnorm/sub", "op": "Const", "attr": {"value": {"tensor": {"dtype": "DT_FLOAT", "tensorShape": {"dim": [{"size": "64"}]}}}, "dtype": {"type": "DT_FLOAT"}}}, {"name": "sub_pixel_conv2d_3/kernel", "op": "Const", "attr": {"value": {"tensor": {"dtype": "DT_FLOAT", "tensorShape": {"dim": [{"size": "3"}, {"size": "3"}, {"size": "64"}, {"size": "256"}]}}}, "dtype": {"type": "DT_FLOAT"}}}, {"name": "batch_normalization_77/batchnorm/sub", "op": "Const", "attr": {"value": {"tensor": {"dtype": "DT_FLOAT", "tensorShape": {"dim": [{"size": "64"}]}}}, "dtype": {"type": "DT_FLOAT"}}}, {"name": "conv2d_85/kernel", "op": "Const", "attr": {"value": {"tensor": {"dtype": "DT_FLOAT", "tensorShape": {"dim": [{"size": "1"}, {"size": "1"}, {"size": "64"}, {"size": "256"}]}}}, "dtype": {"type": "DT_FLOAT"}}}, {"name": "self_attention_2/kernel_g", "op": "Const", "attr": {"value": {"tensor": {"dtype": "DT_FLOAT", "tensorShape": {"dim": [{"size": "1"}, {"size": "1"}, {"size": "256"}, {"size": "32"}]}}}, "dtype": {"type": "DT_FLOAT"}}}, {"name": "self_attention_2/bias_g", "op": "Const", "attr": {"value": {"tensor": {"dtype": "DT_FLOAT", "tensorShape": {"dim": [{"size": "32"}]}}}, "dtype": {"type": "DT_FLOAT"}}}, {"name": "self_attention_2/kernel_f", "op": "Const", "attr": {"value": {"tensor": {"dtype": "DT_FLOAT", "tensorShape": {"dim": [{"size": "1"}, {"size": "1"}, {"size": "256"}, {"size": "32"}]}}}, "dtype": {"type": "DT_FLOAT"}}}, {"name": "self_attention_2/bias_f", "op": "Const", "attr": {"value": {"tensor": {"dtype": "DT_FLOAT", "tensorShape": {"dim": [{"size": "32"}]}}}, "dtype": {"type": "DT_FLOAT"}}}, {"name": "self_attention_2/kernel_h", "op": "Const", "attr": {"value": {"tensor": {"dtype": "DT_FLOAT", "tensorShape": {"dim": [{"size": "1"}, {"size": "1"}, {"size": "256"}, {"size": "256"}]}}}, "dtype": {"type": "DT_FLOAT"}}}, {"name": "self_attention_2/bias_h", "op": "Const", "attr": {"value": {"tensor": {"dtype": "DT_FLOAT", "tensorShape": {"dim": [{"size": "256"}]}}}, "dtype": {"type": "DT_FLOAT"}}}, {"name": "dense_7/kernel", "op": "Const", "attr": {"dtype": {"type": "DT_FLOAT"}, "value": {"tensor": {"dtype": "DT_FLOAT", "tensorShape": {"dim": [{"size": "128"}, {"size": "256"}]}}}}}, {"name": "dense_7/bias", "op": "Const", "attr": {"value": {"tensor": {"dtype": "DT_FLOAT", "tensorShape": {"dim": [{"size": "256"}]}}}, "dtype": {"type": "DT_FLOAT"}}}, {"name": "conv2d_74/kernel", "op": "Const", "attr": {"value": {"tensor": {"dtype": "DT_FLOAT", "tensorShape": {"dim": [{"size": "1"}, {"size": "1"}, {"size": "256"}, {"size": "1"}]}}}, "dtype": {"type": "DT_FLOAT"}}}, {"name": "batch_normalization_67/batchnorm/mul", "op": "Const", "attr": {"value": {"tensor": {"dtype": "DT_FLOAT", "tensorShape": {"dim": [{"size": "64"}]}}}, "dtype": {"type": "DT_FLOAT"}}}, {"name": "batch_normalization_65/batchnorm/mul", "op": "Const", "attr": {"value": {"tensor": {"dtype": "DT_FLOAT", "tensorShape": {"dim": [{"size": "512"}]}}}, "dtype": {"type": "DT_FLOAT"}}}, {"name": "batch_normalization_65/batchnorm/sub", "op": "Const", "attr": {"value": {"tensor": {"dtype": "DT_FLOAT", "tensorShape": {"dim": [{"size": "512"}]}}}, "dtype": {"type": "DT_FLOAT"}}}, {"name": "conv2d_72/convolution/merged_input", "op": "Const", "attr": {"value": {"tensor": {"dtype": "DT_FLOAT", "tensorShape": {"dim": [{"size": "1"}, {"size": "1"}, {"size": "512"}, {"size": "64"}]}}}, "dtype": {"type": "DT_FLOAT"}}}, {"name": "batch_normalization_66/batchnorm/sub", "op": "Const", "attr": {"value": {"tensor": {"dtype": "DT_FLOAT", "tensorShape": {"dim": [{"size": "64"}]}}}, "dtype": {"type": "DT_FLOAT"}}}, {"name": "sub_pixel_conv2d_1/kernel", "op": "Const", "attr": {"dtype": {"type": "DT_FLOAT"}, "value": {"tensor": {"dtype": "DT_FLOAT", "tensorShape": {"dim": [{"size": "3"}, {"size": "3"}, {"size": "64"}, {"size": "256"}]}}}}}, {"name": "batch_normalization_67/batchnorm/sub", "op": "Const", "attr": {"value": {"tensor": {"dtype": "DT_FLOAT", "tensorShape": {"dim": [{"size": "64"}]}}}, "dtype": {"type": "DT_FLOAT"}}}, {"name": "conv2d_73/kernel", "op": "Const", "attr": {"value": {"tensor": {"dtype": "DT_FLOAT", "tensorShape": {"dim": [{"size": "1"}, {"size": "1"}, {"size": "64"}, {"size": "256"}]}}}, "dtype": {"type": "DT_FLOAT"}}}, {"name": "self_attention_1/kernel_g", "op": "Const", "attr": {"value": {"tensor": {"dtype": "DT_FLOAT", "tensorShape": {"dim": [{"size": "1"}, {"size": "1"}, {"size": "512"}, {"size": "64"}]}}}, "dtype": {"type": "DT_FLOAT"}}}, {"name": "self_attention_1/bias_g", "op": "Const", "attr": {"value": {"tensor": {"dtype": "DT_FLOAT", "tensorShape": {"dim": [{"size": "64"}]}}}, "dtype": {"type": "DT_FLOAT"}}}, {"name": "self_attention_1/kernel_f", "op": "Const", "attr": {"value": {"tensor": {"dtype": "DT_FLOAT", "tensorShape": {"dim": [{"size": "1"}, {"size": "1"}, {"size": "512"}, {"size": "64"}]}}}, "dtype": {"type": "DT_FLOAT"}}}, {"name": "self_attention_1/bias_f", "op": "Const", "attr": {"value": {"tensor": {"dtype": "DT_FLOAT", "tensorShape": {"dim": [{"size": "64"}]}}}, "dtype": {"type": "DT_FLOAT"}}}, {"name": "self_attention_1/kernel_h", "op": "Const", "attr": {"value": {"tensor": {"dtype": "DT_FLOAT", "tensorShape": {"dim": [{"size": "1"}, {"size": "1"}, {"size": "512"}, {"size": "512"}]}}}, "dtype": {"type": "DT_FLOAT"}}}, {"name": "self_attention_1/bias_h", "op": "Const", "attr": {"dtype": {"type": "DT_FLOAT"}, "value": {"tensor": {"dtype": "DT_FLOAT", "tensorShape": {"dim": [{"size": "512"}]}}}}}, {"name": "dense_3/kernel", "op": "Const", "attr": {"value": {"tensor": {"dtype": "DT_FLOAT", "tensorShape": {"dim": [{"size": "128"}, {"size": "512"}]}}}, "dtype": {"type": "DT_FLOAT"}}}, {"name": "dense_3/bias", "op": "Const", "attr": {"value": {"tensor": {"dtype": "DT_FLOAT", "tensorShape": {"dim": [{"size": "512"}]}}}, "dtype": {"type": "DT_FLOAT"}}}, {"name": "batch_normalization_43/batchnorm/mul", "op": "Const", "attr": {"value": {"tensor": {"dtype": "DT_FLOAT", "tensorShape": {"dim": [{"size": "256"}]}}}, "dtype": {"type": "DT_FLOAT"}}}, {"name": "batch_normalization_43/batchnorm/sub", "op": "Const", "attr": {"dtype": {"type": "DT_FLOAT"}, "value": {"tensor": {"dtype": "DT_FLOAT", "tensorShape": {"dim": [{"size": "256"}]}}}}}, {"name": "conv2d_48/convolution/merged_input", "op": "Const", "attr": {"value": {"tensor": {"dtype": "DT_FLOAT", "tensorShape": {"dim": [{"size": "1"}, {"size": "1"}, {"size": "256"}, {"size": "128"}]}}}, "dtype": {"type": "DT_FLOAT"}}}, {"name": "batch_normalization_44/batchnorm/sub", "op": "Const", "attr": {"value": {"tensor": {"dtype": "DT_FLOAT", "tensorShape": {"dim": [{"size": "128"}]}}}, "dtype": {"type": "DT_FLOAT"}}}, {"name": "conv2d_49/convolution/merged_input", "op": "Const", "attr": {"dtype": {"type": "DT_FLOAT"}, "value": {"tensor": {"dtype": "DT_FLOAT", "tensorShape": {"dim": [{"size": "3"}, {"size": "3"}, {"size": "128"}, {"size": "128"}]}}}}}, {"name": "batch_normalization_45/batchnorm/sub", "op": "Const", "attr": {"value": {"tensor": {"dtype": "DT_FLOAT", "tensorShape": {"dim": [{"size": "128"}]}}}, "dtype": {"type": "DT_FLOAT"}}}, {"name": "conv2d_50/kernel", "op": "Const", "attr": {"value": {"tensor": {"dtype": "DT_FLOAT", "tensorShape": {"dim": [{"size": "1"}, {"size": "1"}, {"size": "128"}, {"size": "512"}]}}}, "dtype": {"type": "DT_FLOAT"}}}, {"name": "batch_normalization_34/batchnorm/mul", "op": "Const", "attr": {"value": {"tensor": {"dtype": "DT_FLOAT", "tensorShape": {"dim": [{"size": "256"}]}}}, "dtype": {"type": "DT_FLOAT"}}}, {"name": "batch_normalization_34/batchnorm/sub", "op": "Const", "attr": {"value": {"tensor": {"dtype": "DT_FLOAT", "tensorShape": {"dim": [{"size": "256"}]}}}, "dtype": {"type": "DT_FLOAT"}}}, {"name": "conv2d_38/convolution/merged_input", "op": "Const", "attr": {"value": {"tensor": {"dtype": "DT_FLOAT", "tensorShape": {"dim": [{"size": "1"}, {"size": "1"}, {"size": "256"}, {"size": "64"}]}}}, "dtype": {"type": "DT_FLOAT"}}}, {"name": "batch_normalization_35/batchnorm/sub", "op": "Const", "attr": {"value": {"tensor": {"dtype": "DT_FLOAT", "tensorShape": {"dim": [{"size": "64"}]}}}, "dtype": {"type": "DT_FLOAT"}}}, {"name": "conv2d_39/convolution/merged_input", "op": "Const", "attr": {"value": {"tensor": {"dtype": "DT_FLOAT", "tensorShape": {"dim": [{"size": "3"}, {"size": "3"}, {"size": "64"}, {"size": "64"}]}}}, "dtype": {"type": "DT_FLOAT"}}}, {"name": "batch_normalization_36/batchnorm/sub", "op": "Const", "attr": {"value": {"tensor": {"dtype": "DT_FLOAT", "tensorShape": {"dim": [{"size": "64"}]}}}, "dtype": {"type": "DT_FLOAT"}}}, {"name": "conv2d_40/kernel", "op": "Const", "attr": {"value": {"tensor": {"dtype": "DT_FLOAT", "tensorShape": {"dim": [{"size": "1"}, {"size": "1"}, {"size": "64"}, {"size": "256"}]}}}, "dtype": {"type": "DT_FLOAT"}}}, {"name": "batch_normalization_25/batchnorm/mul", "op": "Const", "attr": {"value": {"tensor": {"dtype": "DT_FLOAT", "tensorShape": {"dim": [{"size": "128"}]}}}, "dtype": {"type": "DT_FLOAT"}}}, {"name": "batch_normalization_25/batchnorm/sub", "op": "Const", "attr": {"value": {"tensor": {"dtype": "DT_FLOAT", "tensorShape": {"dim": [{"size": "128"}]}}}, "dtype": {"type": "DT_FLOAT"}}}, {"name": "conv2d_28/convolution/merged_input", "op": "Const", "attr": {"dtype": {"type": "DT_FLOAT"}, "value": {"tensor": {"dtype": "DT_FLOAT", "tensorShape": {"dim": [{"size": "1"}, {"size": "1"}, {"size": "128"}, {"size": "64"}]}}}}}, {"name": "batch_normalization_26/batchnorm/sub", "op": "Const", "attr": {"value": {"tensor": {"dtype": "DT_FLOAT", "tensorShape": {"dim": [{"size": "64"}]}}}, "dtype": {"type": "DT_FLOAT"}}}, {"name": "conv2d_29/convolution/merged_input", "op": "Const", "attr": {"value": {"tensor": {"dtype": "DT_FLOAT", "tensorShape": {"dim": [{"size": "3"}, {"size": "3"}, {"size": "64"}, {"size": "64"}]}}}, "dtype": {"type": "DT_FLOAT"}}}, {"name": "batch_normalization_27/batchnorm/sub", "op": "Const", "attr": {"value": {"tensor": {"dtype": "DT_FLOAT", "tensorShape": {"dim": [{"size": "64"}]}}}, "dtype": {"type": "DT_FLOAT"}}}, {"name": "conv2d_30/kernel", "op": "Const", "attr": {"value": {"tensor": {"dtype": "DT_FLOAT", "tensorShape": {"dim": [{"size": "1"}, {"size": "1"}, {"size": "64"}, {"size": "256"}]}}}, "dtype": {"type": "DT_FLOAT"}}}, {"name": "conv2d_31/kernel", "op": "Const", "attr": {"value": {"tensor": {"dtype": "DT_FLOAT", "tensorShape": {"dim": [{"size": "1"}, {"size": "1"}, {"size": "128"}, {"size": "256"}]}}}, "dtype": {"type": "DT_FLOAT"}}}, {"name": "batch_normalization_28/batchnorm/mul", "op": "Const", "attr": {"value": {"tensor": {"dtype": "DT_FLOAT", "tensorShape": {"dim": [{"size": "256"}]}}}, "dtype": {"type": "DT_FLOAT"}}}, {"name": "batch_normalization_28/batchnorm/sub", "op": "Const", "attr": {"value": {"tensor": {"dtype": "DT_FLOAT", "tensorShape": {"dim": [{"size": "256"}]}}}, "dtype": {"type": "DT_FLOAT"}}}, {"name": "conv2d_32/convolution/merged_input", "op": "Const", "attr": {"value": {"tensor": {"dtype": "DT_FLOAT", "tensorShape": {"dim": [{"size": "1"}, {"size": "1"}, {"size": "256"}, {"size": "64"}]}}}, "dtype": {"type": "DT_FLOAT"}}}, {"name": "batch_normalization_29/batchnorm/sub", "op": "Const", "attr": {"value": {"tensor": {"dtype": "DT_FLOAT", "tensorShape": {"dim": [{"size": "64"}]}}}, "dtype": {"type": "DT_FLOAT"}}}, {"name": "conv2d_33/convolution/merged_input", "op": "Const", "attr": {"value": {"tensor": {"dtype": "DT_FLOAT", "tensorShape": {"dim": [{"size": "3"}, {"size": "3"}, {"size": "64"}, {"size": "64"}]}}}, "dtype": {"type": "DT_FLOAT"}}}, {"name": "batch_normalization_30/batchnorm/sub", "op": "Const", "attr": {"value": {"tensor": {"dtype": "DT_FLOAT", "tensorShape": {"dim": [{"size": "64"}]}}}, "dtype": {"type": "DT_FLOAT"}}}, {"name": "conv2d_34/kernel", "op": "Const", "attr": {"value": {"tensor": {"dtype": "DT_FLOAT", "tensorShape": {"dim": [{"size": "1"}, {"size": "1"}, {"size": "64"}, {"size": "256"}]}}}, "dtype": {"type": "DT_FLOAT"}}}, {"name": "batch_normalization_31/batchnorm/mul", "op": "Const", "attr": {"value": {"tensor": {"dtype": "DT_FLOAT", "tensorShape": {"dim": [{"size": "256"}]}}}, "dtype": {"type": "DT_FLOAT"}}}, {"name": "batch_normalization_31/batchnorm/sub", "op": "Const", "attr": {"value": {"tensor": {"dtype": "DT_FLOAT", "tensorShape": {"dim": [{"size": "256"}]}}}, "dtype": {"type": "DT_FLOAT"}}}, {"name": "conv2d_35/convolution/merged_input", "op": "Const", "attr": {"value": {"tensor": {"dtype": "DT_FLOAT", "tensorShape": {"dim": [{"size": "1"}, {"size": "1"}, {"size": "256"}, {"size": "64"}]}}}, "dtype": {"type": "DT_FLOAT"}}}, {"name": "batch_normalization_32/batchnorm/sub", "op": "Const", "attr": {"value": {"tensor": {"dtype": "DT_FLOAT", "tensorShape": {"dim": [{"size": "64"}]}}}, "dtype": {"type": "DT_FLOAT"}}}, {"name": "conv2d_36/convolution/merged_input", "op": "Const", "attr": {"value": {"tensor": {"dtype": "DT_FLOAT", "tensorShape": {"dim": [{"size": "3"}, {"size": "3"}, {"size": "64"}, {"size": "64"}]}}}, "dtype": {"type": "DT_FLOAT"}}}, {"name": "batch_normalization_33/batchnorm/sub", "op": "Const", "attr": {"value": {"tensor": {"dtype": "DT_FLOAT", "tensorShape": {"dim": [{"size": "64"}]}}}, "dtype": {"type": "DT_FLOAT"}}}, {"name": "conv2d_37/kernel", "op": "Const", "attr": {"value": {"tensor": {"dtype": "DT_FLOAT", "tensorShape": {"dim": [{"size": "1"}, {"size": "1"}, {"size": "64"}, {"size": "256"}]}}}, "dtype": {"type": "DT_FLOAT"}}}, {"name": "conv2d_41/kernel", "op": "Const", "attr": {"value": {"tensor": {"dtype": "DT_FLOAT", "tensorShape": {"dim": [{"size": "1"}, {"size": "1"}, {"size": "256"}, {"size": "256"}]}}}, "dtype": {"type": "DT_FLOAT"}}}, {"name": "batch_normalization_37/batchnorm/mul", "op": "Const", "attr": {"value": {"tensor": {"dtype": "DT_FLOAT", "tensorShape": {"dim": [{"size": "256"}]}}}, "dtype": {"type": "DT_FLOAT"}}}, {"name": "batch_normalization_37/batchnorm/sub", "op": "Const", "attr": {"value": {"tensor": {"dtype": "DT_FLOAT", "tensorShape": {"dim": [{"size": "256"}]}}}, "dtype": {"type": "DT_FLOAT"}}}, {"name": "conv2d_42/convolution/merged_input", "op": "Const", "attr": {"value": {"tensor": {"dtype": "DT_FLOAT", "tensorShape": {"dim": [{"size": "1"}, {"size": "1"}, {"size": "256"}, {"size": "64"}]}}}, "dtype": {"type": "DT_FLOAT"}}}, {"name": "batch_normalization_38/batchnorm/sub", "op": "Const", "attr": {"dtype": {"type": "DT_FLOAT"}, "value": {"tensor": {"dtype": "DT_FLOAT", "tensorShape": {"dim": [{"size": "64"}]}}}}}, {"name": "conv2d_43/convolution/merged_input", "op": "Const", "attr": {"value": {"tensor": {"dtype": "DT_FLOAT", "tensorShape": {"dim": [{"size": "3"}, {"size": "3"}, {"size": "64"}, {"size": "64"}]}}}, "dtype": {"type": "DT_FLOAT"}}}, {"name": "batch_normalization_39/batchnorm/sub", "op": "Const", "attr": {"value": {"tensor": {"dtype": "DT_FLOAT", "tensorShape": {"dim": [{"size": "64"}]}}}, "dtype": {"type": "DT_FLOAT"}}}, {"name": "conv2d_44/kernel", "op": "Const", "attr": {"value": {"tensor": {"dtype": "DT_FLOAT", "tensorShape": {"dim": [{"size": "1"}, {"size": "1"}, {"size": "64"}, {"size": "256"}]}}}, "dtype": {"type": "DT_FLOAT"}}}, {"name": "batch_normalization_40/batchnorm/mul", "op": "Const", "attr": {"value": {"tensor": {"dtype": "DT_FLOAT", "tensorShape": {"dim": [{"size": "256"}]}}}, "dtype": {"type": "DT_FLOAT"}}}, {"name": "batch_normalization_40/batchnorm/sub", "op": "Const", "attr": {"value": {"tensor": {"dtype": "DT_FLOAT", "tensorShape": {"dim": [{"size": "256"}]}}}, "dtype": {"type": "DT_FLOAT"}}}, {"name": "conv2d_45/convolution/merged_input", "op": "Const", "attr": {"value": {"tensor": {"dtype": "DT_FLOAT", "tensorShape": {"dim": [{"size": "1"}, {"size": "1"}, {"size": "256"}, {"size": "64"}]}}}, "dtype": {"type": "DT_FLOAT"}}}, {"name": "batch_normalization_41/batchnorm/sub", "op": "Const", "attr": {"value": {"tensor": {"dtype": "DT_FLOAT", "tensorShape": {"dim": [{"size": "64"}]}}}, "dtype": {"type": "DT_FLOAT"}}}, {"name": "conv2d_46/convolution/merged_input", "op": "Const", "attr": {"value": {"tensor": {"dtype": "DT_FLOAT", "tensorShape": {"dim": [{"size": "3"}, {"size": "3"}, {"size": "64"}, {"size": "64"}]}}}, "dtype": {"type": "DT_FLOAT"}}}, {"name": "batch_normalization_42/batchnorm/sub", "op": "Const", "attr": {"value": {"tensor": {"dtype": "DT_FLOAT", "tensorShape": {"dim": [{"size": "64"}]}}}, "dtype": {"type": "DT_FLOAT"}}}, {"name": "conv2d_47/kernel", "op": "Const", "attr": {"value": {"tensor": {"dtype": "DT_FLOAT", "tensorShape": {"dim": [{"size": "1"}, {"size": "1"}, {"size": "64"}, {"size": "256"}]}}}, "dtype": {"type": "DT_FLOAT"}}}, {"name": "conv2d_51/kernel", "op": "Const", "attr": {"value": {"tensor": {"dtype": "DT_FLOAT", "tensorShape": {"dim": [{"size": "1"}, {"size": "1"}, {"size": "256"}, {"size": "512"}]}}}, "dtype": {"type": "DT_FLOAT"}}}, {"name": "batch_normalization_46/batchnorm/mul", "op": "Const", "attr": {"value": {"tensor": {"dtype": "DT_FLOAT", "tensorShape": {"dim": [{"size": "512"}]}}}, "dtype": {"type": "DT_FLOAT"}}}, {"name": "batch_normalization_46/batchnorm/sub", "op": "Const", "attr": {"value": {"tensor": {"dtype": "DT_FLOAT", "tensorShape": {"dim": [{"size": "512"}]}}}, "dtype": {"type": "DT_FLOAT"}}}, {"name": "conv2d_52/convolution/merged_input", "op": "Const", "attr": {"dtype": {"type": "DT_FLOAT"}, "value": {"tensor": {"dtype": "DT_FLOAT", "tensorShape": {"dim": [{"size": "1"}, {"size": "1"}, {"size": "512"}, {"size": "128"}]}}}}}, {"name": "batch_normalization_47/batchnorm/sub", "op": "Const", "attr": {"value": {"tensor": {"dtype": "DT_FLOAT", "tensorShape": {"dim": [{"size": "128"}]}}}, "dtype": {"type": "DT_FLOAT"}}}, {"name": "conv2d_53/convolution/merged_input", "op": "Const", "attr": {"value": {"tensor": {"dtype": "DT_FLOAT", "tensorShape": {"dim": [{"size": "3"}, {"size": "3"}, {"size": "128"}, {"size": "128"}]}}}, "dtype": {"type": "DT_FLOAT"}}}, {"name": "batch_normalization_48/batchnorm/sub", "op": "Const", "attr": {"value": {"tensor": {"dtype": "DT_FLOAT", "tensorShape": {"dim": [{"size": "128"}]}}}, "dtype": {"type": "DT_FLOAT"}}}, {"name": "conv2d_54/kernel", "op": "Const", "attr": {"value": {"tensor": {"dtype": "DT_FLOAT", "tensorShape": {"dim": [{"size": "1"}, {"size": "1"}, {"size": "128"}, {"size": "512"}]}}}, "dtype": {"type": "DT_FLOAT"}}}, {"name": "batch_normalization_49/batchnorm/mul", "op": "Const", "attr": {"value": {"tensor": {"dtype": "DT_FLOAT", "tensorShape": {"dim": [{"size": "512"}]}}}, "dtype": {"type": "DT_FLOAT"}}}, {"name": "batch_normalization_49/batchnorm/sub", "op": "Const", "attr": {"value": {"tensor": {"dtype": "DT_FLOAT", "tensorShape": {"dim": [{"size": "512"}]}}}, "dtype": {"type": "DT_FLOAT"}}}, {"name": "conv2d_55/convolution/merged_input", "op": "Const", "attr": {"value": {"tensor": {"dtype": "DT_FLOAT", "tensorShape": {"dim": [{"size": "1"}, {"size": "1"}, {"size": "512"}, {"size": "128"}]}}}, "dtype": {"type": "DT_FLOAT"}}}, {"name": "batch_normalization_50/batchnorm/sub", "op": "Const", "attr": {"value": {"tensor": {"dtype": "DT_FLOAT", "tensorShape": {"dim": [{"size": "128"}]}}}, "dtype": {"type": "DT_FLOAT"}}}, {"name": "conv2d_56/convolution/merged_input", "op": "Const", "attr": {"value": {"tensor": {"dtype": "DT_FLOAT", "tensorShape": {"dim": [{"size": "3"}, {"size": "3"}, {"size": "128"}, {"size": "128"}]}}}, "dtype": {"type": "DT_FLOAT"}}}, {"name": "batch_normalization_51/batchnorm/sub", "op": "Const", "attr": {"value": {"tensor": {"dtype": "DT_FLOAT", "tensorShape": {"dim": [{"size": "128"}]}}}, "dtype": {"type": "DT_FLOAT"}}}, {"name": "conv2d_57/kernel", "op": "Const", "attr": {"value": {"tensor": {"dtype": "DT_FLOAT", "tensorShape": {"dim": [{"size": "1"}, {"size": "1"}, {"size": "128"}, {"size": "512"}]}}}, "dtype": {"type": "DT_FLOAT"}}}, {"name": "conv2d_58/kernel", "op": "Const", "attr": {"value": {"tensor": {"dtype": "DT_FLOAT", "tensorShape": {"dim": [{"size": "1"}, {"size": "1"}, {"size": "514"}, {"size": "512"}]}}}, "dtype": {"type": "DT_FLOAT"}}}, {"name": "conv2d_59/convolution/merged_input", "op": "Const", "attr": {"value": {"tensor": {"dtype": "DT_FLOAT", "tensorShape": {"dim": [{"size": "3"}, {"size": "3"}, {"size": "512"}, {"size": "512"}]}}}, "dtype": {"type": "DT_FLOAT"}}}, {"name": "batch_normalization_52/batchnorm/mul_1", "op": "Const", "attr": {"value": {"tensor": {"dtype": "DT_FLOAT", "tensorShape": {"dim": [{"size": "512"}]}}}, "dtype": {"type": "DT_FLOAT"}}}, {"name": "dense_2/kernel", "op": "Const", "attr": {"value": {"tensor": {"dtype": "DT_FLOAT", "tensorShape": {"dim": [{"size": "128"}, {"size": "512"}]}}}, "dtype": {"type": "DT_FLOAT"}}}, {"name": "dense_2/bias", "op": "Const", "attr": {"value": {"tensor": {"dtype": "DT_FLOAT", "tensorShape": {"dim": [{"size": "512"}]}}}, "dtype": {"type": "DT_FLOAT"}}}, {"name": "batch_normalization_53/batchnorm/mul", "op": "Const", "attr": {"dtype": {"type": "DT_FLOAT"}, "value": {"tensor": {"dtype": "DT_FLOAT", "tensorShape": {"dim": [{"size": "512"}]}}}}}, {"name": "batch_normalization_53/batchnorm/sub", "op": "Const", "attr": {"value": {"tensor": {"dtype": "DT_FLOAT", "tensorShape": {"dim": [{"size": "512"}]}}}, "dtype": {"type": "DT_FLOAT"}}}, {"name": "conv2d_60/convolution/merged_input", "op": "Const", "attr": {"value": {"tensor": {"dtype": "DT_FLOAT", "tensorShape": {"dim": [{"size": "1"}, {"size": "1"}, {"size": "512"}, {"size": "128"}]}}}, "dtype": {"type": "DT_FLOAT"}}}, {"name": "batch_normalization_54/batchnorm/sub", "op": "Const", "attr": {"dtype": {"type": "DT_FLOAT"}, "value": {"tensor": {"dtype": "DT_FLOAT", "tensorShape": {"dim": [{"size": "128"}]}}}}}, {"name": "conv2d_61/convolution/merged_input", "op": "Const", "attr": {"value": {"tensor": {"dtype": "DT_FLOAT", "tensorShape": {"dim": [{"size": "3"}, {"size": "3"}, {"size": "128"}, {"size": "128"}]}}}, "dtype": {"type": "DT_FLOAT"}}}, {"name": "batch_normalization_55/batchnorm/sub", "op": "Const", "attr": {"value": {"tensor": {"dtype": "DT_FLOAT", "tensorShape": {"dim": [{"size": "128"}]}}}, "dtype": {"type": "DT_FLOAT"}}}, {"name": "conv2d_62/kernel", "op": "Const", "attr": {"dtype": {"type": "DT_FLOAT"}, "value": {"tensor": {"dtype": "DT_FLOAT", "tensorShape": {"dim": [{"size": "1"}, {"size": "1"}, {"size": "128"}, {"size": "512"}]}}}}}, {"name": "batch_normalization_56/batchnorm/mul", "op": "Const", "attr": {"value": {"tensor": {"dtype": "DT_FLOAT", "tensorShape": {"dim": [{"size": "512"}]}}}, "dtype": {"type": "DT_FLOAT"}}}, {"name": "batch_normalization_56/batchnorm/sub", "op": "Const", "attr": {"value": {"tensor": {"dtype": "DT_FLOAT", "tensorShape": {"dim": [{"size": "512"}]}}}, "dtype": {"type": "DT_FLOAT"}}}, {"name": "conv2d_63/convolution/merged_input", "op": "Const", "attr": {"value": {"tensor": {"dtype": "DT_FLOAT", "tensorShape": {"dim": [{"size": "1"}, {"size": "1"}, {"size": "512"}, {"size": "128"}]}}}, "dtype": {"type": "DT_FLOAT"}}}, {"name": "batch_normalization_57/batchnorm/sub", "op": "Const", "attr": {"value": {"tensor": {"dtype": "DT_FLOAT", "tensorShape": {"dim": [{"size": "128"}]}}}, "dtype": {"type": "DT_FLOAT"}}}, {"name": "conv2d_64/convolution/merged_input", "op": "Const", "attr": {"value": {"tensor": {"dtype": "DT_FLOAT", "tensorShape": {"dim": [{"size": "3"}, {"size": "3"}, {"size": "128"}, {"size": "128"}]}}}, "dtype": {"type": "DT_FLOAT"}}}, {"name": "batch_normalization_58/batchnorm/sub", "op": "Const", "attr": {"dtype": {"type": "DT_FLOAT"}, "value": {"tensor": {"dtype": "DT_FLOAT", "tensorShape": {"dim": [{"size": "128"}]}}}}}, {"name": "conv2d_65/kernel", "op": "Const", "attr": {"dtype": {"type": "DT_FLOAT"}, "value": {"tensor": {"dtype": "DT_FLOAT", "tensorShape": {"dim": [{"size": "1"}, {"size": "1"}, {"size": "128"}, {"size": "512"}]}}}}}, {"name": "batch_normalization_59/batchnorm/mul", "op": "Const", "attr": {"value": {"tensor": {"dtype": "DT_FLOAT", "tensorShape": {"dim": [{"size": "512"}]}}}, "dtype": {"type": "DT_FLOAT"}}}, {"name": "batch_normalization_59/batchnorm/sub", "op": "Const", "attr": {"value": {"tensor": {"dtype": "DT_FLOAT", "tensorShape": {"dim": [{"size": "512"}]}}}, "dtype": {"type": "DT_FLOAT"}}}, {"name": "conv2d_66/convolution/merged_input", "op": "Const", "attr": {"value": {"tensor": {"dtype": "DT_FLOAT", "tensorShape": {"dim": [{"size": "1"}, {"size": "1"}, {"size": "512"}, {"size": "128"}]}}}, "dtype": {"type": "DT_FLOAT"}}}, {"name": "batch_normalization_60/batchnorm/sub", "op": "Const", "attr": {"value": {"tensor": {"dtype": "DT_FLOAT", "tensorShape": {"dim": [{"size": "128"}]}}}, "dtype": {"type": "DT_FLOAT"}}}, {"name": "conv2d_67/convolution/merged_input", "op": "Const", "attr": {"value": {"tensor": {"dtype": "DT_FLOAT", "tensorShape": {"dim": [{"size": "3"}, {"size": "3"}, {"size": "128"}, {"size": "128"}]}}}, "dtype": {"type": "DT_FLOAT"}}}, {"name": "batch_normalization_61/batchnorm/sub", "op": "Const", "attr": {"dtype": {"type": "DT_FLOAT"}, "value": {"tensor": {"dtype": "DT_FLOAT", "tensorShape": {"dim": [{"size": "128"}]}}}}}, {"name": "conv2d_68/kernel", "op": "Const", "attr": {"value": {"tensor": {"dtype": "DT_FLOAT", "tensorShape": {"dim": [{"size": "1"}, {"size": "1"}, {"size": "128"}, {"size": "512"}]}}}, "dtype": {"type": "DT_FLOAT"}}}, {"name": "batch_normalization_62/batchnorm/mul", "op": "Const", "attr": {"value": {"tensor": {"dtype": "DT_FLOAT", "tensorShape": {"dim": [{"size": "512"}]}}}, "dtype": {"type": "DT_FLOAT"}}}, {"name": "batch_normalization_62/batchnorm/sub", "op": "Const", "attr": {"dtype": {"type": "DT_FLOAT"}, "value": {"tensor": {"dtype": "DT_FLOAT", "tensorShape": {"dim": [{"size": "512"}]}}}}}, {"name": "conv2d_69/convolution/merged_input", "op": "Const", "attr": {"value": {"tensor": {"dtype": "DT_FLOAT", "tensorShape": {"dim": [{"size": "1"}, {"size": "1"}, {"size": "512"}, {"size": "128"}]}}}, "dtype": {"type": "DT_FLOAT"}}}, {"name": "batch_normalization_63/batchnorm/sub", "op": "Const", "attr": {"dtype": {"type": "DT_FLOAT"}, "value": {"tensor": {"dtype": "DT_FLOAT", "tensorShape": {"dim": [{"size": "128"}]}}}}}, {"name": "conv2d_70/convolution/merged_input", "op": "Const", "attr": {"value": {"tensor": {"dtype": "DT_FLOAT", "tensorShape": {"dim": [{"size": "3"}, {"size": "3"}, {"size": "128"}, {"size": "128"}]}}}, "dtype": {"type": "DT_FLOAT"}}}, {"name": "batch_normalization_64/batchnorm/sub", "op": "Const", "attr": {"value": {"tensor": {"dtype": "DT_FLOAT", "tensorShape": {"dim": [{"size": "128"}]}}}, "dtype": {"type": "DT_FLOAT"}}}, {"name": "conv2d_71/kernel", "op": "Const", "attr": {"value": {"tensor": {"dtype": "DT_FLOAT", "tensorShape": {"dim": [{"size": "1"}, {"size": "1"}, {"size": "128"}, {"size": "512"}]}}}, "dtype": {"type": "DT_FLOAT"}}}, {"name": "self_attention_1/gamma", "op": "Const", "attr": {"value": {"tensor": {"dtype": "DT_FLOAT", "tensorShape": {"dim": [{"size": "1"}]}}}, "dtype": {"type": "DT_FLOAT"}}}, {"name": "sub_pixel_conv2d_2/kernel", "op": "Const", "attr": {"value": {"tensor": {"dtype": "DT_FLOAT", "tensorShape": {"dim": [{"size": "1"}, {"size": "1"}, {"size": "512"}, {"size": "1024"}]}}}, "dtype": {"type": "DT_FLOAT"}}}, {"name": "dense_4/kernel", "op": "Const", "attr": {"value": {"tensor": {"dtype": "DT_FLOAT", "tensorShape": {"dim": [{"size": "256"}, {"size": "128"}]}}}, "dtype": {"type": "DT_FLOAT"}}}, {"name": "dense_5/kernel", "op": "Const", "attr": {"value": {"tensor": {"dtype": "DT_FLOAT", "tensorShape": {"dim": [{"size": "128"}, {"size": "256"}]}}}, "dtype": {"type": "DT_FLOAT"}}}, {"name": "conv2d_75/kernel", "op": "Const", "attr": {"value": {"tensor": {"dtype": "DT_FLOAT", "tensorShape": {"dim": [{"size": "1"}, {"size": "1"}, {"size": "514"}, {"size": "256"}]}}}, "dtype": {"type": "DT_FLOAT"}}}, {"name": "conv2d_76/convolution/merged_input", "op": "Const", "attr": {"value": {"tensor": {"dtype": "DT_FLOAT", "tensorShape": {"dim": [{"size": "3"}, {"size": "3"}, {"size": "256"}, {"size": "256"}]}}}, "dtype": {"type": "DT_FLOAT"}}}, {"name": "batch_normalization_68/batchnorm/mul_1", "op": "Const", "attr": {"value": {"tensor": {"dtype": "DT_FLOAT", "tensorShape": {"dim": [{"size": "256"}]}}}, "dtype": {"type": "DT_FLOAT"}}}, {"name": "dense_6/kernel", "op": "Const", "attr": {"value": {"tensor": {"dtype": "DT_FLOAT", "tensorShape": {"dim": [{"size": "128"}, {"size": "256"}]}}}, "dtype": {"type": "DT_FLOAT"}}}, {"name": "dense_6/bias", "op": "Const", "attr": {"value": {"tensor": {"dtype": "DT_FLOAT", "tensorShape": {"dim": [{"size": "256"}]}}}, "dtype": {"type": "DT_FLOAT"}}}, {"name": "batch_normalization_69/batchnorm/mul", "op": "Const", "attr": {"value": {"tensor": {"dtype": "DT_FLOAT", "tensorShape": {"dim": [{"size": "256"}]}}}, "dtype": {"type": "DT_FLOAT"}}}, {"name": "batch_normalization_69/batchnorm/sub", "op": "Const", "attr": {"value": {"tensor": {"dtype": "DT_FLOAT", "tensorShape": {"dim": [{"size": "256"}]}}}, "dtype": {"type": "DT_FLOAT"}}}, {"name": "conv2d_77/convolution/merged_input", "op": "Const", "attr": {"value": {"tensor": {"dtype": "DT_FLOAT", "tensorShape": {"dim": [{"size": "1"}, {"size": "1"}, {"size": "256"}, {"size": "64"}]}}}, "dtype": {"type": "DT_FLOAT"}}}, {"name": "batch_normalization_70/batchnorm/sub", "op": "Const", "attr": {"value": {"tensor": {"dtype": "DT_FLOAT", "tensorShape": {"dim": [{"size": "64"}]}}}, "dtype": {"type": "DT_FLOAT"}}}, {"name": "conv2d_78/convolution/merged_input", "op": "Const", "attr": {"value": {"tensor": {"dtype": "DT_FLOAT", "tensorShape": {"dim": [{"size": "3"}, {"size": "3"}, {"size": "64"}, {"size": "64"}]}}}, "dtype": {"type": "DT_FLOAT"}}}, {"name": "batch_normalization_71/batchnorm/sub", "op": "Const", "attr": {"value": {"tensor": {"dtype": "DT_FLOAT", "tensorShape": {"dim": [{"size": "64"}]}}}, "dtype": {"type": "DT_FLOAT"}}}, {"name": "conv2d_79/kernel", "op": "Const", "attr": {"value": {"tensor": {"dtype": "DT_FLOAT", "tensorShape": {"dim": [{"size": "1"}, {"size": "1"}, {"size": "64"}, {"size": "256"}]}}}, "dtype": {"type": "DT_FLOAT"}}}, {"name": "batch_normalization_72/batchnorm/mul", "op": "Const", "attr": {"value": {"tensor": {"dtype": "DT_FLOAT", "tensorShape": {"dim": [{"size": "256"}]}}}, "dtype": {"type": "DT_FLOAT"}}}, {"name": "batch_normalization_72/batchnorm/sub", "op": "Const", "attr": {"value": {"tensor": {"dtype": "DT_FLOAT", "tensorShape": {"dim": [{"size": "256"}]}}}, "dtype": {"type": "DT_FLOAT"}}}, {"name": "conv2d_80/convolution/merged_input", "op": "Const", "attr": {"value": {"tensor": {"dtype": "DT_FLOAT", "tensorShape": {"dim": [{"size": "1"}, {"size": "1"}, {"size": "256"}, {"size": "64"}]}}}, "dtype": {"type": "DT_FLOAT"}}}, {"name": "batch_normalization_73/batchnorm/sub", "op": "Const", "attr": {"value": {"tensor": {"dtype": "DT_FLOAT", "tensorShape": {"dim": [{"size": "64"}]}}}, "dtype": {"type": "DT_FLOAT"}}}, {"name": "conv2d_81/convolution/merged_input", "op": "Const", "attr": {"value": {"tensor": {"dtype": "DT_FLOAT", "tensorShape": {"dim": [{"size": "3"}, {"size": "3"}, {"size": "64"}, {"size": "64"}]}}}, "dtype": {"type": "DT_FLOAT"}}}, {"name": "batch_normalization_74/batchnorm/sub", "op": "Const", "attr": {"value": {"tensor": {"dtype": "DT_FLOAT", "tensorShape": {"dim": [{"size": "64"}]}}}, "dtype": {"type": "DT_FLOAT"}}}, {"name": "conv2d_82/kernel", "op": "Const", "attr": {"value": {"tensor": {"dtype": "DT_FLOAT", "tensorShape": {"dim": [{"size": "1"}, {"size": "1"}, {"size": "64"}, {"size": "256"}]}}}, "dtype": {"type": "DT_FLOAT"}}}, {"name": "self_attention_2/gamma", "op": "Const", "attr": {"value": {"tensor": {"dtype": "DT_FLOAT", "tensorShape": {"dim": [{"size": "1"}]}}}, "dtype": {"type": "DT_FLOAT"}}}, {"name": "sub_pixel_conv2d_4/kernel", "op": "Const", "attr": {"value": {"tensor": {"dtype": "DT_FLOAT", "tensorShape": {"dim": [{"size": "1"}, {"size": "1"}, {"size": "256"}, {"size": "1024"}]}}}, "dtype": {"type": "DT_FLOAT"}}}, {"name": "dense_8/kernel", "op": "Const", "attr": {"value": {"tensor": {"dtype": "DT_FLOAT", "tensorShape": {"dim": [{"size": "256"}, {"size": "128"}]}}}, "dtype": {"type": "DT_FLOAT"}}}, {"name": "dense_9/kernel", "op": "Const", "attr": {"dtype": {"type": "DT_FLOAT"}, "value": {"tensor": {"dtype": "DT_FLOAT", "tensorShape": {"dim": [{"size": "128"}, {"size": "256"}]}}}}}, {"name": "conv2d_87/kernel", "op": "Const", "attr": {"value": {"tensor": {"dtype": "DT_FLOAT", "tensorShape": {"dim": [{"size": "1"}, {"size": "1"}, {"size": "514"}, {"size": "256"}]}}}, "dtype": {"type": "DT_FLOAT"}}}, {"name": "conv2d_88/convolution/merged_input", "op": "Const", "attr": {"value": {"tensor": {"dtype": "DT_FLOAT", "tensorShape": {"dim": [{"size": "3"}, {"size": "3"}, {"size": "256"}, {"size": "256"}]}}}, "dtype": {"type": "DT_FLOAT"}}}, {"name": "batch_normalization_78/batchnorm/mul_1", "op": "Const", "attr": {"value": {"tensor": {"dtype": "DT_FLOAT", "tensorShape": {"dim": [{"size": "256"}]}}}, "dtype": {"type": "DT_FLOAT"}}}, {"name": "dense_10/kernel", "op": "Const", "attr": {"value": {"tensor": {"dtype": "DT_FLOAT", "tensorShape": {"dim": [{"size": "128"}, {"size": "256"}]}}}, "dtype": {"type": "DT_FLOAT"}}}, {"name": "dense_10/bias", "op": "Const", "attr": {"value": {"tensor": {"dtype": "DT_FLOAT", "tensorShape": {"dim": [{"size": "256"}]}}}, "dtype": {"type": "DT_FLOAT"}}}, {"name": "batch_normalization_79/batchnorm/mul", "op": "Const", "attr": {"value": {"tensor": {"dtype": "DT_FLOAT", "tensorShape": {"dim": [{"size": "256"}]}}}, "dtype": {"type": "DT_FLOAT"}}}, {"name": "batch_normalization_79/batchnorm/sub", "op": "Const", "attr": {"value": {"tensor": {"dtype": "DT_FLOAT", "tensorShape": {"dim": [{"size": "256"}]}}}, "dtype": {"type": "DT_FLOAT"}}}, {"name": "conv2d_89/convolution/merged_input", "op": "Const", "attr": {"value": {"tensor": {"dtype": "DT_FLOAT", "tensorShape": {"dim": [{"size": "1"}, {"size": "1"}, {"size": "256"}, {"size": "64"}]}}}, "dtype": {"type": "DT_FLOAT"}}}, {"name": "batch_normalization_80/batchnorm/sub", "op": "Const", "attr": {"value": {"tensor": {"dtype": "DT_FLOAT", "tensorShape": {"dim": [{"size": "64"}]}}}, "dtype": {"type": "DT_FLOAT"}}}, {"name": "conv2d_90/convolution/merged_input", "op": "Const", "attr": {"dtype": {"type": "DT_FLOAT"}, "value": {"tensor": {"dtype": "DT_FLOAT", "tensorShape": {"dim": [{"size": "3"}, {"size": "3"}, {"size": "64"}, {"size": "64"}]}}}}}, {"name": "batch_normalization_81/batchnorm/sub", "op": "Const", "attr": {"value": {"tensor": {"dtype": "DT_FLOAT", "tensorShape": {"dim": [{"size": "64"}]}}}, "dtype": {"type": "DT_FLOAT"}}}, {"name": "conv2d_91/kernel", "op": "Const", "attr": {"value": {"tensor": {"dtype": "DT_FLOAT", "tensorShape": {"dim": [{"size": "1"}, {"size": "1"}, {"size": "64"}, {"size": "256"}]}}}, "dtype": {"type": "DT_FLOAT"}}}, {"name": "batch_normalization_82/batchnorm/mul", "op": "Const", "attr": {"dtype": {"type": "DT_FLOAT"}, "value": {"tensor": {"dtype": "DT_FLOAT", "tensorShape": {"dim": [{"size": "256"}]}}}}}, {"name": "batch_normalization_82/batchnorm/sub", "op": "Const", "attr": {"value": {"tensor": {"dtype": "DT_FLOAT", "tensorShape": {"dim": [{"size": "256"}]}}}, "dtype": {"type": "DT_FLOAT"}}}, {"name": "conv2d_92/convolution/merged_input", "op": "Const", "attr": {"value": {"tensor": {"dtype": "DT_FLOAT", "tensorShape": {"dim": [{"size": "1"}, {"size": "1"}, {"size": "256"}, {"size": "64"}]}}}, "dtype": {"type": "DT_FLOAT"}}}, {"name": "batch_normalization_83/batchnorm/sub", "op": "Const", "attr": {"value": {"tensor": {"dtype": "DT_FLOAT", "tensorShape": {"dim": [{"size": "64"}]}}}, "dtype": {"type": "DT_FLOAT"}}}, {"name": "conv2d_93/convolution/merged_input", "op": "Const", "attr": {"value": {"tensor": {"dtype": "DT_FLOAT", "tensorShape": {"dim": [{"size": "3"}, {"size": "3"}, {"size": "64"}, {"size": "64"}]}}}, "dtype": {"type": "DT_FLOAT"}}}, {"name": "batch_normalization_84/batchnorm/sub", "op": "Const", "attr": {"value": {"tensor": {"dtype": "DT_FLOAT", "tensorShape": {"dim": [{"size": "64"}]}}}, "dtype": {"type": "DT_FLOAT"}}}, {"name": "conv2d_94/kernel", "op": "Const", "attr": {"dtype": {"type": "DT_FLOAT"}, "value": {"tensor": {"dtype": "DT_FLOAT", "tensorShape": {"dim": [{"size": "1"}, {"size": "1"}, {"size": "64"}, {"size": "256"}]}}}}}, {"name": "self_attention_3/gamma", "op": "Const", "attr": {"value": {"tensor": {"dtype": "DT_FLOAT", "tensorShape": {"dim": [{"size": "1"}]}}}, "dtype": {"type": "DT_FLOAT"}}}, {"name": "sub_pixel_conv2d_6/kernel", "op": "Const", "attr": {"value": {"tensor": {"dtype": "DT_FLOAT", "tensorShape": {"dim": [{"size": "1"}, {"size": "1"}, {"size": "256"}, {"size": "512"}]}}}, "dtype": {"type": "DT_FLOAT"}}}, {"name": "dense_12/kernel", "op": "Const", "attr": {"value": {"tensor": {"dtype": "DT_FLOAT", "tensorShape": {"dim": [{"size": "128"}, {"size": "64"}]}}}, "dtype": {"type": "DT_FLOAT"}}}, {"name": "dense_13/kernel", "op": "Const", "attr": {"value": {"tensor": {"dtype": "DT_FLOAT", "tensorShape": {"dim": [{"size": "64"}, {"size": "128"}]}}}, "dtype": {"type": "DT_FLOAT"}}}, {"name": "batch_normalization_16/batchnorm/mul", "op": "Const", "attr": {"value": {"tensor": {"dtype": "DT_FLOAT", "tensorShape": {"dim": [{"size": "64"}]}}}, "dtype": {"type": "DT_FLOAT"}}}, {"name": "batch_normalization_16/batchnorm/sub", "op": "Const", "attr": {"value": {"tensor": {"dtype": "DT_FLOAT", "tensorShape": {"dim": [{"size": "64"}]}}}, "dtype": {"type": "DT_FLOAT"}}}, {"name": "conv2d_18/convolution/merged_input", "op": "Const", "attr": {"value": {"tensor": {"dtype": "DT_FLOAT", "tensorShape": {"dim": [{"size": "1"}, {"size": "1"}, {"size": "64"}, {"size": "32"}]}}}, "dtype": {"type": "DT_FLOAT"}}}, {"name": "batch_normalization_17/batchnorm/sub", "op": "Const", "attr": {"value": {"tensor": {"dtype": "DT_FLOAT", "tensorShape": {"dim": [{"size": "32"}]}}}, "dtype": {"type": "DT_FLOAT"}}}, {"name": "conv2d_19/convolution/merged_input", "op": "Const", "attr": {"value": {"tensor": {"dtype": "DT_FLOAT", "tensorShape": {"dim": [{"size": "3"}, {"size": "3"}, {"size": "32"}, {"size": "32"}]}}}, "dtype": {"type": "DT_FLOAT"}}}, {"name": "batch_normalization_18/batchnorm/sub", "op": "Const", "attr": {"value": {"tensor": {"dtype": "DT_FLOAT", "tensorShape": {"dim": [{"size": "32"}]}}}, "dtype": {"type": "DT_FLOAT"}}}, {"name": "conv2d_20/kernel", "op": "Const", "attr": {"value": {"tensor": {"dtype": "DT_FLOAT", "tensorShape": {"dim": [{"size": "1"}, {"size": "1"}, {"size": "32"}, {"size": "128"}]}}}, "dtype": {"type": "DT_FLOAT"}}}, {"name": "conv2d_21/kernel", "op": "Const", "attr": {"value": {"tensor": {"dtype": "DT_FLOAT", "tensorShape": {"dim": [{"size": "1"}, {"size": "1"}, {"size": "64"}, {"size": "128"}]}}}, "dtype": {"type": "DT_FLOAT"}}}, {"name": "batch_normalization_19/batchnorm/mul", "op": "Const", "attr": {"value": {"tensor": {"dtype": "DT_FLOAT", "tensorShape": {"dim": [{"size": "128"}]}}}, "dtype": {"type": "DT_FLOAT"}}}, {"name": "batch_normalization_19/batchnorm/sub", "op": "Const", "attr": {"value": {"tensor": {"dtype": "DT_FLOAT", "tensorShape": {"dim": [{"size": "128"}]}}}, "dtype": {"type": "DT_FLOAT"}}}, {"name": "conv2d_22/convolution/merged_input", "op": "Const", "attr": {"value": {"tensor": {"dtype": "DT_FLOAT", "tensorShape": {"dim": [{"size": "1"}, {"size": "1"}, {"size": "128"}, {"size": "32"}]}}}, "dtype": {"type": "DT_FLOAT"}}}, {"name": "batch_normalization_20/batchnorm/sub", "op": "Const", "attr": {"value": {"tensor": {"dtype": "DT_FLOAT", "tensorShape": {"dim": [{"size": "32"}]}}}, "dtype": {"type": "DT_FLOAT"}}}, {"name": "conv2d_23/convolution/merged_input", "op": "Const", "attr": {"value": {"tensor": {"dtype": "DT_FLOAT", "tensorShape": {"dim": [{"size": "3"}, {"size": "3"}, {"size": "32"}, {"size": "32"}]}}}, "dtype": {"type": "DT_FLOAT"}}}, {"name": "batch_normalization_21/batchnorm/sub", "op": "Const", "attr": {"value": {"tensor": {"dtype": "DT_FLOAT", "tensorShape": {"dim": [{"size": "32"}]}}}, "dtype": {"type": "DT_FLOAT"}}}, {"name": "conv2d_24/kernel", "op": "Const", "attr": {"dtype": {"type": "DT_FLOAT"}, "value": {"tensor": {"dtype": "DT_FLOAT", "tensorShape": {"dim": [{"size": "1"}, {"size": "1"}, {"size": "32"}, {"size": "128"}]}}}}}, {"name": "batch_normalization_22/batchnorm/mul", "op": "Const", "attr": {"value": {"tensor": {"dtype": "DT_FLOAT", "tensorShape": {"dim": [{"size": "128"}]}}}, "dtype": {"type": "DT_FLOAT"}}}, {"name": "batch_normalization_22/batchnorm/sub", "op": "Const", "attr": {"value": {"tensor": {"dtype": "DT_FLOAT", "tensorShape": {"dim": [{"size": "128"}]}}}, "dtype": {"type": "DT_FLOAT"}}}, {"name": "conv2d_25/convolution/merged_input", "op": "Const", "attr": {"value": {"tensor": {"dtype": "DT_FLOAT", "tensorShape": {"dim": [{"size": "1"}, {"size": "1"}, {"size": "128"}, {"size": "32"}]}}}, "dtype": {"type": "DT_FLOAT"}}}, {"name": "batch_normalization_23/batchnorm/sub", "op": "Const", "attr": {"value": {"tensor": {"dtype": "DT_FLOAT", "tensorShape": {"dim": [{"size": "32"}]}}}, "dtype": {"type": "DT_FLOAT"}}}, {"name": "conv2d_26/convolution/merged_input", "op": "Const", "attr": {"value": {"tensor": {"dtype": "DT_FLOAT", "tensorShape": {"dim": [{"size": "3"}, {"size": "3"}, {"size": "32"}, {"size": "32"}]}}}, "dtype": {"type": "DT_FLOAT"}}}, {"name": "batch_normalization_24/batchnorm/sub", "op": "Const", "attr": {"value": {"tensor": {"dtype": "DT_FLOAT", "tensorShape": {"dim": [{"size": "32"}]}}}, "dtype": {"type": "DT_FLOAT"}}}, {"name": "conv2d_27/kernel", "op": "Const", "attr": {"value": {"tensor": {"dtype": "DT_FLOAT", "tensorShape": {"dim": [{"size": "1"}, {"size": "1"}, {"size": "32"}, {"size": "128"}]}}}, "dtype": {"type": "DT_FLOAT"}}}, {"name": "conv2d_98/kernel", "op": "Const", "attr": {"dtype": {"type": "DT_FLOAT"}, "value": {"tensor": {"dtype": "DT_FLOAT", "tensorShape": {"dim": [{"size": "1"}, {"size": "1"}, {"size": "258"}, {"size": "128"}]}}}}}, {"name": "conv2d_99/convolution/merged_input", "op": "Const", "attr": {"value": {"tensor": {"dtype": "DT_FLOAT", "tensorShape": {"dim": [{"size": "3"}, {"size": "3"}, {"size": "128"}, {"size": "128"}]}}}, "dtype": {"type": "DT_FLOAT"}}}, {"name": "batch_normalization_88/batchnorm/mul_1", "op": "Const", "attr": {"value": {"tensor": {"dtype": "DT_FLOAT", "tensorShape": {"dim": [{"size": "128"}]}}}, "dtype": {"type": "DT_FLOAT"}}}, {"name": "dense_14/kernel", "op": "Const", "attr": {"value": {"tensor": {"dtype": "DT_FLOAT", "tensorShape": {"dim": [{"size": "128"}, {"size": "128"}]}}}, "dtype": {"type": "DT_FLOAT"}}}, {"name": "dense_14/bias", "op": "Const", "attr": {"value": {"tensor": {"dtype": "DT_FLOAT", "tensorShape": {"dim": [{"size": "128"}]}}}, "dtype": {"type": "DT_FLOAT"}}}, {"name": "batch_normalization_89/batchnorm/mul", "op": "Const", "attr": {"dtype": {"type": "DT_FLOAT"}, "value": {"tensor": {"dtype": "DT_FLOAT", "tensorShape": {"dim": [{"size": "128"}]}}}}}, {"name": "batch_normalization_89/batchnorm/sub", "op": "Const", "attr": {"value": {"tensor": {"dtype": "DT_FLOAT", "tensorShape": {"dim": [{"size": "128"}]}}}, "dtype": {"type": "DT_FLOAT"}}}, {"name": "conv2d_100/convolution/merged_input", "op": "Const", "attr": {"value": {"tensor": {"dtype": "DT_FLOAT", "tensorShape": {"dim": [{"size": "1"}, {"size": "1"}, {"size": "128"}, {"size": "32"}]}}}, "dtype": {"type": "DT_FLOAT"}}}, {"name": "batch_normalization_90/batchnorm/sub", "op": "Const", "attr": {"value": {"tensor": {"dtype": "DT_FLOAT", "tensorShape": {"dim": [{"size": "32"}]}}}, "dtype": {"type": "DT_FLOAT"}}}, {"name": "conv2d_101/convolution/merged_input", "op": "Const", "attr": {"value": {"tensor": {"dtype": "DT_FLOAT", "tensorShape": {"dim": [{"size": "3"}, {"size": "3"}, {"size": "32"}, {"size": "32"}]}}}, "dtype": {"type": "DT_FLOAT"}}}, {"name": "batch_normalization_91/batchnorm/sub", "op": "Const", "attr": {"dtype": {"type": "DT_FLOAT"}, "value": {"tensor": {"dtype": "DT_FLOAT", "tensorShape": {"dim": [{"size": "32"}]}}}}}, {"name": "conv2d_102/kernel", "op": "Const", "attr": {"value": {"tensor": {"dtype": "DT_FLOAT", "tensorShape": {"dim": [{"size": "1"}, {"size": "1"}, {"size": "32"}, {"size": "128"}]}}}, "dtype": {"type": "DT_FLOAT"}}}, {"name": "batch_normalization_92/batchnorm/mul", "op": "Const", "attr": {"value": {"tensor": {"dtype": "DT_FLOAT", "tensorShape": {"dim": [{"size": "128"}]}}}, "dtype": {"type": "DT_FLOAT"}}}, {"name": "batch_normalization_92/batchnorm/sub", "op": "Const", "attr": {"value": {"tensor": {"dtype": "DT_FLOAT", "tensorShape": {"dim": [{"size": "128"}]}}}, "dtype": {"type": "DT_FLOAT"}}}, {"name": "conv2d_103/convolution/merged_input", "op": "Const", "attr": {"value": {"tensor": {"dtype": "DT_FLOAT", "tensorShape": {"dim": [{"size": "1"}, {"size": "1"}, {"size": "128"}, {"size": "32"}]}}}, "dtype": {"type": "DT_FLOAT"}}}, {"name": "batch_normalization_93/batchnorm/sub", "op": "Const", "attr": {"dtype": {"type": "DT_FLOAT"}, "value": {"tensor": {"dtype": "DT_FLOAT", "tensorShape": {"dim": [{"size": "32"}]}}}}}, {"name": "conv2d_104/convolution/merged_input", "op": "Const", "attr": {"value": {"tensor": {"dtype": "DT_FLOAT", "tensorShape": {"dim": [{"size": "3"}, {"size": "3"}, {"size": "32"}, {"size": "32"}]}}}, "dtype": {"type": "DT_FLOAT"}}}, {"name": "batch_normalization_94/batchnorm/sub", "op": "Const", "attr": {"value": {"tensor": {"dtype": "DT_FLOAT", "tensorShape": {"dim": [{"size": "32"}]}}}, "dtype": {"type": "DT_FLOAT"}}}, {"name": "conv2d_105/kernel", "op": "Const", "attr": {"value": {"tensor": {"dtype": "DT_FLOAT", "tensorShape": {"dim": [{"size": "1"}, {"size": "1"}, {"size": "32"}, {"size": "128"}]}}}, "dtype": {"type": "DT_FLOAT"}}}, {"name": "self_attention_4/gamma", "op": "Const", "attr": {"value": {"tensor": {"dtype": "DT_FLOAT", "tensorShape": {"dim": [{"size": "1"}]}}}, "dtype": {"type": "DT_FLOAT"}}}, {"name": "sub_pixel_conv2d_8/kernel", "op": "Const", "attr": {"value": {"tensor": {"dtype": "DT_FLOAT", "tensorShape": {"dim": [{"size": "1"}, {"size": "1"}, {"size": "128"}, {"size": "256"}]}}}, "dtype": {"type": "DT_FLOAT"}}}, {"name": "dense_16/kernel", "op": "Const", "attr": {"dtype": {"type": "DT_FLOAT"}, "value": {"tensor": {"dtype": "DT_FLOAT", "tensorShape": {"dim": [{"size": "64"}, {"size": "32"}]}}}}}, {"name": "dense_17/kernel", "op": "Const", "attr": {"value": {"tensor": {"dtype": "DT_FLOAT", "tensorShape": {"dim": [{"size": "32"}, {"size": "64"}]}}}, "dtype": {"type": "DT_FLOAT"}}}, {"name": "batch_normalization_7/batchnorm/mul", "op": "Const", "attr": {"value": {"tensor": {"dtype": "DT_FLOAT", "tensorShape": {"dim": [{"size": "32"}]}}}, "dtype": {"type": "DT_FLOAT"}}}, {"name": "batch_normalization_7/batchnorm/sub", "op": "Const", "attr": {"value": {"tensor": {"dtype": "DT_FLOAT", "tensorShape": {"dim": [{"size": "32"}]}}}, "dtype": {"type": "DT_FLOAT"}}}, {"name": "conv2d_8/convolution/merged_input", "op": "Const", "attr": {"value": {"tensor": {"dtype": "DT_FLOAT", "tensorShape": {"dim": [{"size": "1"}, {"size": "1"}, {"size": "32"}, {"size": "16"}]}}}, "dtype": {"type": "DT_FLOAT"}}}, {"name": "batch_normalization_8/batchnorm/sub", "op": "Const", "attr": {"value": {"tensor": {"dtype": "DT_FLOAT", "tensorShape": {"dim": [{"size": "16"}]}}}, "dtype": {"type": "DT_FLOAT"}}}, {"name": "conv2d_9/convolution/merged_input", "op": "Const", "attr": {"value": {"tensor": {"dtype": "DT_FLOAT", "tensorShape": {"dim": [{"size": "3"}, {"size": "3"}, {"size": "16"}, {"size": "16"}]}}}, "dtype": {"type": "DT_FLOAT"}}}, {"name": "batch_normalization_9/batchnorm/sub", "op": "Const", "attr": {"value": {"tensor": {"dtype": "DT_FLOAT", "tensorShape": {"dim": [{"size": "16"}]}}}, "dtype": {"type": "DT_FLOAT"}}}, {"name": "conv2d_10/kernel", "op": "Const", "attr": {"value": {"tensor": {"dtype": "DT_FLOAT", "tensorShape": {"dim": [{"size": "1"}, {"size": "1"}, {"size": "16"}, {"size": "64"}]}}}, "dtype": {"type": "DT_FLOAT"}}}, {"name": "leaky_re_lu_129/LeakyRelu/alpha", "op": "Const", "attr": {"value": {"tensor": {"dtype": "DT_FLOAT", "tensorShape": {}}}, "dtype": {"type": "DT_FLOAT"}}}, {"name": "batch_normalization_1/batchnorm/mul", "op": "Const", "attr": {"value": {"tensor": {"dtype": "DT_FLOAT", "tensorShape": {"dim": [{"size": "3"}]}}}, "dtype": {"type": "DT_FLOAT"}}}, {"name": "batch_normalization_1/batchnorm/sub", "op": "Const", "attr": {"value": {"tensor": {"dtype": "DT_FLOAT", "tensorShape": {"dim": [{"size": "3"}]}}}, "dtype": {"type": "DT_FLOAT"}}}, {"name": "conv2d_1/convolution/merged_input", "op": "Const", "attr": {"value": {"tensor": {"dtype": "DT_FLOAT", "tensorShape": {"dim": [{"size": "1"}, {"size": "1"}, {"size": "3"}, {"size": "8"}]}}}, "dtype": {"type": "DT_FLOAT"}}}, {"name": "batch_normalization_2/batchnorm/sub", "op": "Const", "attr": {"value": {"tensor": {"dtype": "DT_FLOAT", "tensorShape": {"dim": [{"size": "8"}]}}}, "dtype": {"type": "DT_FLOAT"}}}, {"name": "conv2d_2/convolution/merged_input", "op": "Const", "attr": {"value": {"tensor": {"dtype": "DT_FLOAT", "tensorShape": {"dim": [{"size": "3"}, {"size": "3"}, {"size": "8"}, {"size": "8"}]}}}, "dtype": {"type": "DT_FLOAT"}}}, {"name": "batch_normalization_3/batchnorm/sub", "op": "Const", "attr": {"value": {"tensor": {"dtype": "DT_FLOAT", "tensorShape": {"dim": [{"size": "8"}]}}}, "dtype": {"type": "DT_FLOAT"}}}, {"name": "conv2d_3/kernel", "op": "Const", "attr": {"value": {"tensor": {"dtype": "DT_FLOAT", "tensorShape": {"dim": [{"size": "1"}, {"size": "1"}, {"size": "8"}, {"size": "32"}]}}}, "dtype": {"type": "DT_FLOAT"}}}, {"name": "coordinate_channel2d_7/arange/start", "op": "Const", "attr": {"value": {"tensor": {"dtype": "DT_INT32", "tensorShape": {}}}, "dtype": {"type": "DT_INT32"}}}, {"name": "coordinate_channel2d_7/strided_slice/stack", "op": "Const", "attr": {"value": {"tensor": {"dtype": "DT_INT32", "tensorShape": {"dim": [{"size": "1"}]}}}, "dtype": {"type": "DT_INT32"}}}, {"name": "coordinate_channel2d_7/ExpandDims/dim", "op": "Const", "attr": {"value": {"tensor": {"dtype": "DT_INT32", "tensorShape": {}}}, "dtype": {"type": "DT_INT32"}}}, {"name": "coordinate_channel2d_7/transpose/perm", "op": "Const", "attr": {"value": {"tensor": {"dtype": "DT_INT32", "tensorShape": {"dim": [{"size": "4"}]}}}, "dtype": {"type": "DT_INT32"}}}, {"name": "conv2d_4/kernel", "op": "Const", "attr": {"value": {"tensor": {"dtype": "DT_FLOAT", "tensorShape": {"dim": [{"size": "1"}, {"size": "1"}, {"size": "3"}, {"size": "32"}]}}}, "dtype": {"type": "DT_FLOAT"}}}, {"name": "batch_normalization_4/batchnorm/mul", "op": "Const", "attr": {"value": {"tensor": {"dtype": "DT_FLOAT", "tensorShape": {"dim": [{"size": "32"}]}}}, "dtype": {"type": "DT_FLOAT"}}}, {"name": "batch_normalization_4/batchnorm/sub", "op": "Const", "attr": {"value": {"tensor": {"dtype": "DT_FLOAT", "tensorShape": {"dim": [{"size": "32"}]}}}, "dtype": {"type": "DT_FLOAT"}}}, {"name": "conv2d_5/convolution/merged_input", "op": "Const", "attr": {"value": {"tensor": {"dtype": "DT_FLOAT", "tensorShape": {"dim": [{"size": "1"}, {"size": "1"}, {"size": "32"}, {"size": "8"}]}}}, "dtype": {"type": "DT_FLOAT"}}}, {"name": "batch_normalization_5/batchnorm/sub", "op": "Const", "attr": {"value": {"tensor": {"dtype": "DT_FLOAT", "tensorShape": {"dim": [{"size": "8"}]}}}, "dtype": {"type": "DT_FLOAT"}}}, {"name": "conv2d_6/convolution/merged_input", "op": "Const", "attr": {"dtype": {"type": "DT_FLOAT"}, "value": {"tensor": {"dtype": "DT_FLOAT", "tensorShape": {"dim": [{"size": "3"}, {"size": "3"}, {"size": "8"}, {"size": "8"}]}}}}}, {"name": "batch_normalization_6/batchnorm/sub", "op": "Const", "attr": {"value": {"tensor": {"dtype": "DT_FLOAT", "tensorShape": {"dim": [{"size": "8"}]}}}, "dtype": {"type": "DT_FLOAT"}}}, {"name": "conv2d_7/kernel", "op": "Const", "attr": {"value": {"tensor": {"dtype": "DT_FLOAT", "tensorShape": {"dim": [{"size": "1"}, {"size": "1"}, {"size": "8"}, {"size": "32"}]}}}, "dtype": {"type": "DT_FLOAT"}}}, {"name": "conv2d_11/kernel", "op": "Const", "attr": {"value": {"tensor": {"dtype": "DT_FLOAT", "tensorShape": {"dim": [{"size": "1"}, {"size": "1"}, {"size": "32"}, {"size": "64"}]}}}, "dtype": {"type": "DT_FLOAT"}}}, {"name": "batch_normalization_10/batchnorm/mul", "op": "Const", "attr": {"value": {"tensor": {"dtype": "DT_FLOAT", "tensorShape": {"dim": [{"size": "64"}]}}}, "dtype": {"type": "DT_FLOAT"}}}, {"name": "batch_normalization_10/batchnorm/sub", "op": "Const", "attr": {"value": {"tensor": {"dtype": "DT_FLOAT", "tensorShape": {"dim": [{"size": "64"}]}}}, "dtype": {"type": "DT_FLOAT"}}}, {"name": "conv2d_12/convolution/merged_input", "op": "Const", "attr": {"value": {"tensor": {"dtype": "DT_FLOAT", "tensorShape": {"dim": [{"size": "1"}, {"size": "1"}, {"size": "64"}, {"size": "16"}]}}}, "dtype": {"type": "DT_FLOAT"}}}, {"name": "batch_normalization_11/batchnorm/sub", "op": "Const", "attr": {"value": {"tensor": {"dtype": "DT_FLOAT", "tensorShape": {"dim": [{"size": "16"}]}}}, "dtype": {"type": "DT_FLOAT"}}}, {"name": "conv2d_13/convolution/merged_input", "op": "Const", "attr": {"value": {"tensor": {"dtype": "DT_FLOAT", "tensorShape": {"dim": [{"size": "3"}, {"size": "3"}, {"size": "16"}, {"size": "16"}]}}}, "dtype": {"type": "DT_FLOAT"}}}, {"name": "batch_normalization_12/batchnorm/sub", "op": "Const", "attr": {"value": {"tensor": {"dtype": "DT_FLOAT", "tensorShape": {"dim": [{"size": "16"}]}}}, "dtype": {"type": "DT_FLOAT"}}}, {"name": "conv2d_14/kernel", "op": "Const", "attr": {"value": {"tensor": {"dtype": "DT_FLOAT", "tensorShape": {"dim": [{"size": "1"}, {"size": "1"}, {"size": "16"}, {"size": "64"}]}}}, "dtype": {"type": "DT_FLOAT"}}}, {"name": "batch_normalization_13/batchnorm/mul", "op": "Const", "attr": {"value": {"tensor": {"dtype": "DT_FLOAT", "tensorShape": {"dim": [{"size": "64"}]}}}, "dtype": {"type": "DT_FLOAT"}}}, {"name": "batch_normalization_13/batchnorm/sub", "op": "Const", "attr": {"value": {"tensor": {"dtype": "DT_FLOAT", "tensorShape": {"dim": [{"size": "64"}]}}}, "dtype": {"type": "DT_FLOAT"}}}, {"name": "conv2d_15/convolution/merged_input", "op": "Const", "attr": {"value": {"tensor": {"dtype": "DT_FLOAT", "tensorShape": {"dim": [{"size": "1"}, {"size": "1"}, {"size": "64"}, {"size": "16"}]}}}, "dtype": {"type": "DT_FLOAT"}}}, {"name": "batch_normalization_14/batchnorm/sub", "op": "Const", "attr": {"value": {"tensor": {"dtype": "DT_FLOAT", "tensorShape": {"dim": [{"size": "16"}]}}}, "dtype": {"type": "DT_FLOAT"}}}, {"name": "conv2d_16/convolution/merged_input", "op": "Const", "attr": {"value": {"tensor": {"dtype": "DT_FLOAT", "tensorShape": {"dim": [{"size": "3"}, {"size": "3"}, {"size": "16"}, {"size": "16"}]}}}, "dtype": {"type": "DT_FLOAT"}}}, {"name": "batch_normalization_15/batchnorm/sub", "op": "Const", "attr": {"value": {"tensor": {"dtype": "DT_FLOAT", "tensorShape": {"dim": [{"size": "16"}]}}}, "dtype": {"type": "DT_FLOAT"}}}, {"name": "conv2d_17/kernel", "op": "Const", "attr": {"value": {"tensor": {"dtype": "DT_FLOAT", "tensorShape": {"dim": [{"size": "1"}, {"size": "1"}, {"size": "16"}, {"size": "64"}]}}}, "dtype": {"type": "DT_FLOAT"}}}, {"name": "coordinate_channel2d_7/mul/y", "op": "Const", "attr": {"dtype": {"type": "DT_FLOAT"}, "value": {"tensor": {"dtype": "DT_FLOAT", "tensorShape": {}}}}}, {"name": "conv2d_110/kernel", "op": "Const", "attr": {"value": {"tensor": {"dtype": "DT_FLOAT", "tensorShape": {"dim": [{"size": "1"}, {"size": "1"}, {"size": "130"}, {"size": "64"}]}}}, "dtype": {"type": "DT_FLOAT"}}}, {"name": "conv2d_111/convolution/merged_input", "op": "Const", "attr": {"value": {"tensor": {"dtype": "DT_FLOAT", "tensorShape": {"dim": [{"size": "3"}, {"size": "3"}, {"size": "64"}, {"size": "64"}]}}}, "dtype": {"type": "DT_FLOAT"}}}, {"name": "batch_normalization_98/batchnorm/mul_1", "op": "Const", "attr": {"value": {"tensor": {"dtype": "DT_FLOAT", "tensorShape": {"dim": [{"size": "64"}]}}}, "dtype": {"type": "DT_FLOAT"}}}, {"name": "dense_18/kernel", "op": "Const", "attr": {"value": {"tensor": {"dtype": "DT_FLOAT", "tensorShape": {"dim": [{"size": "128"}, {"size": "64"}]}}}, "dtype": {"type": "DT_FLOAT"}}}, {"name": "dense_18/bias", "op": "Const", "attr": {"value": {"tensor": {"dtype": "DT_FLOAT", "tensorShape": {"dim": [{"size": "64"}]}}}, "dtype": {"type": "DT_FLOAT"}}}, {"name": "batch_normalization_99/batchnorm/mul", "op": "Const", "attr": {"value": {"tensor": {"dtype": "DT_FLOAT", "tensorShape": {"dim": [{"size": "64"}]}}}, "dtype": {"type": "DT_FLOAT"}}}, {"name": "batch_normalization_99/batchnorm/sub", "op": "Const", "attr": {"value": {"tensor": {"dtype": "DT_FLOAT", "tensorShape": {"dim": [{"size": "64"}]}}}, "dtype": {"type": "DT_FLOAT"}}}, {"name": "conv2d_112/convolution/merged_input", "op": "Const", "attr": {"value": {"tensor": {"dtype": "DT_FLOAT", "tensorShape": {"dim": [{"size": "1"}, {"size": "1"}, {"size": "64"}, {"size": "16"}]}}}, "dtype": {"type": "DT_FLOAT"}}}, {"name": "batch_normalization_100/batchnorm/sub", "op": "Const", "attr": {"value": {"tensor": {"dtype": "DT_FLOAT", "tensorShape": {"dim": [{"size": "16"}]}}}, "dtype": {"type": "DT_FLOAT"}}}, {"name": "conv2d_113/convolution/merged_input", "op": "Const", "attr": {"value": {"tensor": {"dtype": "DT_FLOAT", "tensorShape": {"dim": [{"size": "3"}, {"size": "3"}, {"size": "16"}, {"size": "16"}]}}}, "dtype": {"type": "DT_FLOAT"}}}, {"name": "batch_normalization_101/batchnorm/sub", "op": "Const", "attr": {"value": {"tensor": {"dtype": "DT_FLOAT", "tensorShape": {"dim": [{"size": "16"}]}}}, "dtype": {"type": "DT_FLOAT"}}}, {"name": "conv2d_114/kernel", "op": "Const", "attr": {"value": {"tensor": {"dtype": "DT_FLOAT", "tensorShape": {"dim": [{"size": "1"}, {"size": "1"}, {"size": "16"}, {"size": "64"}]}}}, "dtype": {"type": "DT_FLOAT"}}}, {"name": "batch_normalization_102/batchnorm/mul", "op": "Const", "attr": {"value": {"tensor": {"dtype": "DT_FLOAT", "tensorShape": {"dim": [{"size": "64"}]}}}, "dtype": {"type": "DT_FLOAT"}}}, {"name": "batch_normalization_102/batchnorm/sub", "op": "Const", "attr": {"value": {"tensor": {"dtype": "DT_FLOAT", "tensorShape": {"dim": [{"size": "64"}]}}}, "dtype": {"type": "DT_FLOAT"}}}, {"name": "conv2d_115/convolution/merged_input", "op": "Const", "attr": {"value": {"tensor": {"dtype": "DT_FLOAT", "tensorShape": {"dim": [{"size": "1"}, {"size": "1"}, {"size": "64"}, {"size": "16"}]}}}, "dtype": {"type": "DT_FLOAT"}}}, {"name": "batch_normalization_103/batchnorm/sub", "op": "Const", "attr": {"value": {"tensor": {"dtype": "DT_FLOAT", "tensorShape": {"dim": [{"size": "16"}]}}}, "dtype": {"type": "DT_FLOAT"}}}, {"name": "conv2d_116/convolution/merged_input", "op": "Const", "attr": {"value": {"tensor": {"dtype": "DT_FLOAT", "tensorShape": {"dim": [{"size": "3"}, {"size": "3"}, {"size": "16"}, {"size": "16"}]}}}, "dtype": {"type": "DT_FLOAT"}}}, {"name": "batch_normalization_104/batchnorm/sub", "op": "Const", "attr": {"value": {"tensor": {"dtype": "DT_FLOAT", "tensorShape": {"dim": [{"size": "16"}]}}}, "dtype": {"type": "DT_FLOAT"}}}, {"name": "conv2d_117/kernel", "op": "Const", "attr": {"value": {"tensor": {"dtype": "DT_FLOAT", "tensorShape": {"dim": [{"size": "1"}, {"size": "1"}, {"size": "16"}, {"size": "64"}]}}}, "dtype": {"type": "DT_FLOAT"}}}, {"name": "self_attention_5/gamma", "op": "Const", "attr": {"dtype": {"type": "DT_FLOAT"}, "value": {"tensor": {"dtype": "DT_FLOAT", "tensorShape": {"dim": [{"size": "1"}]}}}}}, {"name": "sub_pixel_conv2d_10/kernel", "op": "Const", "attr": {"dtype": {"type": "DT_FLOAT"}, "value": {"tensor": {"dtype": "DT_FLOAT", "tensorShape": {"dim": [{"size": "1"}, {"size": "1"}, {"size": "64"}, {"size": "128"}]}}}}}, {"name": "global_average_pooling2d_5/Mean/reduction_indices", "op": "Const", "attr": {"dtype": {"type": "DT_INT32"}, "value": {"tensor": {"dtype": "DT_INT32", "tensorShape": {"dim": [{"size": "2"}]}}}}}, {"name": "dense_20/kernel", "op": "Const", "attr": {"value": {"tensor": {"dtype": "DT_FLOAT", "tensorShape": {"dim": [{"size": "32"}, {"size": "16"}]}}}, "dtype": {"type": "DT_FLOAT"}}}, {"name": "dense_21/kernel", "op": "Const", "attr": {"value": {"tensor": {"dtype": "DT_FLOAT", "tensorShape": {"dim": [{"size": "16"}, {"size": "32"}]}}}, "dtype": {"type": "DT_FLOAT"}}}, {"name": "coordinate_channel2d_7/strided_slice_1/stack_1", "op": "Const", "attr": {"value": {"tensor": {"dtype": "DT_INT32", "tensorShape": {"dim": [{"size": "1"}]}}}, "dtype": {"type": "DT_INT32"}}}, {"name": "coordinate_channel2d_1/strided_slice_2/stack_1", "op": "Const", "attr": {"dtype": {"type": "DT_INT32"}, "value": {"tensor": {"dtype": "DT_INT32", "tensorShape": {"dim": [{"size": "1"}]}}}}}, {"name": "coordinate_channel2d_7/strided_slice/stack_1", "op": "Const", "attr": {"value": {"tensor": {"dtype": "DT_INT32", "tensorShape": {"dim": [{"size": "1"}]}}}, "dtype": {"type": "DT_INT32"}}}, {"name": "coordinate_channel2d_7/sub_1/y", "op": "Const", "attr": {"value": {"tensor": {"dtype": "DT_FLOAT", "tensorShape": {}}}, "dtype": {"type": "DT_FLOAT"}}}, {"name": "coordinate_channel2d_1/concat/axis", "op": "Const", "attr": {"value": {"tensor": {"dtype": "DT_INT32", "tensorShape": {}}}, "dtype": {"type": "DT_INT32"}}}, {"name": "conv2d_121/kernel", "op": "Const", "attr": {"value": {"tensor": {"dtype": "DT_FLOAT", "tensorShape": {"dim": [{"size": "1"}, {"size": "1"}, {"size": "66"}, {"size": "32"}]}}}, "dtype": {"type": "DT_FLOAT"}}}, {"name": "conv2d_122/convolution/merged_input", "op": "Const", "attr": {"value": {"tensor": {"dtype": "DT_FLOAT", "tensorShape": {"dim": [{"size": "3"}, {"size": "3"}, {"size": "32"}, {"size": "32"}]}}}, "dtype": {"type": "DT_FLOAT"}}}, {"name": "batch_normalization_108/batchnorm/mul_1", "op": "Const", "attr": {"value": {"tensor": {"dtype": "DT_FLOAT", "tensorShape": {"dim": [{"size": "32"}]}}}, "dtype": {"type": "DT_FLOAT"}}}, {"name": "dense_1/kernel", "op": "Const", "attr": {"value": {"tensor": {"dtype": "DT_FLOAT", "tensorShape": {"dim": [{"size": "3"}, {"size": "128"}]}}}, "dtype": {"type": "DT_FLOAT"}}}, {"name": "dense_1/bias", "op": "Const", "attr": {"value": {"tensor": {"dtype": "DT_FLOAT", "tensorShape": {"dim": [{"size": "128"}]}}}, "dtype": {"type": "DT_FLOAT"}}}, {"name": "dense_22/kernel", "op": "Const", "attr": {"value": {"tensor": {"dtype": "DT_FLOAT", "tensorShape": {"dim": [{"size": "128"}, {"size": "32"}]}}}, "dtype": {"type": "DT_FLOAT"}}}, {"name": "dense_22/bias", "op": "Const", "attr": {"value": {"tensor": {"dtype": "DT_FLOAT", "tensorShape": {"dim": [{"size": "32"}]}}}, "dtype": {"type": "DT_FLOAT"}}}, {"name": "multiply_16/ExpandDims/dim", "op": "Const", "attr": {"value": {"tensor": {"dtype": "DT_INT32", "tensorShape": {}}}, "dtype": {"type": "DT_INT32"}}}, {"name": "batch_normalization_109/batchnorm/mul", "op": "Const", "attr": {"value": {"tensor": {"dtype": "DT_FLOAT", "tensorShape": {"dim": [{"size": "32"}]}}}, "dtype": {"type": "DT_FLOAT"}}}, {"name": "batch_normalization_109/batchnorm/sub", "op": "Const", "attr": {"value": {"tensor": {"dtype": "DT_FLOAT", "tensorShape": {"dim": [{"size": "32"}]}}}, "dtype": {"type": "DT_FLOAT"}}}, {"name": "conv2d_123/convolution/merged_input", "op": "Const", "attr": {"dtype": {"type": "DT_FLOAT"}, "value": {"tensor": {"dtype": "DT_FLOAT", "tensorShape": {"dim": [{"size": "1"}, {"size": "1"}, {"size": "32"}, {"size": "8"}]}}}}}, {"name": "batch_normalization_110/batchnorm/sub", "op": "Const", "attr": {"value": {"tensor": {"dtype": "DT_FLOAT", "tensorShape": {"dim": [{"size": "8"}]}}}, "dtype": {"type": "DT_FLOAT"}}}, {"name": "conv2d_124/convolution/merged_input", "op": "Const", "attr": {"value": {"tensor": {"dtype": "DT_FLOAT", "tensorShape": {"dim": [{"size": "3"}, {"size": "3"}, {"size": "8"}, {"size": "8"}]}}}, "dtype": {"type": "DT_FLOAT"}}}, {"name": "batch_normalization_111/batchnorm/sub", "op": "Const", "attr": {"dtype": {"type": "DT_FLOAT"}, "value": {"tensor": {"dtype": "DT_FLOAT", "tensorShape": {"dim": [{"size": "8"}]}}}}}, {"name": "conv2d_125/kernel", "op": "Const", "attr": {"value": {"tensor": {"dtype": "DT_FLOAT", "tensorShape": {"dim": [{"size": "1"}, {"size": "1"}, {"size": "8"}, {"size": "32"}]}}}, "dtype": {"type": "DT_FLOAT"}}}, {"name": "batch_normalization_112/batchnorm/mul", "op": "Const", "attr": {"value": {"tensor": {"dtype": "DT_FLOAT", "tensorShape": {"dim": [{"size": "32"}]}}}, "dtype": {"type": "DT_FLOAT"}}}, {"name": "batch_normalization_112/batchnorm/sub", "op": "Const", "attr": {"value": {"tensor": {"dtype": "DT_FLOAT", "tensorShape": {"dim": [{"size": "32"}]}}}, "dtype": {"type": "DT_FLOAT"}}}, {"name": "conv2d_126/convolution/merged_input", "op": "Const", "attr": {"value": {"tensor": {"dtype": "DT_FLOAT", "tensorShape": {"dim": [{"size": "1"}, {"size": "1"}, {"size": "32"}, {"size": "8"}]}}}, "dtype": {"type": "DT_FLOAT"}}}, {"name": "batch_normalization_113/batchnorm/sub", "op": "Const", "attr": {"value": {"tensor": {"dtype": "DT_FLOAT", "tensorShape": {"dim": [{"size": "8"}]}}}, "dtype": {"type": "DT_FLOAT"}}}, {"name": "conv2d_127/convolution/merged_input", "op": "Const", "attr": {"value": {"tensor": {"dtype": "DT_FLOAT", "tensorShape": {"dim": [{"size": "3"}, {"size": "3"}, {"size": "8"}, {"size": "8"}]}}}, "dtype": {"type": "DT_FLOAT"}}}, {"name": "batch_normalization_114/batchnorm/sub", "op": "Const", "attr": {"value": {"tensor": {"dtype": "DT_FLOAT", "tensorShape": {"dim": [{"size": "8"}]}}}, "dtype": {"type": "DT_FLOAT"}}}, {"name": "conv2d_128/kernel", "op": "Const", "attr": {"value": {"tensor": {"dtype": "DT_FLOAT", "tensorShape": {"dim": [{"size": "1"}, {"size": "1"}, {"size": "8"}, {"size": "32"}]}}}, "dtype": {"type": "DT_FLOAT"}}}, {"name": "conv2d_132/kernel", "op": "Const", "attr": {"value": {"tensor": {"dtype": "DT_FLOAT", "tensorShape": {"dim": [{"size": "1"}, {"size": "1"}, {"size": "32"}, {"size": "16"}]}}}, "dtype": {"type": "DT_FLOAT"}}}, {"name": "batch_normalization_118/batchnorm/mul", "op": "Const", "attr": {"value": {"tensor": {"dtype": "DT_FLOAT", "tensorShape": {"dim": [{"size": "16"}]}}}, "dtype": {"type": "DT_FLOAT"}}}, {"name": "batch_normalization_118/batchnorm/sub", "op": "Const", "attr": {"value": {"tensor": {"dtype": "DT_FLOAT", "tensorShape": {"dim": [{"size": "16"}]}}}, "dtype": {"type": "DT_FLOAT"}}}, {"name": "conv2d_133/convolution/merged_input", "op": "Const", "attr": {"dtype": {"type": "DT_FLOAT"}, "value": {"tensor": {"dtype": "DT_FLOAT", "tensorShape": {"dim": [{"size": "1"}, {"size": "1"}, {"size": "16"}, {"size": "4"}]}}}}}, {"name": "batch_normalization_119/batchnorm/sub", "op": "Const", "attr": {"value": {"tensor": {"dtype": "DT_FLOAT", "tensorShape": {"dim": [{"size": "4"}]}}}, "dtype": {"type": "DT_FLOAT"}}}, {"name": "conv2d_134/convolution/merged_input", "op": "Const", "attr": {"value": {"tensor": {"dtype": "DT_FLOAT", "tensorShape": {"dim": [{"size": "3"}, {"size": "3"}, {"size": "4"}, {"size": "4"}]}}}, "dtype": {"type": "DT_FLOAT"}}}, {"name": "batch_normalization_120/batchnorm/sub", "op": "Const", "attr": {"value": {"tensor": {"dtype": "DT_FLOAT", "tensorShape": {"dim": [{"size": "4"}]}}}, "dtype": {"type": "DT_FLOAT"}}}, {"name": "conv2d_135/kernel", "op": "Const", "attr": {"value": {"tensor": {"dtype": "DT_FLOAT", "tensorShape": {"dim": [{"size": "1"}, {"size": "1"}, {"size": "4"}, {"size": "16"}]}}}, "dtype": {"type": "DT_FLOAT"}}}, {"name": "batch_normalization_121/batchnorm/mul", "op": "Const", "attr": {"value": {"tensor": {"dtype": "DT_FLOAT", "tensorShape": {"dim": [{"size": "16"}]}}}, "dtype": {"type": "DT_FLOAT"}}}, {"name": "batch_normalization_121/batchnorm/sub", "op": "Const", "attr": {"value": {"tensor": {"dtype": "DT_FLOAT", "tensorShape": {"dim": [{"size": "16"}]}}}, "dtype": {"type": "DT_FLOAT"}}}, {"name": "conv2d_136/convolution/merged_input", "op": "Const", "attr": {"value": {"tensor": {"dtype": "DT_FLOAT", "tensorShape": {"dim": [{"size": "1"}, {"size": "1"}, {"size": "16"}, {"size": "4"}]}}}, "dtype": {"type": "DT_FLOAT"}}}, {"name": "batch_normalization_122/batchnorm/sub", "op": "Const", "attr": {"value": {"tensor": {"dtype": "DT_FLOAT", "tensorShape": {"dim": [{"size": "4"}]}}}, "dtype": {"type": "DT_FLOAT"}}}, {"name": "conv2d_137/convolution/merged_input", "op": "Const", "attr": {"value": {"tensor": {"dtype": "DT_FLOAT", "tensorShape": {"dim": [{"size": "3"}, {"size": "3"}, {"size": "4"}, {"size": "4"}]}}}, "dtype": {"type": "DT_FLOAT"}}}, {"name": "batch_normalization_123/batchnorm/sub", "op": "Const", "attr": {"value": {"tensor": {"dtype": "DT_FLOAT", "tensorShape": {"dim": [{"size": "4"}]}}}, "dtype": {"type": "DT_FLOAT"}}}, {"name": "conv2d_138/kernel", "op": "Const", "attr": {"value": {"tensor": {"dtype": "DT_FLOAT", "tensorShape": {"dim": [{"size": "1"}, {"size": "1"}, {"size": "4"}, {"size": "16"}]}}}, "dtype": {"type": "DT_FLOAT"}}}, {"name": "conv2d_139/kernel", "op": "Const", "attr": {"value": {"tensor": {"dtype": "DT_FLOAT", "tensorShape": {"dim": [{"size": "1"}, {"size": "1"}, {"size": "16"}, {"size": "1"}]}}}, "dtype": {"type": "DT_FLOAT"}}}, {"name": "conv2d_139/bias", "op": "Const", "attr": {"value": {"tensor": {"dtype": "DT_FLOAT", "tensorShape": {"dim": [{"size": "1"}]}}}, "dtype": {"type": "DT_FLOAT"}}}, {"name": "input_1", "op": "Placeholder", "attr": {"shape": {"shape": {"dim": [{"size": "-1"}, {"size": "3"}]}}, "dtype": {"type": "DT_FLOAT"}}}, {"name": "input_2", "op": "Placeholder", "attr": {"shape": {"shape": {"dim": [{"size": "-1"}, {"size": "-1"}, {"size": "-1"}, {"size": "1"}]}}, "dtype": {"type": "DT_FLOAT"}}}, {"name": "dense_1/BiasAdd", "op": "_FusedMatMul", "input": ["input_1", "dense_1/kernel", "dense_1/bias"], "device": "/device:CPU:0", "attr": {"fused_ops": {"list": {"s": ["Qmlhc0FkZA=="]}}, "transpose_a": {"b": false}, "transpose_b": {"b": false}, "T": {"type": "DT_FLOAT"}, "num_args": {"i": "1"}, "epsilon": {"f": 0.0}}}, {"name": "coordinate_channel2d_1/Shape", "op": "Shape", "input": ["input_2"], "attr": {"out_type": {"type": "DT_INT32"}, "T": {"type": "DT_FLOAT"}}}, {"name": "dense_1/Tanh", "op": "Tanh", "input": ["dense_1/BiasAdd"], "attr": {"T": {"type": "DT_FLOAT"}}}, {"name": "coordinate_channel2d_1/strided_slice", "op": "StridedSlice", "input": ["coordinate_channel2d_1/Shape", "coordinate_channel2d_7/strided_slice/stack", "coordinate_channel2d_7/strided_slice/stack_1", "coordinate_channel2d_7/strided_slice/stack_1"], "attr": {"begin_mask": {"i": "0"}, "ellipsis_mask": {"i": "0"}, "new_axis_mask": {"i": "0"}, "end_mask": {"i": "0"}, "Index": {"type": "DT_INT32"}, "T": {"type": "DT_INT32"}, "shrink_axis_mask": {"i": "1"}}}, {"name": "coordinate_channel2d_1/strided_slice_1", "op": "StridedSlice", "input": ["coordinate_channel2d_1/Shape", "coordinate_channel2d_7/strided_slice/stack_1", "coordinate_channel2d_7/strided_slice_1/stack_1", "coordinate_channel2d_7/strided_slice/stack_1"], "attr": {"T": {"type": "DT_INT32"}, "Index": {"type": "DT_INT32"}, "shrink_axis_mask": {"i": "1"}, "begin_mask": {"i": "0"}, "ellipsis_mask": {"i": "0"}, "new_axis_mask": {"i": "0"}, "end_mask": {"i": "0"}}}, {"name": "coordinate_channel2d_1/strided_slice_2", "op": "StridedSlice", "input": ["coordinate_channel2d_1/Shape", "coordinate_channel2d_7/strided_slice_1/stack_1", "coordinate_channel2d_1/strided_slice_2/stack_1", "coordinate_channel2d_7/strided_slice/stack_1"], "attr": {"shrink_axis_mask": {"i": "1"}, "ellipsis_mask": {"i": "0"}, "begin_mask": {"i": "0"}, "new_axis_mask": {"i": "0"}, "end_mask": {"i": "0"}, "Index": {"type": "DT_INT32"}, "T": {"type": "DT_INT32"}}}, {"name": "dense_23/BiasAdd", "op": "_FusedMatMul", "input": ["dense_1/Tanh", "dense_23/kernel", "dense_23/bias"], "device": "/device:CPU:0", "attr": {"num_args": {"i": "1"}, "epsilon": {"f": 0.0}, "fused_ops": {"list": {"s": ["Qmlhc0FkZA=="]}}, "transpose_a": {"b": false}, "transpose_b": {"b": false}, "T": {"type": "DT_FLOAT"}}}, {"name": "dense_19/BiasAdd", "op": "_FusedMatMul", "input": ["dense_1/Tanh", "dense_19/kernel", "dense_19/bias"], "device": "/device:CPU:0", "attr": {"num_args": {"i": "1"}, "epsilon": {"f": 0.0}, "fused_ops": {"list": {"s": ["Qmlhc0FkZA=="]}}, "transpose_a": {"b": false}, "transpose_b": {"b": false}, "T": {"type": "DT_FLOAT"}}}, {"name": "dense_15/BiasAdd", "op": "_FusedMatMul", "input": ["dense_1/Tanh", "dense_15/kernel", "dense_15/bias"], "device": "/device:CPU:0", "attr": {"num_args": {"i": "1"}, "epsilon": {"f": 0.0}, "fused_ops": {"list": {"s": ["Qmlhc0FkZA=="]}}, "transpose_a": {"b": false}, "transpose_b": {"b": false}, "T": {"type": "DT_FLOAT"}}}, {"name": "dense_11/BiasAdd", "op": "_FusedMatMul", "input": ["dense_1/Tanh", "dense_11/kernel", "dense_11/bias"], "device": "/device:CPU:0", "attr": {"num_args": {"i": "1"}, "epsilon": {"f": 0.0}, "fused_ops": {"list": {"s": ["Qmlhc0FkZA=="]}}, "transpose_a": {"b": false}, "transpose_b": {"b": false}, "T": {"type": "DT_FLOAT"}}}, {"name": "dense_7/BiasAdd", "op": "_FusedMatMul", "input": ["dense_1/Tanh", "dense_7/kernel", "dense_7/bias"], "device": "/device:CPU:0", "attr": {"T": {"type": "DT_FLOAT"}, "num_args": {"i": "1"}, "epsilon": {"f": 0.0}, "fused_ops": {"list": {"s": ["Qmlhc0FkZA=="]}}, "transpose_a": {"b": false}, "transpose_b": {"b": false}}}, {"name": "dense_3/BiasAdd", "op": "_FusedMatMul", "input": ["dense_1/Tanh", "dense_3/kernel", "dense_3/bias"], "device": "/device:CPU:0", "attr": {"fused_ops": {"list": {"s": ["Qmlhc0FkZA=="]}}, "transpose_a": {"b": false}, "transpose_b": {"b": false}, "T": {"type": "DT_FLOAT"}, "num_args": {"i": "1"}, "epsilon": {"f": 0.0}}}, {"name": "dense_2/BiasAdd", "op": "_FusedMatMul", "input": ["dense_1/Tanh", "dense_2/kernel", "dense_2/bias"], "device": "/device:CPU:0", "attr": {"transpose_a": {"b": false}, "transpose_b": {"b": false}, "T": {"type": "DT_FLOAT"}, "num_args": {"i": "1"}, "epsilon": {"f": 0.0}, "fused_ops": {"list": {"s": ["Qmlhc0FkZA=="]}}}}, {"name": "dense_6/BiasAdd", "op": "_FusedMatMul", "input": ["dense_1/Tanh", "dense_6/kernel", "dense_6/bias"], "device": "/device:CPU:0", "attr": {"T": {"type": "DT_FLOAT"}, "num_args": {"i": "1"}, "epsilon": {"f": 0.0}, "fused_ops": {"list": {"s": ["Qmlhc0FkZA=="]}}, "transpose_a": {"b": false}, "transpose_b": {"b": false}}}, {"name": "dense_10/BiasAdd", "op": "_FusedMatMul", "input": ["dense_1/Tanh", "dense_10/kernel", "dense_10/bias"], "device": "/device:CPU:0", "attr": {"num_args": {"i": "1"}, "epsilon": {"f": 0.0}, "fused_ops": {"list": {"s": ["Qmlhc0FkZA=="]}}, "transpose_a": {"b": false}, "transpose_b": {"b": false}, "T": {"type": "DT_FLOAT"}}}, {"name": "dense_14/BiasAdd", "op": "_FusedMatMul", "input": ["dense_1/Tanh", "dense_14/kernel", "dense_14/bias"], "device": "/device:CPU:0", "attr": {"epsilon": {"f": 0.0}, "fused_ops": {"list": {"s": ["Qmlhc0FkZA=="]}}, "transpose_a": {"b": false}, "transpose_b": {"b": false}, "T": {"type": "DT_FLOAT"}, "num_args": {"i": "1"}}}, {"name": "dense_18/BiasAdd", "op": "_FusedMatMul", "input": ["dense_1/Tanh", "dense_18/kernel", "dense_18/bias"], "device": "/device:CPU:0", "attr": {"transpose_b": {"b": false}, "T": {"type": "DT_FLOAT"}, "num_args": {"i": "1"}, "epsilon": {"f": 0.0}, "fused_ops": {"list": {"s": ["Qmlhc0FkZA=="]}}, "transpose_a": {"b": false}}}, {"name": "dense_22/BiasAdd", "op": "_FusedMatMul", "input": ["dense_1/Tanh", "dense_22/kernel", "dense_22/bias"], "device": "/device:CPU:0", "attr": {"num_args": {"i": "1"}, "epsilon": {"f": 0.0}, "fused_ops": {"list": {"s": ["Qmlhc0FkZA=="]}}, "transpose_a": {"b": false}, "transpose_b": {"b": false}, "T": {"type": "DT_FLOAT"}}}, {"name": "coordinate_channel2d_1/stack_1", "op": "Pack", "input": ["coordinate_channel2d_1/strided_slice", "multiply_16/ExpandDims/dim"], "attr": {"T": {"type": "DT_INT32"}, "axis": {"i": "0"}, "N": {"i": "2"}}}, {"name": "coordinate_channel2d_1/arange", "op": "Range", "input": ["coordinate_channel2d_7/arange/start", "coordinate_channel2d_1/strided_slice_1", "multiply_16/ExpandDims/dim"], "attr": {"Tidx": {"type": "DT_INT32"}}}, {"name": "coordinate_channel2d_1/sub", "op": "Sub", "input": ["coordinate_channel2d_1/strided_slice_1", "multiply_16/ExpandDims/dim"], "attr": {"T": {"type": "DT_INT32"}}}, {"name": "coordinate_channel2d_1/stack_2", "op": "Pack", "input": ["coordinate_channel2d_1/strided_slice", "coordinate_channel2d_1/strided_slice_1"], "attr": {"T": {"type": "DT_INT32"}, "axis": {"i": "0"}, "N": {"i": "2"}}}, {"name": "coordinate_channel2d_1/stack", "op": "Pack", "input": ["coordinate_channel2d_1/strided_slice", "coordinate_channel2d_1/strided_slice_2"], "attr": {"T": {"type": "DT_INT32"}, "axis": {"i": "0"}, "N": {"i": "2"}}}, {"name": "coordinate_channel2d_1/arange_1", "op": "Range", "input": ["coordinate_channel2d_7/arange/start", "coordinate_channel2d_1/strided_slice_2", "multiply_16/ExpandDims/dim"], "attr": {"Tidx": {"type": "DT_INT32"}}}, {"name": "coordinate_channel2d_1/sub_2", "op": "Sub", "input": ["coordinate_channel2d_1/strided_slice_2", "multiply_16/ExpandDims/dim"], "attr": {"T": {"type": "DT_INT32"}}}, {"name": "add_50/ExpandDims", "op": "ExpandDims", "input": ["dense_23/BiasAdd", "multiply_16/ExpandDims/dim"], "attr": {"Tdim": {"type": "DT_INT32"}, "T": {"type": "DT_FLOAT"}}}, {"name": "add_44/ExpandDims", "op": "ExpandDims", "input": ["dense_19/BiasAdd", "multiply_16/ExpandDims/dim"], "attr": {"T": {"type": "DT_FLOAT"}, "Tdim": {"type": "DT_INT32"}}}, {"name": "add_38/ExpandDims", "op": "ExpandDims", "input": ["dense_15/BiasAdd", "multiply_16/ExpandDims/dim"], "attr": {"Tdim": {"type": "DT_INT32"}, "T": {"type": "DT_FLOAT"}}}, {"name": "add_32/ExpandDims", "op": "ExpandDims", "input": ["dense_11/BiasAdd", "multiply_16/ExpandDims/dim"], "attr": {"Tdim": {"type": "DT_INT32"}, "T": {"type": "DT_FLOAT"}}}, {"name": "add_26/ExpandDims", "op": "ExpandDims", "input": ["dense_7/BiasAdd", "multiply_16/ExpandDims/dim"], "attr": {"Tdim": {"type": "DT_INT32"}, "T": {"type": "DT_FLOAT"}}}, {"name": "add_18/ExpandDims", "op": "ExpandDims", "input": ["dense_3/BiasAdd", "multiply_16/ExpandDims/dim"], "attr": {"Tdim": {"type": "DT_INT32"}, "T": {"type": "DT_FLOAT"}}}, {"name": "multiply_1/ExpandDims", "op": "ExpandDims", "input": ["dense_2/BiasAdd", "multiply_16/ExpandDims/dim"], "attr": {"T": {"type": "DT_FLOAT"}, "Tdim": {"type": "DT_INT32"}}}, {"name": "multiply_4/ExpandDims", "op": "ExpandDims", "input": ["dense_6/BiasAdd", "multiply_16/ExpandDims/dim"], "attr": {"Tdim": {"type": "DT_INT32"}, "T": {"type": "DT_FLOAT"}}}, {"name": "multiply_7/ExpandDims", "op": "ExpandDims", "input": ["dense_10/BiasAdd", "multiply_16/ExpandDims/dim"], "attr": {"T": {"type": "DT_FLOAT"}, "Tdim": {"type": "DT_INT32"}}}, {"name": "multiply_10/ExpandDims", "op": "ExpandDims", "input": ["dense_14/BiasAdd", "multiply_16/ExpandDims/dim"], "attr": {"Tdim": {"type": "DT_INT32"}, "T": {"type": "DT_FLOAT"}}}, {"name": "multiply_13/ExpandDims", "op": "ExpandDims", "input": ["dense_18/BiasAdd", "multiply_16/ExpandDims/dim"], "attr": {"Tdim": {"type": "DT_INT32"}, "T": {"type": "DT_FLOAT"}}}, {"name": "multiply_16/ExpandDims", "op": "ExpandDims", "input": ["dense_22/BiasAdd", "multiply_16/ExpandDims/dim"], "attr": {"Tdim": {"type": "DT_INT32"}, "T": {"type": "DT_FLOAT"}}}, {"name": "coordinate_channel2d_1/ExpandDims_1", "op": "ExpandDims", "input": ["coordinate_channel2d_1/arange", "coordinate_channel2d_7/arange/start"], "attr": {"T": {"type": "DT_INT32"}, "Tdim": {"type": "DT_INT32"}}}, {"name": "coordinate_channel2d_1/Cast_1", "op": "Cast", "input": ["coordinate_channel2d_1/sub"], "attr": {"SrcT": {"type": "DT_INT32"}, "Truncate": {"b": false}, "DstT": {"type": "DT_FLOAT"}}}, {"name": "coordinate_channel2d_1/ones_1", "op": "Fill", "input": ["coordinate_channel2d_1/stack_2", "multiply_16/ExpandDims/dim"], "attr": {"T": {"type": "DT_INT32"}, "index_type": {"type": "DT_INT32"}}}, {"name": "coordinate_channel2d_1/ones", "op": "Fill", "input": ["coordinate_channel2d_1/stack", "multiply_16/ExpandDims/dim"], "attr": {"T": {"type": "DT_INT32"}, "index_type": {"type": "DT_INT32"}}}, {"name": "coordinate_channel2d_1/ExpandDims_5", "op": "ExpandDims", "input": ["coordinate_channel2d_1/arange_1", "coordinate_channel2d_7/arange/start"], "attr": {"Tdim": {"type": "DT_INT32"}, "T": {"type": "DT_INT32"}}}, {"name": "coordinate_channel2d_1/Cast_3", "op": "Cast", "input": ["coordinate_channel2d_1/sub_2"], "attr": {"SrcT": {"type": "DT_INT32"}, "Truncate": {"b": false}, "DstT": {"type": "DT_FLOAT"}}}, {"name": "add_50/ExpandDims_1", "op": "ExpandDims", "input": ["add_50/ExpandDims", "multiply_16/ExpandDims/dim"], "attr": {"T": {"type": "DT_FLOAT"}, "Tdim": {"type": "DT_INT32"}}}, {"name": "add_44/ExpandDims_1", "op": "ExpandDims", "input": ["add_44/ExpandDims", "multiply_16/ExpandDims/dim"], "attr": {"Tdim": {"type": "DT_INT32"}, "T": {"type": "DT_FLOAT"}}}, {"name": "add_38/ExpandDims_1", "op": "ExpandDims", "input": ["add_38/ExpandDims", "multiply_16/ExpandDims/dim"], "attr": {"T": {"type": "DT_FLOAT"}, "Tdim": {"type": "DT_INT32"}}}, {"name": "add_32/ExpandDims_1", "op": "ExpandDims", "input": ["add_32/ExpandDims", "multiply_16/ExpandDims/dim"], "attr": {"Tdim": {"type": "DT_INT32"}, "T": {"type": "DT_FLOAT"}}}, {"name": "add_26/ExpandDims_1", "op": "ExpandDims", "input": ["add_26/ExpandDims", "multiply_16/ExpandDims/dim"], "attr": {"Tdim": {"type": "DT_INT32"}, "T": {"type": "DT_FLOAT"}}}, {"name": "add_18/ExpandDims_1", "op": "ExpandDims", "input": ["add_18/ExpandDims", "multiply_16/ExpandDims/dim"], "attr": {"Tdim": {"type": "DT_INT32"}, "T": {"type": "DT_FLOAT"}}}, {"name": "multiply_1/ExpandDims_1", "op": "ExpandDims", "input": ["multiply_1/ExpandDims", "multiply_16/ExpandDims/dim"], "attr": {"Tdim": {"type": "DT_INT32"}, "T": {"type": "DT_FLOAT"}}}, {"name": "multiply_4/ExpandDims_1", "op": "ExpandDims", "input": ["multiply_4/ExpandDims", "multiply_16/ExpandDims/dim"], "attr": {"Tdim": {"type": "DT_INT32"}, "T": {"type": "DT_FLOAT"}}}, {"name": "multiply_7/ExpandDims_1", "op": "ExpandDims", "input": ["multiply_7/ExpandDims", "multiply_16/ExpandDims/dim"], "attr": {"Tdim": {"type": "DT_INT32"}, "T": {"type": "DT_FLOAT"}}}, {"name": "multiply_10/ExpandDims_1", "op": "ExpandDims", "input": ["multiply_10/ExpandDims", "multiply_16/ExpandDims/dim"], "attr": {"Tdim": {"type": "DT_INT32"}, "T": {"type": "DT_FLOAT"}}}, {"name": "multiply_13/ExpandDims_1", "op": "ExpandDims", "input": ["multiply_13/ExpandDims", "multiply_16/ExpandDims/dim"], "attr": {"T": {"type": "DT_FLOAT"}, "Tdim": {"type": "DT_INT32"}}}, {"name": "multiply_16/ExpandDims_1", "op": "ExpandDims", "input": ["multiply_16/ExpandDims", "multiply_16/ExpandDims/dim"], "attr": {"Tdim": {"type": "DT_INT32"}, "T": {"type": "DT_FLOAT"}}}, {"name": "coordinate_channel2d_1/Tile", "op": "Tile", "input": ["coordinate_channel2d_1/ExpandDims_1", "coordinate_channel2d_1/stack_1"], "attr": {"Tmultiples": {"type": "DT_INT32"}, "T": {"type": "DT_INT32"}}}, {"name": "coordinate_channel2d_1/ExpandDims_4", "op": "ExpandDims", "input": ["coordinate_channel2d_1/ones_1", "multiply_16/ExpandDims/dim"], "attr": {"Tdim": {"type": "DT_INT32"}, "T": {"type": "DT_INT32"}}}, {"name": "coordinate_channel2d_1/ExpandDims", "op": "ExpandDims", "input": ["coordinate_channel2d_1/ones", "coordinate_channel2d_7/ExpandDims/dim"], "attr": {"Tdim": {"type": "DT_INT32"}, "T": {"type": "DT_INT32"}}}, {"name": "coordinate_channel2d_1/Tile_1", "op": "Tile", "input": ["coordinate_channel2d_1/ExpandDims_5", "coordinate_channel2d_1/stack_1"], "attr": {"Tmultiples": {"type": "DT_INT32"}, "T": {"type": "DT_INT32"}}}, {"name": "coordinate_channel2d_1/ExpandDims_2", "op": "ExpandDims", "input": ["coordinate_channel2d_1/Tile", "multiply_16/ExpandDims/dim"], "attr": {"Tdim": {"type": "DT_INT32"}, "T": {"type": "DT_INT32"}}}, {"name": "coordinate_channel2d_1/ExpandDims_6", "op": "ExpandDims", "input": ["coordinate_channel2d_1/Tile_1", "coordinate_channel2d_7/ExpandDims/dim"], "attr": {"Tdim": {"type": "DT_INT32"}, "T": {"type": "DT_INT32"}}}, {"name": "coordinate_channel2d_1/MatMul", "op": "BatchMatMul", "input": ["coordinate_channel2d_1/ExpandDims", "coordinate_channel2d_1/ExpandDims_2"], "attr": {"adj_x": {"b": false}, "adj_y": {"b": false}, "T": {"type": "DT_INT32"}}}, {"name": "coordinate_channel2d_1/MatMul_1", "op": "BatchMatMul", "input": ["coordinate_channel2d_1/ExpandDims_6", "coordinate_channel2d_1/ExpandDims_4"], "attr": {"adj_x": {"b": false}, "adj_y": {"b": false}, "T": {"type": "DT_INT32"}}}, {"name": "coordinate_channel2d_1/ExpandDims_3", "op": "ExpandDims", "input": ["coordinate_channel2d_1/MatMul", "coordinate_channel2d_7/ExpandDims/dim"], "attr": {"Tdim": {"type": "DT_INT32"}, "T": {"type": "DT_INT32"}}}, {"name": "coordinate_channel2d_1/ExpandDims_7", "op": "ExpandDims", "input": ["coordinate_channel2d_1/MatMul_1", "coordinate_channel2d_7/ExpandDims/dim"], "attr": {"Tdim": {"type": "DT_INT32"}, "T": {"type": "DT_INT32"}}}, {"name": "coordinate_channel2d_1/transpose", "op": "Transpose", "input": ["coordinate_channel2d_1/ExpandDims_3", "coordinate_channel2d_7/transpose/perm"], "attr": {"T": {"type": "DT_INT32"}, "Tperm": {"type": "DT_INT32"}}}, {"name": "coordinate_channel2d_1/transpose_1", "op": "Transpose", "input": ["coordinate_channel2d_1/ExpandDims_7", "coordinate_channel2d_7/transpose/perm"], "attr": {"Tperm": {"type": "DT_INT32"}, "T": {"type": "DT_INT32"}}}, {"name": "coordinate_channel2d_1/Cast", "op": "Cast", "input": ["coordinate_channel2d_1/transpose"], "attr": {"SrcT": {"type": "DT_INT32"}, "Truncate": {"b": false}, "DstT": {"type": "DT_FLOAT"}}}, {"name": "coordinate_channel2d_1/Cast_2", "op": "Cast", "input": ["coordinate_channel2d_1/transpose_1"], "attr": {"Truncate": {"b": false}, "DstT": {"type": "DT_FLOAT"}, "SrcT": {"type": "DT_INT32"}}}, {"name": "coordinate_channel2d_1/truediv", "op": "RealDiv", "input": ["coordinate_channel2d_1/Cast", "coordinate_channel2d_1/Cast_1"], "attr": {"T": {"type": "DT_FLOAT"}}}, {"name": "coordinate_channel2d_1/truediv_1", "op": "RealDiv", "input": ["coordinate_channel2d_1/Cast_2", "coordinate_channel2d_1/Cast_3"], "attr": {"T": {"type": "DT_FLOAT"}}}, {"name": "coordinate_channel2d_1/mul", "op": "Mul", "input": ["coordinate_channel2d_1/truediv", "coordinate_channel2d_7/mul/y"], "attr": {"T": {"type": "DT_FLOAT"}}}, {"name": "coordinate_channel2d_1/mul_1", "op": "Mul", "input": ["coordinate_channel2d_1/truediv_1", "coordinate_channel2d_7/mul/y"], "attr": {"T": {"type": "DT_FLOAT"}}}, {"name": "coordinate_channel2d_1/sub_1", "op": "Sub", "input": ["coordinate_channel2d_1/mul", "coordinate_channel2d_7/sub_1/y"], "attr": {"T": {"type": "DT_FLOAT"}}}, {"name": "coordinate_channel2d_1/sub_3", "op": "Sub", "input": ["coordinate_channel2d_1/mul_1", "coordinate_channel2d_7/sub_1/y"], "attr": {"T": {"type": "DT_FLOAT"}}}, {"name": "coordinate_channel2d_1/concat", "op": "ConcatV2", "input": ["input_2", "coordinate_channel2d_1/sub_1", "coordinate_channel2d_1/sub_3", "coordinate_channel2d_1/concat/axis"], "attr": {"Tidx": {"type": "DT_INT32"}, "T": {"type": "DT_FLOAT"}, "N": {"i": "3"}}}, {"name": "batch_normalization_1/batchnorm/mul_1", "op": "Mul", "input": ["batch_normalization_1/batchnorm/mul", "coordinate_channel2d_1/concat"], "attr": {"T": {"type": "DT_FLOAT"}}}, {"name": "conv2d_4/convolution", "op": "Conv2D", "input": ["coordinate_channel2d_1/concat", "conv2d_4/kernel"], "device": "/device:CPU:0", "attr": {"padding": {"s": "VkFMSUQ="}, "dilations": {"list": {"i": ["1", "1", "1", "1"]}}, "T": {"type": "DT_FLOAT"}, "data_format": {"s": "TkhXQw=="}, "strides": {"list": {"i": ["1", "1", "1", "1"]}}, "use_cudnn_on_gpu": {"b": true}, "explicit_paddings": {"list": {}}}}, {"name": "batch_normalization_1/batchnorm/add_1", "op": "Add", "input": ["batch_normalization_1/batchnorm/mul_1", "batch_normalization_1/batchnorm/sub"], "attr": {"T": {"type": "DT_FLOAT"}}}, {"name": "leaky_re_lu_1/LeakyRelu/mul", "op": "Mul", "input": ["batch_normalization_1/batchnorm/add_1", "leaky_re_lu_129/LeakyRelu/alpha"], "attr": {"T": {"type": "DT_FLOAT"}}}, {"name": "leaky_re_lu_1/LeakyRelu/Maximum", "op": "Maximum", "input": ["leaky_re_lu_1/LeakyRelu/mul", "batch_normalization_1/batchnorm/add_1"], "attr": {"T": {"type": "DT_FLOAT"}}}, {"name": "batch_normalization_2/batchnorm/mul_1", "op": "Conv2D", "input": ["leaky_re_lu_1/LeakyRelu/Maximum", "conv2d_1/convolution/merged_input"], "device": "/device:CPU:0", "attr": {"data_format": {"s": "TkhXQw=="}, "strides": {"list": {"i": ["1", "1", "1", "1"]}}, "explicit_paddings": {"list": {}}, "use_cudnn_on_gpu": {"b": true}, "padding": {"s": "VkFMSUQ="}, "dilations": {"list": {"i": ["1", "1", "1", "1"]}}, "T": {"type": "DT_FLOAT"}}}, {"name": "batch_normalization_2/batchnorm/add_1", "op": "Add", "input": ["batch_normalization_2/batchnorm/mul_1", "batch_normalization_2/batchnorm/sub"], "attr": {"T": {"type": "DT_FLOAT"}}}, {"name": "leaky_re_lu_2/LeakyRelu/mul", "op": "Mul", "input": ["batch_normalization_2/batchnorm/add_1", "leaky_re_lu_129/LeakyRelu/alpha"], "attr": {"T": {"type": "DT_FLOAT"}}}, {"name": "leaky_re_lu_2/LeakyRelu/Maximum", "op": "Maximum", "input": ["leaky_re_lu_2/LeakyRelu/mul", "batch_normalization_2/batchnorm/add_1"], "attr": {"T": {"type": "DT_FLOAT"}}}, {"name": "batch_normalization_3/batchnorm/mul_1", "op": "Conv2D", "input": ["leaky_re_lu_2/LeakyRelu/Maximum", "conv2d_2/convolution/merged_input"], "device": "/device:CPU:0", "attr": {"use_cudnn_on_gpu": {"b": true}, "explicit_paddings": {"list": {}}, "padding": {"s": "U0FNRQ=="}, "dilations": {"list": {"i": ["1", "1", "1", "1"]}}, "T": {"type": "DT_FLOAT"}, "strides": {"list": {"i": ["1", "1", "1", "1"]}}, "data_format": {"s": "TkhXQw=="}}}, {"name": "batch_normalization_3/batchnorm/add_1", "op": "Add", "input": ["batch_normalization_3/batchnorm/mul_1", "batch_normalization_3/batchnorm/sub"], "attr": {"T": {"type": "DT_FLOAT"}}}, {"name": "leaky_re_lu_3/LeakyRelu/mul", "op": "Mul", "input": ["batch_normalization_3/batchnorm/add_1", "leaky_re_lu_129/LeakyRelu/alpha"], "attr": {"T": {"type": "DT_FLOAT"}}}, {"name": "leaky_re_lu_3/LeakyRelu/Maximum", "op": "Maximum", "input": ["leaky_re_lu_3/LeakyRelu/mul", "batch_normalization_3/batchnorm/add_1"], "attr": {"T": {"type": "DT_FLOAT"}}}, {"name": "conv2d_3/convolution", "op": "Conv2D", "input": ["leaky_re_lu_3/LeakyRelu/Maximum", "conv2d_3/kernel"], "device": "/device:CPU:0", "attr": {"strides": {"list": {"i": ["1", "1", "1", "1"]}}, "data_format": {"s": "TkhXQw=="}, "explicit_paddings": {"list": {}}, "use_cudnn_on_gpu": {"b": true}, "padding": {"s": "VkFMSUQ="}, "dilations": {"list": {"i": ["1", "1", "1", "1"]}}, "T": {"type": "DT_FLOAT"}}}, {"name": "add_1/add", "op": "Add", "input": ["conv2d_3/convolution", "conv2d_4/convolution"], "attr": {"T": {"type": "DT_FLOAT"}}}, {"name": "batch_normalization_4/batchnorm/mul_1", "op": "Mul", "input": ["add_1/add", "batch_normalization_4/batchnorm/mul"], "attr": {"T": {"type": "DT_FLOAT"}}}, {"name": "batch_normalization_4/batchnorm/add_1", "op": "Add", "input": ["batch_normalization_4/batchnorm/mul_1", "batch_normalization_4/batchnorm/sub"], "attr": {"T": {"type": "DT_FLOAT"}}}, {"name": "leaky_re_lu_4/LeakyRelu/mul", "op": "Mul", "input": ["batch_normalization_4/batchnorm/add_1", "leaky_re_lu_129/LeakyRelu/alpha"], "attr": {"T": {"type": "DT_FLOAT"}}}, {"name": "leaky_re_lu_4/LeakyRelu/Maximum", "op": "Maximum", "input": ["leaky_re_lu_4/LeakyRelu/mul", "batch_normalization_4/batchnorm/add_1"], "attr": {"T": {"type": "DT_FLOAT"}}}, {"name": "batch_normalization_5/batchnorm/mul_1", "op": "Conv2D", "input": ["leaky_re_lu_4/LeakyRelu/Maximum", "conv2d_5/convolution/merged_input"], "device": "/device:CPU:0", "attr": {"data_format": {"s": "TkhXQw=="}, "strides": {"list": {"i": ["1", "1", "1", "1"]}}, "use_cudnn_on_gpu": {"b": true}, "explicit_paddings": {"list": {}}, "padding": {"s": "VkFMSUQ="}, "dilations": {"list": {"i": ["1", "1", "1", "1"]}}, "T": {"type": "DT_FLOAT"}}}, {"name": "batch_normalization_5/batchnorm/add_1", "op": "Add", "input": ["batch_normalization_5/batchnorm/mul_1", "batch_normalization_5/batchnorm/sub"], "attr": {"T": {"type": "DT_FLOAT"}}}, {"name": "leaky_re_lu_5/LeakyRelu/mul", "op": "Mul", "input": ["batch_normalization_5/batchnorm/add_1", "leaky_re_lu_129/LeakyRelu/alpha"], "attr": {"T": {"type": "DT_FLOAT"}}}, {"name": "leaky_re_lu_5/LeakyRelu/Maximum", "op": "Maximum", "input": ["leaky_re_lu_5/LeakyRelu/mul", "batch_normalization_5/batchnorm/add_1"], "attr": {"T": {"type": "DT_FLOAT"}}}, {"name": "batch_normalization_6/batchnorm/mul_1", "op": "Conv2D", "input": ["leaky_re_lu_5/LeakyRelu/Maximum", "conv2d_6/convolution/merged_input"], "device": "/device:CPU:0", "attr": {"use_cudnn_on_gpu": {"b": true}, "explicit_paddings": {"list": {}}, "padding": {"s": "U0FNRQ=="}, "dilations": {"list": {"i": ["1", "1", "1", "1"]}}, "T": {"type": "DT_FLOAT"}, "data_format": {"s": "TkhXQw=="}, "strides": {"list": {"i": ["1", "1", "1", "1"]}}}}, {"name": "batch_normalization_6/batchnorm/add_1", "op": "Add", "input": ["batch_normalization_6/batchnorm/mul_1", "batch_normalization_6/batchnorm/sub"], "attr": {"T": {"type": "DT_FLOAT"}}}, {"name": "leaky_re_lu_6/LeakyRelu/mul", "op": "Mul", "input": ["batch_normalization_6/batchnorm/add_1", "leaky_re_lu_129/LeakyRelu/alpha"], "attr": {"T": {"type": "DT_FLOAT"}}}, {"name": "leaky_re_lu_6/LeakyRelu/Maximum", "op": "Maximum", "input": ["leaky_re_lu_6/LeakyRelu/mul", "batch_normalization_6/batchnorm/add_1"], "attr": {"T": {"type": "DT_FLOAT"}}}, {"name": "conv2d_7/convolution", "op": "Conv2D", "input": ["leaky_re_lu_6/LeakyRelu/Maximum", "conv2d_7/kernel"], "device": "/device:CPU:0", "attr": {"padding": {"s": "VkFMSUQ="}, "dilations": {"list": {"i": ["1", "1", "1", "1"]}}, "T": {"type": "DT_FLOAT"}, "strides": {"list": {"i": ["1", "1", "1", "1"]}}, "data_format": {"s": "TkhXQw=="}, "use_cudnn_on_gpu": {"b": true}, "explicit_paddings": {"list": {}}}}, {"name": "add_2/add", "op": "Add", "input": ["add_1/add", "conv2d_7/convolution"], "attr": {"T": {"type": "DT_FLOAT"}}}, {"name": "batch_normalization_7/batchnorm/mul_1", "op": "Mul", "input": ["add_2/add", "batch_normalization_7/batchnorm/mul"], "attr": {"T": {"type": "DT_FLOAT"}}}, {"name": "conv2d_11/convolution", "op": "Conv2D", "input": ["add_2/add", "conv2d_11/kernel"], "device": "/device:CPU:0", "attr": {"padding": {"s": "VkFMSUQ="}, "dilations": {"list": {"i": ["1", "1", "1", "1"]}}, "T": {"type": "DT_FLOAT"}, "strides": {"list": {"i": ["1", "2", "2", "1"]}}, "data_format": {"s": "TkhXQw=="}, "use_cudnn_on_gpu": {"b": true}, "explicit_paddings": {"list": {}}}}, {"name": "batch_normalization_7/batchnorm/add_1", "op": "Add", "input": ["batch_normalization_7/batchnorm/mul_1", "batch_normalization_7/batchnorm/sub"], "attr": {"T": {"type": "DT_FLOAT"}}}, {"name": "leaky_re_lu_7/LeakyRelu/mul", "op": "Mul", "input": ["batch_normalization_7/batchnorm/add_1", "leaky_re_lu_129/LeakyRelu/alpha"], "attr": {"T": {"type": "DT_FLOAT"}}}, {"name": "leaky_re_lu_7/LeakyRelu/Maximum", "op": "Maximum", "input": ["leaky_re_lu_7/LeakyRelu/mul", "batch_normalization_7/batchnorm/add_1"], "attr": {"T": {"type": "DT_FLOAT"}}}, {"name": "batch_normalization_8/batchnorm/mul_1", "op": "Conv2D", "input": ["leaky_re_lu_7/LeakyRelu/Maximum", "conv2d_8/convolution/merged_input"], "device": "/device:CPU:0", "attr": {"strides": {"list": {"i": ["1", "1", "1", "1"]}}, "data_format": {"s": "TkhXQw=="}, "explicit_paddings": {"list": {}}, "use_cudnn_on_gpu": {"b": true}, "padding": {"s": "VkFMSUQ="}, "dilations": {"list": {"i": ["1", "1", "1", "1"]}}, "T": {"type": "DT_FLOAT"}}}, {"name": "batch_normalization_8/batchnorm/add_1", "op": "Add", "input": ["batch_normalization_8/batchnorm/mul_1", "batch_normalization_8/batchnorm/sub"], "attr": {"T": {"type": "DT_FLOAT"}}}, {"name": "leaky_re_lu_8/LeakyRelu/mul", "op": "Mul", "input": ["batch_normalization_8/batchnorm/add_1", "leaky_re_lu_129/LeakyRelu/alpha"], "attr": {"T": {"type": "DT_FLOAT"}}}, {"name": "leaky_re_lu_8/LeakyRelu/Maximum", "op": "Maximum", "input": ["leaky_re_lu_8/LeakyRelu/mul", "batch_normalization_8/batchnorm/add_1"], "attr": {"T": {"type": "DT_FLOAT"}}}, {"name": "batch_normalization_9/batchnorm/mul_1", "op": "Conv2D", "input": ["leaky_re_lu_8/LeakyRelu/Maximum", "conv2d_9/convolution/merged_input"], "device": "/device:CPU:0", "attr": {"padding": {"s": "U0FNRQ=="}, "dilations": {"list": {"i": ["1", "1", "1", "1"]}}, "T": {"type": "DT_FLOAT"}, "strides": {"list": {"i": ["1", "2", "2", "1"]}}, "data_format": {"s": "TkhXQw=="}, "explicit_paddings": {"list": {}}, "use_cudnn_on_gpu": {"b": true}}}, {"name": "batch_normalization_9/batchnorm/add_1", "op": "Add", "input": ["batch_normalization_9/batchnorm/mul_1", "batch_normalization_9/batchnorm/sub"], "attr": {"T": {"type": "DT_FLOAT"}}}, {"name": "leaky_re_lu_9/LeakyRelu/mul", "op": "Mul", "input": ["batch_normalization_9/batchnorm/add_1", "leaky_re_lu_129/LeakyRelu/alpha"], "attr": {"T": {"type": "DT_FLOAT"}}}, {"name": "leaky_re_lu_9/LeakyRelu/Maximum", "op": "Maximum", "input": ["leaky_re_lu_9/LeakyRelu/mul", "batch_normalization_9/batchnorm/add_1"], "attr": {"T": {"type": "DT_FLOAT"}}}, {"name": "conv2d_10/convolution", "op": "Conv2D", "input": ["leaky_re_lu_9/LeakyRelu/Maximum", "conv2d_10/kernel"], "device": "/device:CPU:0", "attr": {"dilations": {"list": {"i": ["1", "1", "1", "1"]}}, "T": {"type": "DT_FLOAT"}, "strides": {"list": {"i": ["1", "1", "1", "1"]}}, "data_format": {"s": "TkhXQw=="}, "explicit_paddings": {"list": {}}, "use_cudnn_on_gpu": {"b": true}, "padding": {"s": "VkFMSUQ="}}}, {"name": "add_3/add", "op": "Add", "input": ["conv2d_10/convolution", "conv2d_11/convolution"], "attr": {"T": {"type": "DT_FLOAT"}}}, {"name": "batch_normalization_10/batchnorm/mul_1", "op": "Mul", "input": ["add_3/add", "batch_normalization_10/batchnorm/mul"], "attr": {"T": {"type": "DT_FLOAT"}}}, {"name": "batch_normalization_10/batchnorm/add_1", "op": "Add", "input": ["batch_normalization_10/batchnorm/mul_1", "batch_normalization_10/batchnorm/sub"], "attr": {"T": {"type": "DT_FLOAT"}}}, {"name": "leaky_re_lu_10/LeakyRelu/mul", "op": "Mul", "input": ["batch_normalization_10/batchnorm/add_1", "leaky_re_lu_129/LeakyRelu/alpha"], "attr": {"T": {"type": "DT_FLOAT"}}}, {"name": "leaky_re_lu_10/LeakyRelu/Maximum", "op": "Maximum", "input": ["leaky_re_lu_10/LeakyRelu/mul", "batch_normalization_10/batchnorm/add_1"], "attr": {"T": {"type": "DT_FLOAT"}}}, {"name": "batch_normalization_11/batchnorm/mul_1", "op": "Conv2D", "input": ["leaky_re_lu_10/LeakyRelu/Maximum", "conv2d_12/convolution/merged_input"], "device": "/device:CPU:0", "attr": {"dilations": {"list": {"i": ["1", "1", "1", "1"]}}, "T": {"type": "DT_FLOAT"}, "strides": {"list": {"i": ["1", "1", "1", "1"]}}, "data_format": {"s": "TkhXQw=="}, "explicit_paddings": {"list": {}}, "use_cudnn_on_gpu": {"b": true}, "padding": {"s": "VkFMSUQ="}}}, {"name": "batch_normalization_11/batchnorm/add_1", "op": "Add", "input": ["batch_normalization_11/batchnorm/mul_1", "batch_normalization_11/batchnorm/sub"], "attr": {"T": {"type": "DT_FLOAT"}}}, {"name": "leaky_re_lu_11/LeakyRelu/mul", "op": "Mul", "input": ["batch_normalization_11/batchnorm/add_1", "leaky_re_lu_129/LeakyRelu/alpha"], "attr": {"T": {"type": "DT_FLOAT"}}}, {"name": "leaky_re_lu_11/LeakyRelu/Maximum", "op": "Maximum", "input": ["leaky_re_lu_11/LeakyRelu/mul", "batch_normalization_11/batchnorm/add_1"], "attr": {"T": {"type": "DT_FLOAT"}}}, {"name": "batch_normalization_12/batchnorm/mul_1", "op": "Conv2D", "input": ["leaky_re_lu_11/LeakyRelu/Maximum", "conv2d_13/convolution/merged_input"], "device": "/device:CPU:0", "attr": {"padding": {"s": "U0FNRQ=="}, "dilations": {"list": {"i": ["1", "1", "1", "1"]}}, "T": {"type": "DT_FLOAT"}, "data_format": {"s": "TkhXQw=="}, "strides": {"list": {"i": ["1", "1", "1", "1"]}}, "use_cudnn_on_gpu": {"b": true}, "explicit_paddings": {"list": {}}}}, {"name": "batch_normalization_12/batchnorm/add_1", "op": "Add", "input": ["batch_normalization_12/batchnorm/mul_1", "batch_normalization_12/batchnorm/sub"], "attr": {"T": {"type": "DT_FLOAT"}}}, {"name": "leaky_re_lu_12/LeakyRelu/mul", "op": "Mul", "input": ["batch_normalization_12/batchnorm/add_1", "leaky_re_lu_129/LeakyRelu/alpha"], "attr": {"T": {"type": "DT_FLOAT"}}}, {"name": "leaky_re_lu_12/LeakyRelu/Maximum", "op": "Maximum", "input": ["leaky_re_lu_12/LeakyRelu/mul", "batch_normalization_12/batchnorm/add_1"], "attr": {"T": {"type": "DT_FLOAT"}}}, {"name": "conv2d_14/convolution", "op": "Conv2D", "input": ["leaky_re_lu_12/LeakyRelu/Maximum", "conv2d_14/kernel"], "device": "/device:CPU:0", "attr": {"data_format": {"s": "TkhXQw=="}, "strides": {"list": {"i": ["1", "1", "1", "1"]}}, "explicit_paddings": {"list": {}}, "use_cudnn_on_gpu": {"b": true}, "padding": {"s": "VkFMSUQ="}, "dilations": {"list": {"i": ["1", "1", "1", "1"]}}, "T": {"type": "DT_FLOAT"}}}, {"name": "add_4/add", "op": "Add", "input": ["add_3/add", "conv2d_14/convolution"], "attr": {"T": {"type": "DT_FLOAT"}}}, {"name": "batch_normalization_13/batchnorm/mul_1", "op": "Mul", "input": ["add_4/add", "batch_normalization_13/batchnorm/mul"], "attr": {"T": {"type": "DT_FLOAT"}}}, {"name": "batch_normalization_13/batchnorm/add_1", "op": "Add", "input": ["batch_normalization_13/batchnorm/mul_1", "batch_normalization_13/batchnorm/sub"], "attr": {"T": {"type": "DT_FLOAT"}}}, {"name": "leaky_re_lu_13/LeakyRelu/mul", "op": "Mul", "input": ["batch_normalization_13/batchnorm/add_1", "leaky_re_lu_129/LeakyRelu/alpha"], "attr": {"T": {"type": "DT_FLOAT"}}}, {"name": "leaky_re_lu_13/LeakyRelu/Maximum", "op": "Maximum", "input": ["leaky_re_lu_13/LeakyRelu/mul", "batch_normalization_13/batchnorm/add_1"], "attr": {"T": {"type": "DT_FLOAT"}}}, {"name": "batch_normalization_14/batchnorm/mul_1", "op": "Conv2D", "input": ["leaky_re_lu_13/LeakyRelu/Maximum", "conv2d_15/convolution/merged_input"], "device": "/device:CPU:0", "attr": {"dilations": {"list": {"i": ["1", "1", "1", "1"]}}, "T": {"type": "DT_FLOAT"}, "data_format": {"s": "TkhXQw=="}, "strides": {"list": {"i": ["1", "1", "1", "1"]}}, "explicit_paddings": {"list": {}}, "use_cudnn_on_gpu": {"b": true}, "padding": {"s": "VkFMSUQ="}}}, {"name": "batch_normalization_14/batchnorm/add_1", "op": "Add", "input": ["batch_normalization_14/batchnorm/mul_1", "batch_normalization_14/batchnorm/sub"], "attr": {"T": {"type": "DT_FLOAT"}}}, {"name": "leaky_re_lu_14/LeakyRelu/mul", "op": "Mul", "input": ["batch_normalization_14/batchnorm/add_1", "leaky_re_lu_129/LeakyRelu/alpha"], "attr": {"T": {"type": "DT_FLOAT"}}}, {"name": "leaky_re_lu_14/LeakyRelu/Maximum", "op": "Maximum", "input": ["leaky_re_lu_14/LeakyRelu/mul", "batch_normalization_14/batchnorm/add_1"], "attr": {"T": {"type": "DT_FLOAT"}}}, {"name": "batch_normalization_15/batchnorm/mul_1", "op": "Conv2D", "input": ["leaky_re_lu_14/LeakyRelu/Maximum", "conv2d_16/convolution/merged_input"], "device": "/device:CPU:0", "attr": {"dilations": {"list": {"i": ["1", "1", "1", "1"]}}, "T": {"type": "DT_FLOAT"}, "strides": {"list": {"i": ["1", "1", "1", "1"]}}, "data_format": {"s": "TkhXQw=="}, "use_cudnn_on_gpu": {"b": true}, "explicit_paddings": {"list": {}}, "padding": {"s": "U0FNRQ=="}}}, {"name": "batch_normalization_15/batchnorm/add_1", "op": "Add", "input": ["batch_normalization_15/batchnorm/mul_1", "batch_normalization_15/batchnorm/sub"], "attr": {"T": {"type": "DT_FLOAT"}}}, {"name": "leaky_re_lu_15/LeakyRelu/mul", "op": "Mul", "input": ["batch_normalization_15/batchnorm/add_1", "leaky_re_lu_129/LeakyRelu/alpha"], "attr": {"T": {"type": "DT_FLOAT"}}}, {"name": "leaky_re_lu_15/LeakyRelu/Maximum", "op": "Maximum", "input": ["leaky_re_lu_15/LeakyRelu/mul", "batch_normalization_15/batchnorm/add_1"], "attr": {"T": {"type": "DT_FLOAT"}}}, {"name": "conv2d_17/convolution", "op": "Conv2D", "input": ["leaky_re_lu_15/LeakyRelu/Maximum", "conv2d_17/kernel"], "device": "/device:CPU:0", "attr": {"dilations": {"list": {"i": ["1", "1", "1", "1"]}}, "T": {"type": "DT_FLOAT"}, "data_format": {"s": "TkhXQw=="}, "strides": {"list": {"i": ["1", "1", "1", "1"]}}, "explicit_paddings": {"list": {}}, "use_cudnn_on_gpu": {"b": true}, "padding": {"s": "VkFMSUQ="}}}, {"name": "add_5/add", "op": "Add", "input": ["add_4/add", "conv2d_17/convolution"], "attr": {"T": {"type": "DT_FLOAT"}}}, {"name": "batch_normalization_16/batchnorm/mul_1", "op": "Mul", "input": ["add_5/add", "batch_normalization_16/batchnorm/mul"], "attr": {"T": {"type": "DT_FLOAT"}}}, {"name": "conv2d_21/convolution", "op": "Conv2D", "input": ["add_5/add", "conv2d_21/kernel"], "device": "/device:CPU:0", "attr": {"dilations": {"list": {"i": ["1", "1", "1", "1"]}}, "T": {"type": "DT_FLOAT"}, "data_format": {"s": "TkhXQw=="}, "strides": {"list": {"i": ["1", "2", "2", "1"]}}, "use_cudnn_on_gpu": {"b": true}, "explicit_paddings": {"list": {}}, "padding": {"s": "VkFMSUQ="}}}, {"name": "batch_normalization_16/batchnorm/add_1", "op": "Add", "input": ["batch_normalization_16/batchnorm/mul_1", "batch_normalization_16/batchnorm/sub"], "attr": {"T": {"type": "DT_FLOAT"}}}, {"name": "leaky_re_lu_16/LeakyRelu/mul", "op": "Mul", "input": ["batch_normalization_16/batchnorm/add_1", "leaky_re_lu_129/LeakyRelu/alpha"], "attr": {"T": {"type": "DT_FLOAT"}}}, {"name": "leaky_re_lu_16/LeakyRelu/Maximum", "op": "Maximum", "input": ["leaky_re_lu_16/LeakyRelu/mul", "batch_normalization_16/batchnorm/add_1"], "attr": {"T": {"type": "DT_FLOAT"}}}, {"name": "batch_normalization_17/batchnorm/mul_1", "op": "Conv2D", "input": ["leaky_re_lu_16/LeakyRelu/Maximum", "conv2d_18/convolution/merged_input"], "device": "/device:CPU:0", "attr": {"T": {"type": "DT_FLOAT"}, "data_format": {"s": "TkhXQw=="}, "strides": {"list": {"i": ["1", "1", "1", "1"]}}, "explicit_paddings": {"list": {}}, "use_cudnn_on_gpu": {"b": true}, "padding": {"s": "VkFMSUQ="}, "dilations": {"list": {"i": ["1", "1", "1", "1"]}}}}, {"name": "batch_normalization_17/batchnorm/add_1", "op": "Add", "input": ["batch_normalization_17/batchnorm/mul_1", "batch_normalization_17/batchnorm/sub"], "attr": {"T": {"type": "DT_FLOAT"}}}, {"name": "leaky_re_lu_17/LeakyRelu/mul", "op": "Mul", "input": ["batch_normalization_17/batchnorm/add_1", "leaky_re_lu_129/LeakyRelu/alpha"], "attr": {"T": {"type": "DT_FLOAT"}}}, {"name": "leaky_re_lu_17/LeakyRelu/Maximum", "op": "Maximum", "input": ["leaky_re_lu_17/LeakyRelu/mul", "batch_normalization_17/batchnorm/add_1"], "attr": {"T": {"type": "DT_FLOAT"}}}, {"name": "batch_normalization_18/batchnorm/mul_1", "op": "Conv2D", "input": ["leaky_re_lu_17/LeakyRelu/Maximum", "conv2d_19/convolution/merged_input"], "device": "/device:CPU:0", "attr": {"dilations": {"list": {"i": ["1", "1", "1", "1"]}}, "T": {"type": "DT_FLOAT"}, "strides": {"list": {"i": ["1", "2", "2", "1"]}}, "data_format": {"s": "TkhXQw=="}, "explicit_paddings": {"list": {}}, "use_cudnn_on_gpu": {"b": true}, "padding": {"s": "U0FNRQ=="}}}, {"name": "batch_normalization_18/batchnorm/add_1", "op": "Add", "input": ["batch_normalization_18/batchnorm/mul_1", "batch_normalization_18/batchnorm/sub"], "attr": {"T": {"type": "DT_FLOAT"}}}, {"name": "leaky_re_lu_18/LeakyRelu/mul", "op": "Mul", "input": ["batch_normalization_18/batchnorm/add_1", "leaky_re_lu_129/LeakyRelu/alpha"], "attr": {"T": {"type": "DT_FLOAT"}}}, {"name": "leaky_re_lu_18/LeakyRelu/Maximum", "op": "Maximum", "input": ["leaky_re_lu_18/LeakyRelu/mul", "batch_normalization_18/batchnorm/add_1"], "attr": {"T": {"type": "DT_FLOAT"}}}, {"name": "conv2d_20/convolution", "op": "Conv2D", "input": ["leaky_re_lu_18/LeakyRelu/Maximum", "conv2d_20/kernel"], "device": "/device:CPU:0", "attr": {"dilations": {"list": {"i": ["1", "1", "1", "1"]}}, "T": {"type": "DT_FLOAT"}, "strides": {"list": {"i": ["1", "1", "1", "1"]}}, "data_format": {"s": "TkhXQw=="}, "explicit_paddings": {"list": {}}, "use_cudnn_on_gpu": {"b": true}, "padding": {"s": "VkFMSUQ="}}}, {"name": "add_6/add", "op": "Add", "input": ["conv2d_20/convolution", "conv2d_21/convolution"], "attr": {"T": {"type": "DT_FLOAT"}}}, {"name": "batch_normalization_19/batchnorm/mul_1", "op": "Mul", "input": ["add_6/add", "batch_normalization_19/batchnorm/mul"], "attr": {"T": {"type": "DT_FLOAT"}}}, {"name": "batch_normalization_19/batchnorm/add_1", "op": "Add", "input": ["batch_normalization_19/batchnorm/mul_1", "batch_normalization_19/batchnorm/sub"], "attr": {"T": {"type": "DT_FLOAT"}}}, {"name": "leaky_re_lu_19/LeakyRelu/mul", "op": "Mul", "input": ["batch_normalization_19/batchnorm/add_1", "leaky_re_lu_129/LeakyRelu/alpha"], "attr": {"T": {"type": "DT_FLOAT"}}}, {"name": "leaky_re_lu_19/LeakyRelu/Maximum", "op": "Maximum", "input": ["leaky_re_lu_19/LeakyRelu/mul", "batch_normalization_19/batchnorm/add_1"], "attr": {"T": {"type": "DT_FLOAT"}}}, {"name": "batch_normalization_20/batchnorm/mul_1", "op": "Conv2D", "input": ["leaky_re_lu_19/LeakyRelu/Maximum", "conv2d_22/convolution/merged_input"], "device": "/device:CPU:0", "attr": {"T": {"type": "DT_FLOAT"}, "strides": {"list": {"i": ["1", "1", "1", "1"]}}, "data_format": {"s": "TkhXQw=="}, "use_cudnn_on_gpu": {"b": true}, "explicit_paddings": {"list": {}}, "padding": {"s": "VkFMSUQ="}, "dilations": {"list": {"i": ["1", "1", "1", "1"]}}}}, {"name": "batch_normalization_20/batchnorm/add_1", "op": "Add", "input": ["batch_normalization_20/batchnorm/mul_1", "batch_normalization_20/batchnorm/sub"], "attr": {"T": {"type": "DT_FLOAT"}}}, {"name": "leaky_re_lu_20/LeakyRelu/mul", "op": "Mul", "input": ["batch_normalization_20/batchnorm/add_1", "leaky_re_lu_129/LeakyRelu/alpha"], "attr": {"T": {"type": "DT_FLOAT"}}}, {"name": "leaky_re_lu_20/LeakyRelu/Maximum", "op": "Maximum", "input": ["leaky_re_lu_20/LeakyRelu/mul", "batch_normalization_20/batchnorm/add_1"], "attr": {"T": {"type": "DT_FLOAT"}}}, {"name": "batch_normalization_21/batchnorm/mul_1", "op": "Conv2D", "input": ["leaky_re_lu_20/LeakyRelu/Maximum", "conv2d_23/convolution/merged_input"], "device": "/device:CPU:0", "attr": {"strides": {"list": {"i": ["1", "1", "1", "1"]}}, "data_format": {"s": "TkhXQw=="}, "use_cudnn_on_gpu": {"b": true}, "explicit_paddings": {"list": {}}, "padding": {"s": "U0FNRQ=="}, "dilations": {"list": {"i": ["1", "1", "1", "1"]}}, "T": {"type": "DT_FLOAT"}}}, {"name": "batch_normalization_21/batchnorm/add_1", "op": "Add", "input": ["batch_normalization_21/batchnorm/mul_1", "batch_normalization_21/batchnorm/sub"], "attr": {"T": {"type": "DT_FLOAT"}}}, {"name": "leaky_re_lu_21/LeakyRelu/mul", "op": "Mul", "input": ["batch_normalization_21/batchnorm/add_1", "leaky_re_lu_129/LeakyRelu/alpha"], "attr": {"T": {"type": "DT_FLOAT"}}}, {"name": "leaky_re_lu_21/LeakyRelu/Maximum", "op": "Maximum", "input": ["leaky_re_lu_21/LeakyRelu/mul", "batch_normalization_21/batchnorm/add_1"], "attr": {"T": {"type": "DT_FLOAT"}}}, {"name": "conv2d_24/convolution", "op": "Conv2D", "input": ["leaky_re_lu_21/LeakyRelu/Maximum", "conv2d_24/kernel"], "device": "/device:CPU:0", "attr": {"data_format": {"s": "TkhXQw=="}, "strides": {"list": {"i": ["1", "1", "1", "1"]}}, "explicit_paddings": {"list": {}}, "use_cudnn_on_gpu": {"b": true}, "padding": {"s": "VkFMSUQ="}, "dilations": {"list": {"i": ["1", "1", "1", "1"]}}, "T": {"type": "DT_FLOAT"}}}, {"name": "add_7/add", "op": "Add", "input": ["add_6/add", "conv2d_24/convolution"], "attr": {"T": {"type": "DT_FLOAT"}}}, {"name": "batch_normalization_22/batchnorm/mul_1", "op": "Mul", "input": ["add_7/add", "batch_normalization_22/batchnorm/mul"], "attr": {"T": {"type": "DT_FLOAT"}}}, {"name": "batch_normalization_22/batchnorm/add_1", "op": "Add", "input": ["batch_normalization_22/batchnorm/mul_1", "batch_normalization_22/batchnorm/sub"], "attr": {"T": {"type": "DT_FLOAT"}}}, {"name": "leaky_re_lu_22/LeakyRelu/mul", "op": "Mul", "input": ["batch_normalization_22/batchnorm/add_1", "leaky_re_lu_129/LeakyRelu/alpha"], "attr": {"T": {"type": "DT_FLOAT"}}}, {"name": "leaky_re_lu_22/LeakyRelu/Maximum", "op": "Maximum", "input": ["leaky_re_lu_22/LeakyRelu/mul", "batch_normalization_22/batchnorm/add_1"], "attr": {"T": {"type": "DT_FLOAT"}}}, {"name": "batch_normalization_23/batchnorm/mul_1", "op": "Conv2D", "input": ["leaky_re_lu_22/LeakyRelu/Maximum", "conv2d_25/convolution/merged_input"], "device": "/device:CPU:0", "attr": {"data_format": {"s": "TkhXQw=="}, "strides": {"list": {"i": ["1", "1", "1", "1"]}}, "explicit_paddings": {"list": {}}, "use_cudnn_on_gpu": {"b": true}, "padding": {"s": "VkFMSUQ="}, "dilations": {"list": {"i": ["1", "1", "1", "1"]}}, "T": {"type": "DT_FLOAT"}}}, {"name": "batch_normalization_23/batchnorm/add_1", "op": "Add", "input": ["batch_normalization_23/batchnorm/mul_1", "batch_normalization_23/batchnorm/sub"], "attr": {"T": {"type": "DT_FLOAT"}}}, {"name": "leaky_re_lu_23/LeakyRelu/mul", "op": "Mul", "input": ["batch_normalization_23/batchnorm/add_1", "leaky_re_lu_129/LeakyRelu/alpha"], "attr": {"T": {"type": "DT_FLOAT"}}}, {"name": "leaky_re_lu_23/LeakyRelu/Maximum", "op": "Maximum", "input": ["leaky_re_lu_23/LeakyRelu/mul", "batch_normalization_23/batchnorm/add_1"], "attr": {"T": {"type": "DT_FLOAT"}}}, {"name": "batch_normalization_24/batchnorm/mul_1", "op": "Conv2D", "input": ["leaky_re_lu_23/LeakyRelu/Maximum", "conv2d_26/convolution/merged_input"], "device": "/device:CPU:0", "attr": {"dilations": {"list": {"i": ["1", "1", "1", "1"]}}, "T": {"type": "DT_FLOAT"}, "data_format": {"s": "TkhXQw=="}, "strides": {"list": {"i": ["1", "1", "1", "1"]}}, "explicit_paddings": {"list": {}}, "use_cudnn_on_gpu": {"b": true}, "padding": {"s": "U0FNRQ=="}}}, {"name": "batch_normalization_24/batchnorm/add_1", "op": "Add", "input": ["batch_normalization_24/batchnorm/mul_1", "batch_normalization_24/batchnorm/sub"], "attr": {"T": {"type": "DT_FLOAT"}}}, {"name": "leaky_re_lu_24/LeakyRelu/mul", "op": "Mul", "input": ["batch_normalization_24/batchnorm/add_1", "leaky_re_lu_129/LeakyRelu/alpha"], "attr": {"T": {"type": "DT_FLOAT"}}}, {"name": "leaky_re_lu_24/LeakyRelu/Maximum", "op": "Maximum", "input": ["leaky_re_lu_24/LeakyRelu/mul", "batch_normalization_24/batchnorm/add_1"], "attr": {"T": {"type": "DT_FLOAT"}}}, {"name": "conv2d_27/convolution", "op": "Conv2D", "input": ["leaky_re_lu_24/LeakyRelu/Maximum", "conv2d_27/kernel"], "device": "/device:CPU:0", "attr": {"padding": {"s": "VkFMSUQ="}, "dilations": {"list": {"i": ["1", "1", "1", "1"]}}, "T": {"type": "DT_FLOAT"}, "data_format": {"s": "TkhXQw=="}, "strides": {"list": {"i": ["1", "1", "1", "1"]}}, "use_cudnn_on_gpu": {"b": true}, "explicit_paddings": {"list": {}}}}, {"name": "add_8/add", "op": "Add", "input": ["add_7/add", "conv2d_27/convolution"], "attr": {"T": {"type": "DT_FLOAT"}}}, {"name": "batch_normalization_25/batchnorm/mul_1", "op": "Mul", "input": ["add_8/add", "batch_normalization_25/batchnorm/mul"], "attr": {"T": {"type": "DT_FLOAT"}}}, {"name": "conv2d_31/convolution", "op": "Conv2D", "input": ["add_8/add", "conv2d_31/kernel"], "device": "/device:CPU:0", "attr": {"T": {"type": "DT_FLOAT"}, "data_format": {"s": "TkhXQw=="}, "strides": {"list": {"i": ["1", "2", "2", "1"]}}, "explicit_paddings": {"list": {}}, "use_cudnn_on_gpu": {"b": true}, "padding": {"s": "VkFMSUQ="}, "dilations": {"list": {"i": ["1", "1", "1", "1"]}}}}, {"name": "batch_normalization_25/batchnorm/add_1", "op": "Add", "input": ["batch_normalization_25/batchnorm/mul_1", "batch_normalization_25/batchnorm/sub"], "attr": {"T": {"type": "DT_FLOAT"}}}, {"name": "leaky_re_lu_25/LeakyRelu/mul", "op": "Mul", "input": ["batch_normalization_25/batchnorm/add_1", "leaky_re_lu_129/LeakyRelu/alpha"], "attr": {"T": {"type": "DT_FLOAT"}}}, {"name": "leaky_re_lu_25/LeakyRelu/Maximum", "op": "Maximum", "input": ["leaky_re_lu_25/LeakyRelu/mul", "batch_normalization_25/batchnorm/add_1"], "attr": {"T": {"type": "DT_FLOAT"}}}, {"name": "batch_normalization_26/batchnorm/mul_1", "op": "Conv2D", "input": ["leaky_re_lu_25/LeakyRelu/Maximum", "conv2d_28/convolution/merged_input"], "device": "/device:CPU:0", "attr": {"dilations": {"list": {"i": ["1", "1", "1", "1"]}}, "T": {"type": "DT_FLOAT"}, "strides": {"list": {"i": ["1", "1", "1", "1"]}}, "data_format": {"s": "TkhXQw=="}, "use_cudnn_on_gpu": {"b": true}, "explicit_paddings": {"list": {}}, "padding": {"s": "VkFMSUQ="}}}, {"name": "batch_normalization_26/batchnorm/add_1", "op": "Add", "input": ["batch_normalization_26/batchnorm/mul_1", "batch_normalization_26/batchnorm/sub"], "attr": {"T": {"type": "DT_FLOAT"}}}, {"name": "leaky_re_lu_26/LeakyRelu/mul", "op": "Mul", "input": ["batch_normalization_26/batchnorm/add_1", "leaky_re_lu_129/LeakyRelu/alpha"], "attr": {"T": {"type": "DT_FLOAT"}}}, {"name": "leaky_re_lu_26/LeakyRelu/Maximum", "op": "Maximum", "input": ["leaky_re_lu_26/LeakyRelu/mul", "batch_normalization_26/batchnorm/add_1"], "attr": {"T": {"type": "DT_FLOAT"}}}, {"name": "batch_normalization_27/batchnorm/mul_1", "op": "Conv2D", "input": ["leaky_re_lu_26/LeakyRelu/Maximum", "conv2d_29/convolution/merged_input"], "device": "/device:CPU:0", "attr": {"padding": {"s": "U0FNRQ=="}, "dilations": {"list": {"i": ["1", "1", "1", "1"]}}, "T": {"type": "DT_FLOAT"}, "data_format": {"s": "TkhXQw=="}, "strides": {"list": {"i": ["1", "2", "2", "1"]}}, "use_cudnn_on_gpu": {"b": true}, "explicit_paddings": {"list": {}}}}, {"name": "batch_normalization_27/batchnorm/add_1", "op": "Add", "input": ["batch_normalization_27/batchnorm/mul_1", "batch_normalization_27/batchnorm/sub"], "attr": {"T": {"type": "DT_FLOAT"}}}, {"name": "leaky_re_lu_27/LeakyRelu/mul", "op": "Mul", "input": ["batch_normalization_27/batchnorm/add_1", "leaky_re_lu_129/LeakyRelu/alpha"], "attr": {"T": {"type": "DT_FLOAT"}}}, {"name": "leaky_re_lu_27/LeakyRelu/Maximum", "op": "Maximum", "input": ["leaky_re_lu_27/LeakyRelu/mul", "batch_normalization_27/batchnorm/add_1"], "attr": {"T": {"type": "DT_FLOAT"}}}, {"name": "conv2d_30/convolution", "op": "Conv2D", "input": ["leaky_re_lu_27/LeakyRelu/Maximum", "conv2d_30/kernel"], "device": "/device:CPU:0", "attr": {"padding": {"s": "VkFMSUQ="}, "dilations": {"list": {"i": ["1", "1", "1", "1"]}}, "T": {"type": "DT_FLOAT"}, "strides": {"list": {"i": ["1", "1", "1", "1"]}}, "data_format": {"s": "TkhXQw=="}, "use_cudnn_on_gpu": {"b": true}, "explicit_paddings": {"list": {}}}}, {"name": "add_9/add", "op": "Add", "input": ["conv2d_30/convolution", "conv2d_31/convolution"], "attr": {"T": {"type": "DT_FLOAT"}}}, {"name": "batch_normalization_28/batchnorm/mul_1", "op": "Mul", "input": ["add_9/add", "batch_normalization_28/batchnorm/mul"], "attr": {"T": {"type": "DT_FLOAT"}}}, {"name": "batch_normalization_28/batchnorm/add_1", "op": "Add", "input": ["batch_normalization_28/batchnorm/mul_1", "batch_normalization_28/batchnorm/sub"], "attr": {"T": {"type": "DT_FLOAT"}}}, {"name": "leaky_re_lu_28/LeakyRelu/mul", "op": "Mul", "input": ["batch_normalization_28/batchnorm/add_1", "leaky_re_lu_129/LeakyRelu/alpha"], "attr": {"T": {"type": "DT_FLOAT"}}}, {"name": "leaky_re_lu_28/LeakyRelu/Maximum", "op": "Maximum", "input": ["leaky_re_lu_28/LeakyRelu/mul", "batch_normalization_28/batchnorm/add_1"], "attr": {"T": {"type": "DT_FLOAT"}}}, {"name": "batch_normalization_29/batchnorm/mul_1", "op": "Conv2D", "input": ["leaky_re_lu_28/LeakyRelu/Maximum", "conv2d_32/convolution/merged_input"], "device": "/device:CPU:0", "attr": {"dilations": {"list": {"i": ["1", "1", "1", "1"]}}, "T": {"type": "DT_FLOAT"}, "strides": {"list": {"i": ["1", "1", "1", "1"]}}, "data_format": {"s": "TkhXQw=="}, "explicit_paddings": {"list": {}}, "use_cudnn_on_gpu": {"b": true}, "padding": {"s": "VkFMSUQ="}}}, {"name": "batch_normalization_29/batchnorm/add_1", "op": "Add", "input": ["batch_normalization_29/batchnorm/mul_1", "batch_normalization_29/batchnorm/sub"], "attr": {"T": {"type": "DT_FLOAT"}}}, {"name": "leaky_re_lu_29/LeakyRelu/mul", "op": "Mul", "input": ["batch_normalization_29/batchnorm/add_1", "leaky_re_lu_129/LeakyRelu/alpha"], "attr": {"T": {"type": "DT_FLOAT"}}}, {"name": "leaky_re_lu_29/LeakyRelu/Maximum", "op": "Maximum", "input": ["leaky_re_lu_29/LeakyRelu/mul", "batch_normalization_29/batchnorm/add_1"], "attr": {"T": {"type": "DT_FLOAT"}}}, {"name": "batch_normalization_30/batchnorm/mul_1", "op": "Conv2D", "input": ["leaky_re_lu_29/LeakyRelu/Maximum", "conv2d_33/convolution/merged_input"], "device": "/device:CPU:0", "attr": {"dilations": {"list": {"i": ["1", "1", "1", "1"]}}, "T": {"type": "DT_FLOAT"}, "data_format": {"s": "TkhXQw=="}, "strides": {"list": {"i": ["1", "1", "1", "1"]}}, "use_cudnn_on_gpu": {"b": true}, "explicit_paddings": {"list": {}}, "padding": {"s": "U0FNRQ=="}}}, {"name": "batch_normalization_30/batchnorm/add_1", "op": "Add", "input": ["batch_normalization_30/batchnorm/mul_1", "batch_normalization_30/batchnorm/sub"], "attr": {"T": {"type": "DT_FLOAT"}}}, {"name": "leaky_re_lu_30/LeakyRelu/mul", "op": "Mul", "input": ["batch_normalization_30/batchnorm/add_1", "leaky_re_lu_129/LeakyRelu/alpha"], "attr": {"T": {"type": "DT_FLOAT"}}}, {"name": "leaky_re_lu_30/LeakyRelu/Maximum", "op": "Maximum", "input": ["leaky_re_lu_30/LeakyRelu/mul", "batch_normalization_30/batchnorm/add_1"], "attr": {"T": {"type": "DT_FLOAT"}}}, {"name": "conv2d_34/convolution", "op": "Conv2D", "input": ["leaky_re_lu_30/LeakyRelu/Maximum", "conv2d_34/kernel"], "device": "/device:CPU:0", "attr": {"padding": {"s": "VkFMSUQ="}, "dilations": {"list": {"i": ["1", "1", "1", "1"]}}, "T": {"type": "DT_FLOAT"}, "strides": {"list": {"i": ["1", "1", "1", "1"]}}, "data_format": {"s": "TkhXQw=="}, "use_cudnn_on_gpu": {"b": true}, "explicit_paddings": {"list": {}}}}, {"name": "add_10/add", "op": "Add", "input": ["add_9/add", "conv2d_34/convolution"], "attr": {"T": {"type": "DT_FLOAT"}}}, {"name": "batch_normalization_31/batchnorm/mul_1", "op": "Mul", "input": ["add_10/add", "batch_normalization_31/batchnorm/mul"], "attr": {"T": {"type": "DT_FLOAT"}}}, {"name": "batch_normalization_31/batchnorm/add_1", "op": "Add", "input": ["batch_normalization_31/batchnorm/mul_1", "batch_normalization_31/batchnorm/sub"], "attr": {"T": {"type": "DT_FLOAT"}}}, {"name": "leaky_re_lu_31/LeakyRelu/mul", "op": "Mul", "input": ["batch_normalization_31/batchnorm/add_1", "leaky_re_lu_129/LeakyRelu/alpha"], "attr": {"T": {"type": "DT_FLOAT"}}}, {"name": "leaky_re_lu_31/LeakyRelu/Maximum", "op": "Maximum", "input": ["leaky_re_lu_31/LeakyRelu/mul", "batch_normalization_31/batchnorm/add_1"], "attr": {"T": {"type": "DT_FLOAT"}}}, {"name": "batch_normalization_32/batchnorm/mul_1", "op": "Conv2D", "input": ["leaky_re_lu_31/LeakyRelu/Maximum", "conv2d_35/convolution/merged_input"], "device": "/device:CPU:0", "attr": {"dilations": {"list": {"i": ["1", "1", "1", "1"]}}, "T": {"type": "DT_FLOAT"}, "data_format": {"s": "TkhXQw=="}, "strides": {"list": {"i": ["1", "1", "1", "1"]}}, "explicit_paddings": {"list": {}}, "use_cudnn_on_gpu": {"b": true}, "padding": {"s": "VkFMSUQ="}}}, {"name": "batch_normalization_32/batchnorm/add_1", "op": "Add", "input": ["batch_normalization_32/batchnorm/mul_1", "batch_normalization_32/batchnorm/sub"], "attr": {"T": {"type": "DT_FLOAT"}}}, {"name": "leaky_re_lu_32/LeakyRelu/mul", "op": "Mul", "input": ["batch_normalization_32/batchnorm/add_1", "leaky_re_lu_129/LeakyRelu/alpha"], "attr": {"T": {"type": "DT_FLOAT"}}}, {"name": "leaky_re_lu_32/LeakyRelu/Maximum", "op": "Maximum", "input": ["leaky_re_lu_32/LeakyRelu/mul", "batch_normalization_32/batchnorm/add_1"], "attr": {"T": {"type": "DT_FLOAT"}}}, {"name": "batch_normalization_33/batchnorm/mul_1", "op": "Conv2D", "input": ["leaky_re_lu_32/LeakyRelu/Maximum", "conv2d_36/convolution/merged_input"], "device": "/device:CPU:0", "attr": {"data_format": {"s": "TkhXQw=="}, "strides": {"list": {"i": ["1", "1", "1", "1"]}}, "use_cudnn_on_gpu": {"b": true}, "explicit_paddings": {"list": {}}, "padding": {"s": "U0FNRQ=="}, "dilations": {"list": {"i": ["1", "1", "1", "1"]}}, "T": {"type": "DT_FLOAT"}}}, {"name": "batch_normalization_33/batchnorm/add_1", "op": "Add", "input": ["batch_normalization_33/batchnorm/mul_1", "batch_normalization_33/batchnorm/sub"], "attr": {"T": {"type": "DT_FLOAT"}}}, {"name": "leaky_re_lu_33/LeakyRelu/mul", "op": "Mul", "input": ["batch_normalization_33/batchnorm/add_1", "leaky_re_lu_129/LeakyRelu/alpha"], "attr": {"T": {"type": "DT_FLOAT"}}}, {"name": "leaky_re_lu_33/LeakyRelu/Maximum", "op": "Maximum", "input": ["leaky_re_lu_33/LeakyRelu/mul", "batch_normalization_33/batchnorm/add_1"], "attr": {"T": {"type": "DT_FLOAT"}}}, {"name": "conv2d_37/convolution", "op": "Conv2D", "input": ["leaky_re_lu_33/LeakyRelu/Maximum", "conv2d_37/kernel"], "device": "/device:CPU:0", "attr": {"padding": {"s": "VkFMSUQ="}, "dilations": {"list": {"i": ["1", "1", "1", "1"]}}, "T": {"type": "DT_FLOAT"}, "data_format": {"s": "TkhXQw=="}, "strides": {"list": {"i": ["1", "1", "1", "1"]}}, "use_cudnn_on_gpu": {"b": true}, "explicit_paddings": {"list": {}}}}, {"name": "add_11/add", "op": "Add", "input": ["add_10/add", "conv2d_37/convolution"], "attr": {"T": {"type": "DT_FLOAT"}}}, {"name": "batch_normalization_34/batchnorm/mul_1", "op": "Mul", "input": ["add_11/add", "batch_normalization_34/batchnorm/mul"], "attr": {"T": {"type": "DT_FLOAT"}}}, {"name": "conv2d_41/convolution", "op": "Conv2D", "input": ["add_11/add", "conv2d_41/kernel"], "device": "/device:CPU:0", "attr": {"strides": {"list": {"i": ["1", "2", "2", "1"]}}, "data_format": {"s": "TkhXQw=="}, "use_cudnn_on_gpu": {"b": true}, "explicit_paddings": {"list": {}}, "padding": {"s": "VkFMSUQ="}, "dilations": {"list": {"i": ["1", "1", "1", "1"]}}, "T": {"type": "DT_FLOAT"}}}, {"name": "batch_normalization_34/batchnorm/add_1", "op": "Add", "input": ["batch_normalization_34/batchnorm/mul_1", "batch_normalization_34/batchnorm/sub"], "attr": {"T": {"type": "DT_FLOAT"}}}, {"name": "leaky_re_lu_34/LeakyRelu/mul", "op": "Mul", "input": ["batch_normalization_34/batchnorm/add_1", "leaky_re_lu_129/LeakyRelu/alpha"], "attr": {"T": {"type": "DT_FLOAT"}}}, {"name": "leaky_re_lu_34/LeakyRelu/Maximum", "op": "Maximum", "input": ["leaky_re_lu_34/LeakyRelu/mul", "batch_normalization_34/batchnorm/add_1"], "attr": {"T": {"type": "DT_FLOAT"}}}, {"name": "batch_normalization_35/batchnorm/mul_1", "op": "Conv2D", "input": ["leaky_re_lu_34/LeakyRelu/Maximum", "conv2d_38/convolution/merged_input"], "device": "/device:CPU:0", "attr": {"dilations": {"list": {"i": ["1", "1", "1", "1"]}}, "T": {"type": "DT_FLOAT"}, "strides": {"list": {"i": ["1", "1", "1", "1"]}}, "data_format": {"s": "TkhXQw=="}, "use_cudnn_on_gpu": {"b": true}, "explicit_paddings": {"list": {}}, "padding": {"s": "VkFMSUQ="}}}, {"name": "batch_normalization_35/batchnorm/add_1", "op": "Add", "input": ["batch_normalization_35/batchnorm/mul_1", "batch_normalization_35/batchnorm/sub"], "attr": {"T": {"type": "DT_FLOAT"}}}, {"name": "leaky_re_lu_35/LeakyRelu/mul", "op": "Mul", "input": ["batch_normalization_35/batchnorm/add_1", "leaky_re_lu_129/LeakyRelu/alpha"], "attr": {"T": {"type": "DT_FLOAT"}}}, {"name": "leaky_re_lu_35/LeakyRelu/Maximum", "op": "Maximum", "input": ["leaky_re_lu_35/LeakyRelu/mul", "batch_normalization_35/batchnorm/add_1"], "attr": {"T": {"type": "DT_FLOAT"}}}, {"name": "batch_normalization_36/batchnorm/mul_1", "op": "Conv2D", "input": ["leaky_re_lu_35/LeakyRelu/Maximum", "conv2d_39/convolution/merged_input"], "device": "/device:CPU:0", "attr": {"padding": {"s": "U0FNRQ=="}, "dilations": {"list": {"i": ["1", "1", "1", "1"]}}, "T": {"type": "DT_FLOAT"}, "data_format": {"s": "TkhXQw=="}, "strides": {"list": {"i": ["1", "2", "2", "1"]}}, "explicit_paddings": {"list": {}}, "use_cudnn_on_gpu": {"b": true}}}, {"name": "batch_normalization_36/batchnorm/add_1", "op": "Add", "input": ["batch_normalization_36/batchnorm/mul_1", "batch_normalization_36/batchnorm/sub"], "attr": {"T": {"type": "DT_FLOAT"}}}, {"name": "leaky_re_lu_36/LeakyRelu/mul", "op": "Mul", "input": ["batch_normalization_36/batchnorm/add_1", "leaky_re_lu_129/LeakyRelu/alpha"], "attr": {"T": {"type": "DT_FLOAT"}}}, {"name": "leaky_re_lu_36/LeakyRelu/Maximum", "op": "Maximum", "input": ["leaky_re_lu_36/LeakyRelu/mul", "batch_normalization_36/batchnorm/add_1"], "attr": {"T": {"type": "DT_FLOAT"}}}, {"name": "conv2d_40/convolution", "op": "Conv2D", "input": ["leaky_re_lu_36/LeakyRelu/Maximum", "conv2d_40/kernel"], "device": "/device:CPU:0", "attr": {"dilations": {"list": {"i": ["1", "1", "1", "1"]}}, "T": {"type": "DT_FLOAT"}, "data_format": {"s": "TkhXQw=="}, "strides": {"list": {"i": ["1", "1", "1", "1"]}}, "use_cudnn_on_gpu": {"b": true}, "explicit_paddings": {"list": {}}, "padding": {"s": "VkFMSUQ="}}}, {"name": "add_12/add", "op": "Add", "input": ["conv2d_40/convolution", "conv2d_41/convolution"], "attr": {"T": {"type": "DT_FLOAT"}}}, {"name": "batch_normalization_37/batchnorm/mul_1", "op": "Mul", "input": ["add_12/add", "batch_normalization_37/batchnorm/mul"], "attr": {"T": {"type": "DT_FLOAT"}}}, {"name": "batch_normalization_37/batchnorm/add_1", "op": "Add", "input": ["batch_normalization_37/batchnorm/mul_1", "batch_normalization_37/batchnorm/sub"], "attr": {"T": {"type": "DT_FLOAT"}}}, {"name": "leaky_re_lu_37/LeakyRelu/mul", "op": "Mul", "input": ["batch_normalization_37/batchnorm/add_1", "leaky_re_lu_129/LeakyRelu/alpha"], "attr": {"T": {"type": "DT_FLOAT"}}}, {"name": "leaky_re_lu_37/LeakyRelu/Maximum", "op": "Maximum", "input": ["leaky_re_lu_37/LeakyRelu/mul", "batch_normalization_37/batchnorm/add_1"], "attr": {"T": {"type": "DT_FLOAT"}}}, {"name": "batch_normalization_38/batchnorm/mul_1", "op": "Conv2D", "input": ["leaky_re_lu_37/LeakyRelu/Maximum", "conv2d_42/convolution/merged_input"], "device": "/device:CPU:0", "attr": {"padding": {"s": "VkFMSUQ="}, "dilations": {"list": {"i": ["1", "1", "1", "1"]}}, "T": {"type": "DT_FLOAT"}, "data_format": {"s": "TkhXQw=="}, "strides": {"list": {"i": ["1", "1", "1", "1"]}}, "use_cudnn_on_gpu": {"b": true}, "explicit_paddings": {"list": {}}}}, {"name": "batch_normalization_38/batchnorm/add_1", "op": "Add", "input": ["batch_normalization_38/batchnorm/mul_1", "batch_normalization_38/batchnorm/sub"], "attr": {"T": {"type": "DT_FLOAT"}}}, {"name": "leaky_re_lu_38/LeakyRelu/mul", "op": "Mul", "input": ["batch_normalization_38/batchnorm/add_1", "leaky_re_lu_129/LeakyRelu/alpha"], "attr": {"T": {"type": "DT_FLOAT"}}}, {"name": "leaky_re_lu_38/LeakyRelu/Maximum", "op": "Maximum", "input": ["leaky_re_lu_38/LeakyRelu/mul", "batch_normalization_38/batchnorm/add_1"], "attr": {"T": {"type": "DT_FLOAT"}}}, {"name": "batch_normalization_39/batchnorm/mul_1", "op": "Conv2D", "input": ["leaky_re_lu_38/LeakyRelu/Maximum", "conv2d_43/convolution/merged_input"], "device": "/device:CPU:0", "attr": {"strides": {"list": {"i": ["1", "1", "1", "1"]}}, "data_format": {"s": "TkhXQw=="}, "use_cudnn_on_gpu": {"b": true}, "explicit_paddings": {"list": {}}, "padding": {"s": "U0FNRQ=="}, "dilations": {"list": {"i": ["1", "1", "1", "1"]}}, "T": {"type": "DT_FLOAT"}}}, {"name": "batch_normalization_39/batchnorm/add_1", "op": "Add", "input": ["batch_normalization_39/batchnorm/mul_1", "batch_normalization_39/batchnorm/sub"], "attr": {"T": {"type": "DT_FLOAT"}}}, {"name": "leaky_re_lu_39/LeakyRelu/mul", "op": "Mul", "input": ["batch_normalization_39/batchnorm/add_1", "leaky_re_lu_129/LeakyRelu/alpha"], "attr": {"T": {"type": "DT_FLOAT"}}}, {"name": "leaky_re_lu_39/LeakyRelu/Maximum", "op": "Maximum", "input": ["leaky_re_lu_39/LeakyRelu/mul", "batch_normalization_39/batchnorm/add_1"], "attr": {"T": {"type": "DT_FLOAT"}}}, {"name": "conv2d_44/convolution", "op": "Conv2D", "input": ["leaky_re_lu_39/LeakyRelu/Maximum", "conv2d_44/kernel"], "device": "/device:CPU:0", "attr": {"use_cudnn_on_gpu": {"b": true}, "explicit_paddings": {"list": {}}, "padding": {"s": "VkFMSUQ="}, "dilations": {"list": {"i": ["1", "1", "1", "1"]}}, "T": {"type": "DT_FLOAT"}, "strides": {"list": {"i": ["1", "1", "1", "1"]}}, "data_format": {"s": "TkhXQw=="}}}, {"name": "add_13/add", "op": "Add", "input": ["add_12/add", "conv2d_44/convolution"], "attr": {"T": {"type": "DT_FLOAT"}}}, {"name": "batch_normalization_40/batchnorm/mul_1", "op": "Mul", "input": ["add_13/add", "batch_normalization_40/batchnorm/mul"], "attr": {"T": {"type": "DT_FLOAT"}}}, {"name": "batch_normalization_40/batchnorm/add_1", "op": "Add", "input": ["batch_normalization_40/batchnorm/mul_1", "batch_normalization_40/batchnorm/sub"], "attr": {"T": {"type": "DT_FLOAT"}}}, {"name": "leaky_re_lu_40/LeakyRelu/mul", "op": "Mul", "input": ["batch_normalization_40/batchnorm/add_1", "leaky_re_lu_129/LeakyRelu/alpha"], "attr": {"T": {"type": "DT_FLOAT"}}}, {"name": "leaky_re_lu_40/LeakyRelu/Maximum", "op": "Maximum", "input": ["leaky_re_lu_40/LeakyRelu/mul", "batch_normalization_40/batchnorm/add_1"], "attr": {"T": {"type": "DT_FLOAT"}}}, {"name": "batch_normalization_41/batchnorm/mul_1", "op": "Conv2D", "input": ["leaky_re_lu_40/LeakyRelu/Maximum", "conv2d_45/convolution/merged_input"], "device": "/device:CPU:0", "attr": {"padding": {"s": "VkFMSUQ="}, "dilations": {"list": {"i": ["1", "1", "1", "1"]}}, "T": {"type": "DT_FLOAT"}, "strides": {"list": {"i": ["1", "1", "1", "1"]}}, "data_format": {"s": "TkhXQw=="}, "use_cudnn_on_gpu": {"b": true}, "explicit_paddings": {"list": {}}}}, {"name": "batch_normalization_41/batchnorm/add_1", "op": "Add", "input": ["batch_normalization_41/batchnorm/mul_1", "batch_normalization_41/batchnorm/sub"], "attr": {"T": {"type": "DT_FLOAT"}}}, {"name": "leaky_re_lu_41/LeakyRelu/mul", "op": "Mul", "input": ["batch_normalization_41/batchnorm/add_1", "leaky_re_lu_129/LeakyRelu/alpha"], "attr": {"T": {"type": "DT_FLOAT"}}}, {"name": "leaky_re_lu_41/LeakyRelu/Maximum", "op": "Maximum", "input": ["leaky_re_lu_41/LeakyRelu/mul", "batch_normalization_41/batchnorm/add_1"], "attr": {"T": {"type": "DT_FLOAT"}}}, {"name": "batch_normalization_42/batchnorm/mul_1", "op": "Conv2D", "input": ["leaky_re_lu_41/LeakyRelu/Maximum", "conv2d_46/convolution/merged_input"], "device": "/device:CPU:0", "attr": {"explicit_paddings": {"list": {}}, "use_cudnn_on_gpu": {"b": true}, "padding": {"s": "U0FNRQ=="}, "dilations": {"list": {"i": ["1", "1", "1", "1"]}}, "T": {"type": "DT_FLOAT"}, "strides": {"list": {"i": ["1", "1", "1", "1"]}}, "data_format": {"s": "TkhXQw=="}}}, {"name": "batch_normalization_42/batchnorm/add_1", "op": "Add", "input": ["batch_normalization_42/batchnorm/mul_1", "batch_normalization_42/batchnorm/sub"], "attr": {"T": {"type": "DT_FLOAT"}}}, {"name": "leaky_re_lu_42/LeakyRelu/mul", "op": "Mul", "input": ["batch_normalization_42/batchnorm/add_1", "leaky_re_lu_129/LeakyRelu/alpha"], "attr": {"T": {"type": "DT_FLOAT"}}}, {"name": "leaky_re_lu_42/LeakyRelu/Maximum", "op": "Maximum", "input": ["leaky_re_lu_42/LeakyRelu/mul", "batch_normalization_42/batchnorm/add_1"], "attr": {"T": {"type": "DT_FLOAT"}}}, {"name": "conv2d_47/convolution", "op": "Conv2D", "input": ["leaky_re_lu_42/LeakyRelu/Maximum", "conv2d_47/kernel"], "device": "/device:CPU:0", "attr": {"padding": {"s": "VkFMSUQ="}, "dilations": {"list": {"i": ["1", "1", "1", "1"]}}, "T": {"type": "DT_FLOAT"}, "data_format": {"s": "TkhXQw=="}, "strides": {"list": {"i": ["1", "1", "1", "1"]}}, "use_cudnn_on_gpu": {"b": true}, "explicit_paddings": {"list": {}}}}, {"name": "add_14/add", "op": "Add", "input": ["add_13/add", "conv2d_47/convolution"], "attr": {"T": {"type": "DT_FLOAT"}}}, {"name": "batch_normalization_43/batchnorm/mul_1", "op": "Mul", "input": ["add_14/add", "batch_normalization_43/batchnorm/mul"], "attr": {"T": {"type": "DT_FLOAT"}}}, {"name": "conv2d_51/convolution", "op": "Conv2D", "input": ["add_14/add", "conv2d_51/kernel"], "device": "/device:CPU:0", "attr": {"padding": {"s": "VkFMSUQ="}, "dilations": {"list": {"i": ["1", "1", "1", "1"]}}, "T": {"type": "DT_FLOAT"}, "strides": {"list": {"i": ["1", "2", "2", "1"]}}, "data_format": {"s": "TkhXQw=="}, "explicit_paddings": {"list": {}}, "use_cudnn_on_gpu": {"b": true}}}, {"name": "batch_normalization_43/batchnorm/add_1", "op": "Add", "input": ["batch_normalization_43/batchnorm/mul_1", "batch_normalization_43/batchnorm/sub"], "attr": {"T": {"type": "DT_FLOAT"}}}, {"name": "leaky_re_lu_43/LeakyRelu/mul", "op": "Mul", "input": ["batch_normalization_43/batchnorm/add_1", "leaky_re_lu_129/LeakyRelu/alpha"], "attr": {"T": {"type": "DT_FLOAT"}}}, {"name": "leaky_re_lu_43/LeakyRelu/Maximum", "op": "Maximum", "input": ["leaky_re_lu_43/LeakyRelu/mul", "batch_normalization_43/batchnorm/add_1"], "attr": {"T": {"type": "DT_FLOAT"}}}, {"name": "batch_normalization_44/batchnorm/mul_1", "op": "Conv2D", "input": ["leaky_re_lu_43/LeakyRelu/Maximum", "conv2d_48/convolution/merged_input"], "device": "/device:CPU:0", "attr": {"padding": {"s": "VkFMSUQ="}, "dilations": {"list": {"i": ["1", "1", "1", "1"]}}, "T": {"type": "DT_FLOAT"}, "data_format": {"s": "TkhXQw=="}, "strides": {"list": {"i": ["1", "1", "1", "1"]}}, "explicit_paddings": {"list": {}}, "use_cudnn_on_gpu": {"b": true}}}, {"name": "batch_normalization_44/batchnorm/add_1", "op": "Add", "input": ["batch_normalization_44/batchnorm/mul_1", "batch_normalization_44/batchnorm/sub"], "attr": {"T": {"type": "DT_FLOAT"}}}, {"name": "leaky_re_lu_44/LeakyRelu/mul", "op": "Mul", "input": ["batch_normalization_44/batchnorm/add_1", "leaky_re_lu_129/LeakyRelu/alpha"], "attr": {"T": {"type": "DT_FLOAT"}}}, {"name": "leaky_re_lu_44/LeakyRelu/Maximum", "op": "Maximum", "input": ["leaky_re_lu_44/LeakyRelu/mul", "batch_normalization_44/batchnorm/add_1"], "attr": {"T": {"type": "DT_FLOAT"}}}, {"name": "batch_normalization_45/batchnorm/mul_1", "op": "Conv2D", "input": ["leaky_re_lu_44/Leaky…
me": "batch_normalization_28/batchnorm/sub", "shape": [256], "dtype": "float32", "quantization": {"min": -2.316730040806131, "scale": 6.948175151624422e-05, "dtype": "uint16"}}, {"name": "conv2d_32/convolution/merged_input", "shape": [1, 1, 256, 64], "dtype": "float32", "quantization": {"min": -0.15455551280612992, "scale": 5.229243226625048e-06, "dtype": "uint16"}}, {"name": "batch_normalization_29/batchnorm/sub", "shape": [64], "dtype": "float32", "quantization": {"min": -0.6484709332570828, "scale": 1.5738057791891146e-05, "dtype": "uint16"}}, {"name": "conv2d_33/convolution/merged_input", "shape": [3, 3, 64, 64], "dtype": "float32", "quantization": {"min": -0.11152209263467457, "scale": 3.42281298369267e-06, "dtype": "uint16"}}, {"name": "batch_normalization_30/batchnorm/sub", "shape": [64], "dtype": "float32", "quantization": {"min": -0.6387135869693437, "scale": 1.6991130509146967e-05, "dtype": "uint16"}}, {"name": "conv2d_34/kernel", "shape": [1, 1, 64, 256], "dtype": "float32", "quantization": {"min": -0.207014312341774, "scale": 6.6104966260625245e-06, "dtype": "uint16"}}, {"name": "batch_normalization_31/batchnorm/mul", "shape": [256], "dtype": "float32", "quantization": {"min": 0.5477610230445862, "scale": 1.742703477896314e-05, "dtype": "uint16"}}, {"name": "batch_normalization_31/batchnorm/sub", "shape": [256], "dtype": "float32", "quantization": {"min": -1.749841085018351, "scale": 5.689984993393656e-05, "dtype": "uint16"}}, {"name": "conv2d_35/convolution/merged_input", "shape": [1, 1, 256, 64], "dtype": "float32", "quantization": {"min": -0.16514028805048195, "scale": 5.324014702768778e-06, "dtype": "uint16"}}, {"name": "batch_normalization_32/batchnorm/sub", "shape": [64], "dtype": "float32", "quantization": {"min": -0.7299502360790757, "scale": 1.640263889441094e-05, "dtype": "uint16"}}, {"name": "conv2d_36/convolution/merged_input", "shape": [3, 3, 64, 64], "dtype": "float32", "quantization": {"min": -0.10735032002617732, "scale": 3.266203791833064e-06, "dtype": "uint16"}}, {"name": "batch_normalization_33/batchnorm/sub", "shape": [64], "dtype": "float32", "quantization": {"min": -0.4910038087236496, "scale": 1.3911820953239917e-05, "dtype": "uint16"}}, {"name": "conv2d_37/kernel", "shape": [1, 1, 64, 256], "dtype": "float32", "quantization": {"min": -0.2023887317857035, "scale": 6.18944713250263e-06, "dtype": "uint16"}}, {"name": "conv2d_41/kernel", "shape": [1, 1, 256, 256], "dtype": "float32", "quantization": {"min": -0.17225401863732037, "scale": 5.02491302909336e-06, "dtype": "uint16"}}, {"name": "batch_normalization_37/batchnorm/mul", "shape": [256], "dtype": "float32", "quantization": {"min": 0.4319879114627838, "scale": 1.41432017549512e-05, "dtype": "uint16"}}, {"name": "batch_normalization_37/batchnorm/sub", "shape": [256], "dtype": "float32", "quantization": {"min": -2.9567603583629465, "scale": 8.536914561463683e-05, "dtype": "uint16"}}, {"name": "conv2d_42/convolution/merged_input", "shape": [1, 1, 256, 64], "dtype": "float32", "quantization": {"min": -0.14967242232438235, "scale": 4.958996167397202e-06, "dtype": "uint16"}}, {"name": "batch_normalization_38/batchnorm/sub", "shape": [64], "dtype": "float32", "quantization": {"min": -0.5176913042367528, "scale": 2.2951378978398333e-05, "dtype": "uint16"}}, {"name": "conv2d_43/convolution/merged_input", "shape": [3, 3, 64, 64], "dtype": "float32", "quantization": {"min": -0.10504881634136136, "scale": 3.4516927233147586e-06, "dtype": "uint16"}}, {"name": "batch_normalization_39/batchnorm/sub", "shape": [64], "dtype": "float32", "quantization": {"min": -0.6911383530591003, "scale": 2.058000634425454e-05, "dtype": "uint16"}}, {"name": "conv2d_44/kernel", "shape": [1, 1, 64, 256], "dtype": "float32", "quantization": {"min": -0.209019655408526, "scale": 6.6726146977981165e-06, "dtype": "uint16"}}, {"name": "batch_normalization_40/batchnorm/mul", "shape": [256], "dtype": "float32", "quantization": {"min": 0.37380915880203247, "scale": 1.2872110308467218e-05, "dtype": "uint16"}}, {"name": "batch_normalization_40/batchnorm/sub", "shape": [256], "dtype": "float32", "quantization": {"min": -2.996080733200519, "scale": 7.64072409772651e-05, "dtype": "uint16"}}, {"name": "conv2d_45/convolution/merged_input", "shape": [1, 1, 256, 64], "dtype": "float32", "quantization": {"min": -0.17249993878088654, "scale": 5.6472185811853125e-06, "dtype": "uint16"}}, {"name": "batch_normalization_41/batchnorm/sub", "shape": [64], "dtype": "float32", "quantization": {"min": -0.6180714852314951, "scale": 1.7095048685700323e-05, "dtype": "uint16"}}, {"name": "conv2d_46/convolution/merged_input", "shape": [3, 3, 64, 64], "dtype": "float32", "quantization": {"min": -0.12251339025316263, "scale": 4.1364504778567975e-06, "dtype": "uint16"}}, {"name": "batch_normalization_42/batchnorm/sub", "shape": [64], "dtype": "float32", "quantization": {"min": -0.5437886823758005, "scale": 1.553460026784175e-05, "dtype": "uint16"}}, {"name": "conv2d_47/kernel", "shape": [1, 1, 64, 256], "dtype": "float32", "quantization": {"min": -0.22008290161113858, "scale": 6.536274586770175e-06, "dtype": "uint16"}}, {"name": "conv2d_51/kernel", "shape": [1, 1, 256, 512], "dtype": "float32", "quantization": {"min": -0.13223110641827981, "scale": 4.099807968817778e-06, "dtype": "uint16"}}, {"name": "batch_normalization_46/batchnorm/mul", "shape": [512], "dtype": "float32", "quantization": {"min": 0.2464049756526947, "scale": 1.7816282168145566e-05, "dtype": "uint16"}}, {"name": "batch_normalization_46/batchnorm/sub", "shape": [512], "dtype": "float32", "quantization": {"min": -2.5495057871314963, "scale": 7.295349492464293e-05, "dtype": "uint16"}}, {"name": "conv2d_52/convolution/merged_input", "shape": [1, 1, 512, 128], "dtype": "float32", "quantization": {"min": -0.10006434531806944, "scale": 3.1198935340650843e-06, "dtype": "uint16"}}, {"name": "batch_normalization_47/batchnorm/sub", "shape": [128], "dtype": "float32", "quantization": {"min": -0.7608013722737775, "scale": 2.0886217873875187e-05, "dtype": "uint16"}}, {"name": "conv2d_53/convolution/merged_input", "shape": [3, 3, 128, 128], "dtype": "float32", "quantization": {"min": -0.05973230603204954, "scale": 1.9888890897362748e-06, "dtype": "uint16"}}, {"name": "batch_normalization_48/batchnorm/sub", "shape": [128], "dtype": "float32", "quantization": {"min": -0.7788943552289664, "scale": 1.8887324019228556e-05, "dtype": "uint16"}}, {"name": "conv2d_54/kernel", "shape": [1, 1, 128, 512], "dtype": "float32", "quantization": {"min": -0.17924660708312723, "scale": 5.104268789564235e-06, "dtype": "uint16"}}, {"name": "batch_normalization_49/batchnorm/mul", "shape": [512], "dtype": "float32", "quantization": {"min": 0.23264271020889282, "scale": 1.5022572403670067e-05, "dtype": "uint16"}}, {"name": "batch_normalization_49/batchnorm/sub", "shape": [512], "dtype": "float32", "quantization": {"min": -2.38068257604919, "scale": 6.5038863950639e-05, "dtype": "uint16"}}, {"name": "conv2d_55/convolution/merged_input", "shape": [1, 1, 512, 128], "dtype": "float32", "quantization": {"min": -0.10198816146081686, "scale": 3.1766075331968127e-06, "dtype": "uint16"}}, {"name": "batch_normalization_50/batchnorm/sub", "shape": [128], "dtype": "float32", "quantization": {"min": -0.5547852379629793, "scale": 1.951476442938476e-05, "dtype": "uint16"}}, {"name": "conv2d_56/convolution/merged_input", "shape": [3, 3, 128, 128], "dtype": "float32", "quantization": {"min": -0.05644594543986748, "scale": 1.9853661650968125e-06, "dtype": "uint16"}}, {"name": "batch_normalization_51/batchnorm/sub", "shape": [128], "dtype": "float32", "quantization": {"min": -0.4880328983934773, "scale": 1.3145667296794002e-05, "dtype": "uint16"}}, {"name": "conv2d_57/kernel", "shape": [1, 1, 128, 512], "dtype": "float32", "quantization": {"min": -0.1579753055223804, "scale": 4.793667289406172e-06, "dtype": "uint16"}}, {"name": "conv2d_58/kernel", "shape": [1, 1, 514, 512], "dtype": "float32", "quantization": {"min": -0.14614985545239806, "scale": 4.305489923476154e-06, "dtype": "uint16"}}, {"name": "conv2d_59/convolution/merged_input", "shape": [3, 3, 512, 512], "dtype": "float32", "quantization": {"min": -0.015746696213416757, "scale": 4.643810260820654e-07, "dtype": "uint16"}}, {"name": "batch_normalization_52/batchnorm/mul_1", "shape": [512], "dtype": "float32", "quantization": {"min": -1.438050501857914, "scale": 4.759077677657987e-05, "dtype": "uint16"}}, {"name": "dense_2/kernel", "shape": [128, 512], "dtype": "float32", "quantization": {"min": -0.22244558908887155, "scale": 6.714122395607484e-06, "dtype": "uint16"}}, {"name": "dense_2/bias", "shape": [512], "dtype": "float32", "quantization": {"min": -0.06801326438310518, "scale": 2.0206561211891373e-06, "dtype": "uint16"}}, {"name": "batch_normalization_53/batchnorm/mul", "shape": [512], "dtype": "float32", "quantization": {"min": 0.2693241536617279, "scale": 2.6200490602868877e-05, "dtype": "uint16"}}, {"name": "batch_normalization_53/batchnorm/sub", "shape": [512], "dtype": "float32", "quantization": {"min": -1.002939233694777, "scale": 4.788899554480147e-05, "dtype": "uint16"}}, {"name": "conv2d_60/convolution/merged_input", "shape": [1, 1, 512, 128], "dtype": "float32", "quantization": {"min": -0.1137396174132201, "scale": 3.3759644241257336e-06, "dtype": "uint16"}}, {"name": "batch_normalization_54/batchnorm/sub", "shape": [128], "dtype": "float32", "quantization": {"min": -0.6141818122259128, "scale": 2.0120616289137192e-05, "dtype": "uint16"}}, {"name": "conv2d_61/convolution/merged_input", "shape": [3, 3, 128, 128], "dtype": "float32", "quantization": {"min": -0.07825397277047524, "scale": 2.356763425204049e-06, "dtype": "uint16"}}, {"name": "batch_normalization_55/batchnorm/sub", "shape": [128], "dtype": "float32", "quantization": {"min": -0.6878312344221662, "scale": 1.712599244135563e-05, "dtype": "uint16"}}, {"name": "conv2d_62/kernel", "shape": [1, 1, 128, 512], "dtype": "float32", "quantization": {"min": -0.1521715378073703, "scale": 4.812052550591984e-06, "dtype": "uint16"}}, {"name": "batch_normalization_56/batchnorm/mul", "shape": [512], "dtype": "float32", "quantization": {"min": 0.25677332282066345, "scale": 1.7497292042979117e-05, "dtype": "uint16"}}, {"name": "batch_normalization_56/batchnorm/sub", "shape": [512], "dtype": "float32", "quantization": {"min": -0.969483365391015, "scale": 3.557606566331566e-05, "dtype": "uint16"}}, {"name": "conv2d_63/convolution/merged_input", "shape": [1, 1, 512, 128], "dtype": "float32", "quantization": {"min": -0.11646166610719592, "scale": 3.584318173925764e-06, "dtype": "uint16"}}, {"name": "batch_normalization_57/batchnorm/sub", "shape": [128], "dtype": "float32", "quantization": {"min": -0.6210665310676105, "scale": 1.794782484879235e-05, "dtype": "uint16"}}, {"name": "conv2d_64/convolution/merged_input", "shape": [3, 3, 128, 128], "dtype": "float32", "quantization": {"min": -0.06786181861697431, "scale": 2.120946950149216e-06, "dtype": "uint16"}}, {"name": "batch_normalization_58/batchnorm/sub", "shape": [128], "dtype": "float32", "quantization": {"min": -0.7413417137741469, "scale": 1.8548381549593348e-05, "dtype": "uint16"}}, {"name": "conv2d_65/kernel", "shape": [1, 1, 128, 512], "dtype": "float32", "quantization": {"min": -0.1557508546932071, "scale": 4.967495525075177e-06, "dtype": "uint16"}}, {"name": "batch_normalization_59/batchnorm/mul", "shape": [512], "dtype": "float32", "quantization": {"min": 0.24275235831737518, "scale": 1.6640577480359528e-05, "dtype": "uint16"}}, {"name": "batch_normalization_59/batchnorm/sub", "shape": [512], "dtype": "float32", "quantization": {"min": -0.9823765613953254, "scale": 3.107311597011942e-05, "dtype": "uint16"}}, {"name": "conv2d_66/convolution/merged_input", "shape": [1, 1, 512, 128], "dtype": "float32", "quantization": {"min": -0.09553924860243594, "scale": 3.2432360853566416e-06, "dtype": "uint16"}}, {"name": "batch_normalization_60/batchnorm/sub", "shape": [128], "dtype": "float32", "quantization": {"min": -0.5550972820119581, "scale": 1.8287450814125257e-05, "dtype": "uint16"}}, {"name": "conv2d_67/convolution/merged_input", "shape": [3, 3, 128, 128], "dtype": "float32", "quantization": {"min": -0.05584327157101079, "scale": 1.8714860273806357e-06, "dtype": "uint16"}}, {"name": "batch_normalization_61/batchnorm/sub", "shape": [128], "dtype": "float32", "quantization": {"min": -0.5814930114937454, "scale": 1.6357967016252544e-05, "dtype": "uint16"}}, {"name": "conv2d_68/kernel", "shape": [1, 1, 128, 512], "dtype": "float32", "quantization": {"min": -0.14452353694841483, "scale": 4.9085873364947466e-06, "dtype": "uint16"}}, {"name": "batch_normalization_62/batchnorm/mul", "shape": [512], "dtype": "float32", "quantization": {"min": 0.24869443476200104, "scale": 1.3481934674318953e-05, "dtype": "uint16"}}, {"name": "batch_normalization_62/batchnorm/sub", "shape": [512], "dtype": "float32", "quantization": {"min": -0.9868444139418817, "scale": 2.957014394695957e-05, "dtype": "uint16"}}, {"name": "conv2d_69/convolution/merged_input", "shape": [1, 1, 512, 128], "dtype": "float32", "quantization": {"min": -0.1100007379133241, "scale": 3.904612307018462e-06, "dtype": "uint16"}}, {"name": "batch_normalization_63/batchnorm/sub", "shape": [128], "dtype": "float32", "quantization": {"min": -0.6466654201944351, "scale": 1.9350232508286756e-05, "dtype": "uint16"}}, {"name": "conv2d_70/convolution/merged_input", "shape": [3, 3, 128, 128], "dtype": "float32", "quantization": {"min": -0.05926468248833706, "scale": 1.9078252153083008e-06, "dtype": "uint16"}}, {"name": "batch_normalization_64/batchnorm/sub", "shape": [128], "dtype": "float32", "quantization": {"min": -0.7372685627341771, "scale": 1.8574739562989444e-05, "dtype": "uint16"}}, {"name": "conv2d_71/kernel", "shape": [1, 1, 128, 512], "dtype": "float32", "quantization": {"min": -0.1573057759814962, "scale": 5.110648992251338e-06, "dtype": "uint16"}}, {"name": "self_attention_1/gamma", "shape": [1], "dtype": "float32", "quantization": {"min": -0.0220259390771389, "scale": 1.0, "dtype": "uint16"}}, {"name": "sub_pixel_conv2d_2/kernel", "shape": [1, 1, 512, 1024], "dtype": "float32", "quantization": {"min": -0.14660493652985387, "scale": 4.24020062270004e-06, "dtype": "uint16"}}, {"name": "dense_4/kernel", "shape": [256, 128], "dtype": "float32", "quantization": {"min": -0.2411202981669015, "scale": 7.64514721985166e-06, "dtype": "uint16"}}, {"name": "dense_5/kernel", "shape": [128, 256], "dtype": "float32", "quantization": {"min": -0.25709661048710314, "scale": 6.911570796470325e-06, "dtype": "uint16"}}, {"name": "conv2d_75/kernel", "shape": [1, 1, 514, 256], "dtype": "float32", "quantization": {"min": -0.21426546086778972, "scale": 6.21257388929194e-06, "dtype": "uint16"}}, {"name": "conv2d_76/convolution/merged_input", "shape": [3, 3, 256, 256], "dtype": "float32", "quantization": {"min": -0.0301091791530573, "scale": 9.239345511555572e-07, "dtype": "uint16"}}, {"name": "batch_normalization_68/batchnorm/mul_1", "shape": [256], "dtype": "float32", "quantization": {"min": -1.5430113448879852, "scale": 5.228774465903034e-05, "dtype": "uint16"}}, {"name": "dense_6/kernel", "shape": [128, 256], "dtype": "float32", "quantization": {"min": -0.2892692731976045, "scale": 8.699304498905465e-06, "dtype": "uint16"}}, {"name": "dense_6/bias", "shape": [256], "dtype": "float32", "quantization": {"min": -0.0984438198572476, "scale": 3.2826643054869316e-06, "dtype": "uint16"}}, {"name": "batch_normalization_69/batchnorm/mul", "shape": [256], "dtype": "float32", "quantization": {"min": 0.14316287636756897, "scale": 1.6567773364943045e-05, "dtype": "uint16"}}, {"name": "batch_normalization_69/batchnorm/sub", "shape": [256], "dtype": "float32", "quantization": {"min": -1.3176046003872972, "scale": 4.001836295785261e-05, "dtype": "uint16"}}, {"name": "conv2d_77/convolution/merged_input", "shape": [1, 1, 256, 64], "dtype": "float32", "quantization": {"min": -0.1716086108888088, "scale": 5.670574988891015e-06, "dtype": "uint16"}}, {"name": "batch_normalization_70/batchnorm/sub", "shape": [64], "dtype": "float32", "quantization": {"min": -0.7131531365295929, "scale": 2.1607427254343065e-05, "dtype": "uint16"}}, {"name": "conv2d_78/convolution/merged_input", "shape": [3, 3, 64, 64], "dtype": "float32", "quantization": {"min": -0.16248963722022508, "scale": 4.824800677600365e-06, "dtype": "uint16"}}, {"name": "batch_normalization_71/batchnorm/sub", "shape": [64], "dtype": "float32", "quantization": {"min": -0.8506177958893159, "scale": 2.3301405174340936e-05, "dtype": "uint16"}}, {"name": "conv2d_79/kernel", "shape": [1, 1, 64, 256], "dtype": "float32", "quantization": {"min": -0.21705004701245484, "scale": 7.216239344785386e-06, "dtype": "uint16"}}, {"name": "batch_normalization_72/batchnorm/mul", "shape": [256], "dtype": "float32", "quantization": {"min": 0.14647002518177032, "scale": 1.462579542033285e-05, "dtype": "uint16"}}, {"name": "batch_normalization_72/batchnorm/sub", "shape": [256], "dtype": "float32", "quantization": {"min": -1.3942740535939813, "scale": 4.036576976908547e-05, "dtype": "uint16"}}, {"name": "conv2d_80/convolution/merged_input", "shape": [1, 1, 256, 64], "dtype": "float32", "quantization": {"min": -0.19579519851944255, "scale": 5.7768624352946784e-06, "dtype": "uint16"}}, {"name": "batch_normalization_73/batchnorm/sub", "shape": [64], "dtype": "float32", "quantization": {"min": -0.6695409883512023, "scale": 1.6804904079895647e-05, "dtype": "uint16"}}, {"name": "conv2d_81/convolution/merged_input", "shape": [3, 3, 64, 64], "dtype": "float32", "quantization": {"min": -0.14847746095113826, "scale": 4.62834978027239e-06, "dtype": "uint16"}}, {"name": "batch_normalization_74/batchnorm/sub", "shape": [64], "dtype": "float32", "quantization": {"min": -1.1512374734663897, "scale": 2.7662008589225567e-05, "dtype": "uint16"}}, {"name": "conv2d_82/kernel", "shape": [1, 1, 64, 256], "dtype": "float32", "quantization": {"min": -0.21099457602038157, "scale": 6.891193938871957e-06, "dtype": "uint16"}}, {"name": "self_attention_2/gamma", "shape": [1], "dtype": "float32", "quantization": {"min": 0.09889182448387146, "scale": 1.0, "dtype": "uint16"}}, {"name": "sub_pixel_conv2d_4/kernel", "shape": [1, 1, 256, 1024], "dtype": "float32", "quantization": {"min": -0.1550536551575662, "scale": 4.491054457858543e-06, "dtype": "uint16"}}, {"name": "dense_8/kernel", "shape": [256, 128], "dtype": "float32", "quantization": {"min": -0.3079442668326743, "scale": 8.656928675156704e-06, "dtype": "uint16"}}, {"name": "dense_9/kernel", "shape": [128, 256], "dtype": "float32", "quantization": {"min": -0.2425004543424644, "scale": 7.626040263607799e-06, "dtype": "uint16"}}, {"name": "conv2d_87/kernel", "shape": [1, 1, 514, 256], "dtype": "float32", "quantization": {"min": -0.2570652582665971, "scale": 7.142288793804098e-06, "dtype": "uint16"}}, {"name": "conv2d_88/convolution/merged_input", "shape": [3, 3, 256, 256], "dtype": "float32", "quantization": {"min": -0.03283557342786742, "scale": 1.1010889449672185e-06, "dtype": "uint16"}}, {"name": "batch_normalization_78/batchnorm/mul_1", "shape": [256], "dtype": "float32", "quantization": {"min": -1.5807078446604852, "scale": 5.3054569532808126e-05, "dtype": "uint16"}}, {"name": "dense_10/kernel", "shape": [128, 256], "dtype": "float32", "quantization": {"min": -0.2493658332093189, "scale": 7.853794627234384e-06, "dtype": "uint16"}}, {"name": "dense_10/bias", "shape": [256], "dtype": "float32", "quantization": {"min": -0.10060253500917951, "scale": 3.208705227862709e-06, "dtype": "uint16"}}, {"name": "batch_normalization_79/batchnorm/mul", "shape": [256], "dtype": "float32", "quantization": {"min": 0.46809491515159607, "scale": 1.2190111207136202e-05, "dtype": "uint16"}}, {"name": "batch_normalization_79/batchnorm/sub", "shape": [256], "dtype": "float32", "quantization": {"min": -0.7027729762048882, "scale": 3.424986481821181e-05, "dtype": "uint16"}}, {"name": "conv2d_89/convolution/merged_input", "shape": [1, 1, 256, 64], "dtype": "float32", "quantization": {"min": -0.1728956286818246, "scale": 6.115436781332223e-06, "dtype": "uint16"}}, {"name": "batch_normalization_80/batchnorm/sub", "shape": [64], "dtype": "float32", "quantization": {"min": -0.5777046012343627, "scale": 1.7977985972314767e-05, "dtype": "uint16"}}, {"name": "conv2d_90/convolution/merged_input", "shape": [3, 3, 64, 64], "dtype": "float32", "quantization": {"min": -0.12691854896153046, "scale": 4.3682171385830484e-06, "dtype": "uint16"}}, {"name": "batch_normalization_81/batchnorm/sub", "shape": [64], "dtype": "float32", "quantization": {"min": -0.6646172219213345, "scale": 1.7802882832994067e-05, "dtype": "uint16"}}, {"name": "conv2d_91/kernel", "shape": [1, 1, 64, 256], "dtype": "float32", "quantization": {"min": -0.2001256324283189, "scale": 6.9410943544783195e-06, "dtype": "uint16"}}, {"name": "batch_normalization_82/batchnorm/mul", "shape": [256], "dtype": "float32", "quantization": {"min": 0.38239559531211853, "scale": 1.1970790489192703e-05, "dtype": "uint16"}}, {"name": "batch_normalization_82/batchnorm/sub", "shape": [256], "dtype": "float32", "quantization": {"min": -0.6832476145171406, "scale": 2.476162847523432e-05, "dtype": "uint16"}}, {"name": "conv2d_92/convolution/merged_input", "shape": [1, 1, 256, 64], "dtype": "float32", "quantization": {"min": -0.17694153876156193, "scale": 6.171446366068918e-06, "dtype": "uint16"}}, {"name": "batch_normalization_83/batchnorm/sub", "shape": [64], "dtype": "float32", "quantization": {"min": -0.8229652551197848, "scale": 2.078930063961463e-05, "dtype": "uint16"}}, {"name": "conv2d_93/convolution/merged_input", "shape": [3, 3, 64, 64], "dtype": "float32", "quantization": {"min": -0.13168727526577786, "scale": 4.958665333651311e-06, "dtype": "uint16"}}, {"name": "batch_normalization_84/batchnorm/sub", "shape": [64], "dtype": "float32", "quantization": {"min": -0.9928987650510384, "scale": 2.440094283873678e-05, "dtype": "uint16"}}, {"name": "conv2d_94/kernel", "shape": [1, 1, 64, 256], "dtype": "float32", "quantization": {"min": -0.21766712313532566, "scale": 6.9440159234136945e-06, "dtype": "uint16"}}, {"name": "self_attention_3/gamma", "shape": [1], "dtype": "float32", "quantization": {"min": -0.0006696796044707298, "scale": 1.0, "dtype": "uint16"}}, {"name": "sub_pixel_conv2d_6/kernel", "shape": [1, 1, 256, 512], "dtype": "float32", "quantization": {"min": -0.15984891691260272, "scale": 5.2626890403833126e-06, "dtype": "uint16"}}, {"name": "dense_12/kernel", "shape": [128, 64], "dtype": "float32", "quantization": {"min": -0.3897652720735631, "scale": 1.1322486406970809e-05, "dtype": "uint16"}}, {"name": "dense_13/kernel", "shape": [64, 128], "dtype": "float32", "quantization": {"min": -0.329868158312223, "scale": 9.908331079905772e-06, "dtype": "uint16"}}, {"name": "batch_normalization_16/batchnorm/mul", "shape": [64], "dtype": "float32", "quantization": {"min": 0.9238802194595337, "scale": 2.1783459911432293e-05, "dtype": "uint16"}}, {"name": "batch_normalization_16/batchnorm/sub", "shape": [64], "dtype": "float32", "quantization": {"min": -1.2657504298543822, "scale": 3.2797409630098265e-05, "dtype": "uint16"}}, {"name": "conv2d_18/convolution/merged_input", "shape": [1, 1, 64, 32], "dtype": "float32", "quantization": {"min": -0.3892694037998533, "scale": 1.2457816872015019e-05, "dtype": "uint16"}}, {"name": "batch_normalization_17/batchnorm/sub", "shape": [32], "dtype": "float32", "quantization": {"min": -0.37281004792084876, "scale": 1.7596169722983374e-05, "dtype": "uint16"}}, {"name": "conv2d_19/convolution/merged_input", "shape": [3, 3, 32, 32], "dtype": "float32", "quantization": {"min": -0.16595910626326527, "scale": 4.5506897985485e-06, "dtype": "uint16"}}, {"name": "batch_normalization_18/batchnorm/sub", "shape": [32], "dtype": "float32", "quantization": {"min": -0.37900538871305944, "scale": 1.0533486804509586e-05, "dtype": "uint16"}}, {"name": "conv2d_20/kernel", "shape": [1, 1, 32, 128], "dtype": "float32", "quantization": {"min": -0.23471902965307873, "scale": 7.166555619598154e-06, "dtype": "uint16"}}, {"name": "conv2d_21/kernel", "shape": [1, 1, 64, 128], "dtype": "float32", "quantization": {"min": -0.21208192571341658, "scale": 6.550793072229084e-06, "dtype": "uint16"}}, {"name": "batch_normalization_19/batchnorm/mul", "shape": [128], "dtype": "float32", "quantization": {"min": 0.6425133943557739, "scale": 3.736816227840797e-05, "dtype": "uint16"}}, {"name": "batch_normalization_19/batchnorm/sub", "shape": [128], "dtype": "float32", "quantization": {"min": -1.102670182224596, "scale": 4.4403422148938746e-05, "dtype": "uint16"}}, {"name": "conv2d_22/convolution/merged_input", "shape": [1, 1, 128, 32], "dtype": "float32", "quantization": {"min": -0.25817492635497297, "scale": 7.762791699890942e-06, "dtype": "uint16"}}, {"name": "batch_normalization_20/batchnorm/sub", "shape": [32], "dtype": "float32", "quantization": {"min": -0.4870651618297653, "scale": 1.3869387830450632e-05, "dtype": "uint16"}}, {"name": "conv2d_23/convolution/merged_input", "shape": [3, 3, 32, 32], "dtype": "float32", "quantization": {"min": -0.11102106297776493, "scale": 3.4648605885327048e-06, "dtype": "uint16"}}, {"name": "batch_normalization_21/batchnorm/sub", "shape": [32], "dtype": "float32", "quantization": {"min": -0.39627102716314516, "scale": 1.2045444317683299e-05, "dtype": "uint16"}}, {"name": "conv2d_24/kernel", "shape": [1, 1, 32, 128], "dtype": "float32", "quantization": {"min": -0.246934289672177, "scale": 7.488076225010674e-06, "dtype": "uint16"}}, {"name": "batch_normalization_22/batchnorm/mul", "shape": [128], "dtype": "float32", "quantization": {"min": 0.5493819117546082, "scale": 3.300624917116847e-05, "dtype": "uint16"}}, {"name": "batch_normalization_22/batchnorm/sub", "shape": [128], "dtype": "float32", "quantization": {"min": -1.285469189029978, "scale": 5.167299871487631e-05, "dtype": "uint16"}}, {"name": "conv2d_25/convolution/merged_input", "shape": [1, 1, 128, 32], "dtype": "float32", "quantization": {"min": -0.2511241349801415, "scale": 7.811258047844149e-06, "dtype": "uint16"}}, {"name": "batch_normalization_23/batchnorm/sub", "shape": [32], "dtype": "float32", "quantization": {"min": -0.43287879605947027, "scale": 1.1610309946879903e-05, "dtype": "uint16"}}, {"name": "conv2d_26/convolution/merged_input", "shape": [3, 3, 32, 32], "dtype": "float32", "quantization": {"min": -0.18871928768044452, "scale": 5.240892212514774e-06, "dtype": "uint16"}}, {"name": "batch_normalization_24/batchnorm/sub", "shape": [32], "dtype": "float32", "quantization": {"min": -0.43051387625773074, "scale": 1.3157514555554118e-05, "dtype": "uint16"}}, {"name": "conv2d_27/kernel", "shape": [1, 1, 32, 128], "dtype": "float32", "quantization": {"min": -0.27082220210521185, "scale": 7.873653974450862e-06, "dtype": "uint16"}}, {"name": "conv2d_98/kernel", "shape": [1, 1, 258, 128], "dtype": "float32", "quantization": {"min": -0.3025040168483715, "scale": 8.476588585433674e-06, "dtype": "uint16"}}, {"name": "conv2d_99/convolution/merged_input", "shape": [3, 3, 128, 128], "dtype": "float32", "quantization": {"min": -0.048148433101834795, "scale": 1.6589178990433708e-06, "dtype": "uint16"}}, {"name": "batch_normalization_88/batchnorm/mul_1", "shape": [128], "dtype": "float32", "quantization": {"min": -1.671227041185425, "scale": 5.65176544195274e-05, "dtype": "uint16"}}, {"name": "dense_14/kernel", "shape": [128, 128], "dtype": "float32", "quantization": {"min": -0.26506707608731633, "scale": 7.913867441551213e-06, "dtype": "uint16"}}, {"name": "dense_14/bias", "shape": [128], "dtype": "float32", "quantization": {"min": -0.13371105887239654, "scale": 3.5987366134408973e-06, "dtype": "uint16"}}, {"name": "batch_normalization_89/batchnorm/mul", "shape": [128], "dtype": "float32", "quantization": {"min": 0.2922751009464264, "scale": 2.4259953092471898e-05, "dtype": "uint16"}}, {"name": "batch_normalization_89/batchnorm/sub", "shape": [128], "dtype": "float32", "quantization": {"min": -1.8248595117513091, "scale": 5.824825279298123e-05, "dtype": "uint16"}}, {"name": "conv2d_100/convolution/merged_input", "shape": [1, 1, 128, 32], "dtype": "float32", "quantization": {"min": -0.2767843613305699, "scale": 9.304614291544353e-06, "dtype": "uint16"}}, {"name": "batch_normalization_90/batchnorm/sub", "shape": [32], "dtype": "float32", "quantization": {"min": -0.5121378407904347, "scale": 1.6238754543421735e-05, "dtype": "uint16"}}, {"name": "conv2d_101/convolution/merged_input", "shape": [3, 3, 32, 32], "dtype": "float32", "quantization": {"min": -0.20584799679618793, "scale": 6.952210368340299e-06, "dtype": "uint16"}}, {"name": "batch_normalization_91/batchnorm/sub", "shape": [32], "dtype": "float32", "quantization": {"min": -0.5677843453437192, "scale": 1.7753802111995223e-05, "dtype": "uint16"}}, {"name": "conv2d_102/kernel", "shape": [1, 1, 32, 128], "dtype": "float32", "quantization": {"min": -0.2917085137530596, "scale": 8.460714477436616e-06, "dtype": "uint16"}}, {"name": "batch_normalization_92/batchnorm/mul", "shape": [128], "dtype": "float32", "quantization": {"min": 0.29741841554641724, "scale": 1.9341724965031563e-05, "dtype": "uint16"}}, {"name": "batch_normalization_92/batchnorm/sub", "shape": [128], "dtype": "float32", "quantization": {"min": -1.6058924658907683, "scale": 4.7951402385511144e-05, "dtype": "uint16"}}, {"name": "conv2d_103/convolution/merged_input", "shape": [1, 1, 128, 32], "dtype": "float32", "quantization": {"min": -0.30123463018386, "scale": 8.979480435921542e-06, "dtype": "uint16"}}, {"name": "batch_normalization_93/batchnorm/sub", "shape": [32], "dtype": "float32", "quantization": {"min": -0.35357405696079297, "scale": 1.2538976415376728e-05, "dtype": "uint16"}}, {"name": "conv2d_104/convolution/merged_input", "shape": [3, 3, 32, 32], "dtype": "float32", "quantization": {"min": -0.2750346977791488, "scale": 8.132549684471712e-06, "dtype": "uint16"}}, {"name": "batch_normalization_94/batchnorm/sub", "shape": [32], "dtype": "float32", "quantization": {"min": -0.7243901219494948, "scale": 2.582680126745204e-05, "dtype": "uint16"}}, {"name": "conv2d_105/kernel", "shape": [1, 1, 32, 128], "dtype": "float32", "quantization": {"min": -0.3444445168625493, "scale": 9.799832618144682e-06, "dtype": "uint16"}}, {"name": "self_attention_4/gamma", "shape": [1], "dtype": "float32", "quantization": {"min": -0.004185143858194351, "scale": 1.0, "dtype": "uint16"}}, {"name": "sub_pixel_conv2d_8/kernel", "shape": [1, 1, 128, 256], "dtype": "float32", "quantization": {"min": -0.24899822011950398, "scale": 7.0569725688556845e-06, "dtype": "uint16"}}, {"name": "dense_16/kernel", "shape": [64, 32], "dtype": "float32", "quantization": {"min": -0.3544124887365584, "scale": 1.0786842243016752e-05, "dtype": "uint16"}}, {"name": "dense_17/kernel", "shape": [32, 64], "dtype": "float32", "quantization": {"min": -0.38987447840858036, "scale": 1.1613776538831705e-05, "dtype": "uint16"}}, {"name": "batch_normalization_7/batchnorm/mul", "shape": [32], "dtype": "float32", "quantization": {"min": 1.0297921895980835, "scale": 5.009863026820432e-05, "dtype": "uint16"}}, {"name": "batch_normalization_7/batchnorm/sub", "shape": [32], "dtype": "float32", "quantization": {"min": -0.5430781927608631, "scale": 2.3827579534962402e-05, "dtype": "uint16"}}, {"name": "conv2d_8/convolution/merged_input", "shape": [1, 1, 32, 16], "dtype": "float32", "quantization": {"min": -0.5688946603810094, "scale": 1.841500211636971e-05, "dtype": "uint16"}}, {"name": "batch_normalization_8/batchnorm/sub", "shape": [16], "dtype": "float32", "quantization": {"min": -0.5428983824626162, "scale": 2.09734743080014e-05, "dtype": "uint16"}}, {"name": "conv2d_9/convolution/merged_input", "shape": [3, 3, 16, 16], "dtype": "float32", "quantization": {"min": -0.2153535514708432, "scale": 6.950924777962791e-06, "dtype": "uint16"}}, {"name": "batch_normalization_9/batchnorm/sub", "shape": [16], "dtype": "float32", "quantization": {"min": -0.36036693937965647, "scale": 1.5128754801832766e-05, "dtype": "uint16"}}, {"name": "conv2d_10/kernel", "shape": [1, 1, 16, 64], "dtype": "float32", "quantization": {"min": -0.31016832549448115, "scale": 9.684891197604482e-06, "dtype": "uint16"}}, {"name": "leaky_re_lu_129/LeakyRelu/alpha", "shape": [], "dtype": "float32", "quantization": {"min": 0.30000001192092896, "scale": 1.0, "dtype": "uint16"}}, {"name": "batch_normalization_1/batchnorm/mul", "shape": [3], "dtype": "float32", "quantization": {"min": 1.6074053049087524, "scale": 0.00018912099305794133, "dtype": "uint16"}}, {"name": "batch_normalization_1/batchnorm/sub", "shape": [3], "dtype": "float32", "quantization": {"min": -0.19465398788452148, "scale": 1.326990866993952e-06, "dtype": "uint16"}}, {"name": "conv2d_1/convolution/merged_input", "shape": [1, 1, 3, 8], "dtype": "float32", "quantization": {"min": -1.0942152911286847, "scale": 3.245003828970002e-05, "dtype": "uint16"}}, {"name": "batch_normalization_2/batchnorm/sub", "shape": [8], "dtype": "float32", "quantization": {"min": -0.4623159915593084, "scale": 1.2988593346050132e-05, "dtype": "uint16"}}, {"name": "conv2d_2/convolution/merged_input", "shape": [3, 3, 8, 8], "dtype": "float32", "quantization": {"min": -0.3523828146040571, "scale": 1.1732796650597894e-05, "dtype": "uint16"}}, {"name": "batch_normalization_3/batchnorm/sub", "shape": [8], "dtype": "float32", "quantization": {"min": -1.260318351064329, "scale": 2.5548201963559e-05, "dtype": "uint16"}}, {"name": "conv2d_3/kernel", "shape": [1, 1, 8, 32], "dtype": "float32", "quantization": {"min": -0.41532764242908143, "scale": 1.2581492303446773e-05, "dtype": "uint16"}}, {"name": "coordinate_channel2d_7/arange/start", "shape": [], "dtype": "int32"}, {"name": "coordinate_channel2d_7/strided_slice/stack", "shape": [1], "dtype": "int32"}, {"name": "coordinate_channel2d_7/ExpandDims/dim", "shape": [], "dtype": "int32"}, {"name": "coordinate_channel2d_7/transpose/perm", "shape": [4], "dtype": "int32"}, {"name": "conv2d_4/kernel", "shape": [1, 1, 3, 32], "dtype": "float32", "quantization": {"min": -0.41296091129098234, "scale": 1.3082044897867467e-05, "dtype": "uint16"}}, {"name": "batch_normalization_4/batchnorm/mul", "shape": [32], "dtype": "float32", "quantization": {"min": 1.3623281717300415, "scale": 3.853317000841016e-05, "dtype": "uint16"}}, {"name": "batch_normalization_4/batchnorm/sub", "shape": [32], "dtype": "float32", "quantization": {"min": -0.48228284280724154, "scale": 2.275992651284764e-05, "dtype": "uint16"}}, {"name": "conv2d_5/convolution/merged_input", "shape": [1, 1, 32, 8], "dtype": "float32", "quantization": {"min": -1.0453091223852726, "scale": 2.681242298223138e-05, "dtype": "uint16"}}, {"name": "batch_normalization_5/batchnorm/sub", "shape": [8], "dtype": "float32", "quantization": {"min": -0.4383354877565203, "scale": 1.3797585311357623e-05, "dtype": "uint16"}}, {"name": "conv2d_6/convolution/merged_input", "shape": [3, 3, 8, 8], "dtype": "float32", "quantization": {"min": -0.3056158199238997, "scale": 8.950791352035488e-06, "dtype": "uint16"}}, {"name": "batch_normalization_6/batchnorm/sub", "shape": [8], "dtype": "float32", "quantization": {"min": -0.5004701955072702, "scale": 1.3606388872472138e-05, "dtype": "uint16"}}, {"name": "conv2d_7/kernel", "shape": [1, 1, 8, 32], "dtype": "float32", "quantization": {"min": -0.38905027733293324, "scale": 1.1971146107047394e-05, "dtype": "uint16"}}, {"name": "conv2d_11/kernel", "shape": [1, 1, 32, 64], "dtype": "float32", "quantization": {"min": -0.3074901020498691, "scale": 8.921548832178643e-06, "dtype": "uint16"}}, {"name": "batch_normalization_10/batchnorm/mul", "shape": [64], "dtype": "float32", "quantization": {"min": 1.1686691045761108, "scale": 4.255329979596553e-05, "dtype": "uint16"}}, {"name": "batch_normalization_10/batchnorm/sub", "shape": [64], "dtype": "float32", "quantization": {"min": -1.170771423473578, "scale": 5.1928121328553976e-05, "dtype": "uint16"}}, {"name": "conv2d_12/convolution/merged_input", "shape": [1, 1, 64, 16], "dtype": "float32", "quantization": {"min": -0.3666382780503088, "scale": 1.1579391657464826e-05, "dtype": "uint16"}}, {"name": "batch_normalization_11/batchnorm/sub", "shape": [16], "dtype": "float32", "quantization": {"min": -0.34841670266839964, "scale": 1.090779233198922e-05, "dtype": "uint16"}}, {"name": "conv2d_13/convolution/merged_input", "shape": [3, 3, 16, 16], "dtype": "float32", "quantization": {"min": -0.20347821391664747, "scale": 6.033095558948245e-06, "dtype": "uint16"}}, {"name": "batch_normalization_12/batchnorm/sub", "shape": [16], "dtype": "float32", "quantization": {"min": -0.5452084820248893, "scale": 1.382094103693189e-05, "dtype": "uint16"}}, {"name": "conv2d_14/kernel", "shape": [1, 1, 16, 64], "dtype": "float32", "quantization": {"min": -0.2988711519423053, "scale": 9.383415024404424e-06, "dtype": "uint16"}}, {"name": "batch_normalization_13/batchnorm/mul", "shape": [64], "dtype": "float32", "quantization": {"min": 0.9630791544914246, "scale": 3.462993663008721e-05, "dtype": "uint16"}}, {"name": "batch_normalization_13/batchnorm/sub", "shape": [64], "dtype": "float32", "quantization": {"min": -1.3014084406954805, "scale": 3.593561896163138e-05, "dtype": "uint16"}}, {"name": "conv2d_15/convolution/merged_input", "shape": [1, 1, 64, 16], "dtype": "float32", "quantization": {"min": -0.3879096222349478, "scale": 1.1526062167135576e-05, "dtype": "uint16"}}, {"name": "batch_normalization_14/batchnorm/sub", "shape": [16], "dtype": "float32", "quantization": {"min": -0.36399322113256266, "scale": 1.787434792440398e-05, "dtype": "uint16"}}, {"name": "conv2d_16/convolution/merged_input", "shape": [3, 3, 16, 16], "dtype": "float32", "quantization": {"min": -0.21527127451251643, "scale": 6.033387738579497e-06, "dtype": "uint16"}}, {"name": "batch_normalization_15/batchnorm/sub", "shape": [16], "dtype": "float32", "quantization": {"min": -0.7972263366759319, "scale": 1.9795062240550526e-05, "dtype": "uint16"}}, {"name": "conv2d_17/kernel", "shape": [1, 1, 16, 64], "dtype": "float32", "quantization": {"min": -0.3275616955773512, "scale": 9.602817143365812e-06, "dtype": "uint16"}}, {"name": "coordinate_channel2d_7/mul/y", "shape": [], "dtype": "float32", "quantization": {"min": 2.0, "scale": 1.0, "dtype": "uint16"}}, {"name": "conv2d_110/kernel", "shape": [1, 1, 130, 64], "dtype": "float32", "quantization": {"min": -0.3462665816452808, "scale": 1.0740278587012431e-05, "dtype": "uint16"}}, {"name": "conv2d_111/convolution/merged_input", "shape": [3, 3, 64, 64], "dtype": "float32", "quantization": {"min": -0.19174182524149574, "scale": 5.020733837169305e-06, "dtype": "uint16"}}, {"name": "batch_normalization_98/batchnorm/mul_1", "shape": [64], "dtype": "float32", "quantization": {"min": -1.750455287896751, "scale": 5.72062906597193e-05, "dtype": "uint16"}}, {"name": "dense_18/kernel", "shape": [128, 64], "dtype": "float32", "quantization": {"min": -0.3498776421772858, "scale": 1.0303549847668692e-05, "dtype": "uint16"}}, {"name": "dense_18/bias", "shape": [64], "dtype": "float32", "quantization": {"min": -0.2848649862802683, "scale": 8.218839765731918e-06, "dtype": "uint16"}}, {"name": "batch_normalization_99/batchnorm/mul", "shape": [64], "dtype": "float32", "quantization": {"min": 0.21181368827819824, "scale": 2.2592662427976e-05, "dtype": "uint16"}}, {"name": "batch_normalization_99/batchnorm/sub", "shape": [64], "dtype": "float32", "quantization": {"min": -1.6963374557089113, "scale": 5.02961264182676e-05, "dtype": "uint16"}}, {"name": "conv2d_112/convolution/merged_input", "shape": [1, 1, 64, 16], "dtype": "float32", "quantization": {"min": -0.5474999216848537, "scale": 1.453295255713253e-05, "dtype": "uint16"}}, {"name": "batch_normalization_100/batchnorm/sub", "shape": [16], "dtype": "float32", "quantization": {"min": -0.3842343447764478, "scale": 2.259537458256088e-05, "dtype": "uint16"}}, {"name": "conv2d_113/convolution/merged_input", "shape": [3, 3, 16, 16], "dtype": "float32", "quantization": {"min": -0.42279256211817284, "scale": 1.2266946037201093e-05, "dtype": "uint16"}}, {"name": "batch_normalization_101/batchnorm/sub", "shape": [16], "dtype": "float32", "quantization": {"min": -0.8734787257283214, "scale": 2.310362434809219e-05, "dtype": "uint16"}}, {"name": "conv2d_114/kernel", "shape": [1, 1, 16, 64], "dtype": "float32", "quantization": {"min": -0.3908936120211019, "scale": 1.177319474793994e-05, "dtype": "uint16"}}, {"name": "batch_normalization_102/batchnorm/mul", "shape": [64], "dtype": "float32", "quantization": {"min": 0.2174660563468933, "scale": 2.3650188981563575e-05, "dtype": "uint16"}}, {"name": "batch_normalization_102/batchnorm/sub", "shape": [64], "dtype": "float32", "quantization": {"min": -1.7815131929670727, "scale": 5.143530410460425e-05, "dtype": "uint16"}}, {"name": "conv2d_115/convolution/merged_input", "shape": [1, 1, 64, 16], "dtype": "float32", "quantization": {"min": -0.3970379703576226, "scale": 1.3408462070096337e-05, "dtype": "uint16"}}, {"name": "batch_normalization_103/batchnorm/sub", "shape": [16], "dtype": "float32", "quantization": {"min": -0.4199655553719231, "scale": 1.491725767669247e-05, "dtype": "uint16"}}, {"name": "conv2d_116/convolution/merged_input", "shape": [3, 3, 16, 16], "dtype": "float32", "quantization": {"min": -0.4538656789259497, "scale": 1.3886054120420673e-05, "dtype": "uint16"}}, {"name": "batch_normalization_104/batchnorm/sub", "shape": [16], "dtype": "float32", "quantization": {"min": -0.3147105487340501, "scale": 2.137253302098812e-05, "dtype": "uint16"}}, {"name": "conv2d_117/kernel", "shape": [1, 1, 16, 64], "dtype": "float32", "quantization": {"min": -0.3992426998561422, "scale": 1.342308105625331e-05, "dtype": "uint16"}}, {"name": "self_attention_5/gamma", "shape": [1], "dtype": "float32", "quantization": {"min": 0.00738504808396101, "scale": 1.0, "dtype": "uint16"}}, {"name": "sub_pixel_conv2d_10/kernel", "shape": [1, 1, 64, 128], "dtype": "float32", "quantization": {"min": -0.30213029535773367, "scale": 8.871573154737305e-06, "dtype": "uint16"}}, {"name": "global_average_pooling2d_5/Mean/reduction_indices", "shape": [2], "dtype": "int32"}, {"name": "dense_20/kernel", "shape": [32, 16], "dtype": "float32", "quantization": {"min": -0.3832867217344032, "scale": 1.1984451308060885e-05, "dtype": "uint16"}}, {"name": "dense_21/kernel", "shape": [16, 32], "dtype": "float32", "quantization": {"min": -0.46575908327644727, "scale": 1.3331780492227138e-05, "dtype": "uint16"}}, {"name": "coordinate_channel2d_7/strided_slice_1/stack_1", "shape": [1], "dtype": "int32"}, {"name": "coordinate_channel2d_1/strided_slice_2/stack_1", "shape": [1], "dtype": "int32"}, {"name": "coordinate_channel2d_7/strided_slice/stack_1", "shape": [1], "dtype": "int32"}, {"name": "coordinate_channel2d_7/sub_1/y", "shape": [], "dtype": "float32", "quantization": {"min": 1.0, "scale": 1.0, "dtype": "uint16"}}, {"name": "coordinate_channel2d_1/concat/axis", "shape": [], "dtype": "int32"}, {"name": "conv2d_121/kernel", "shape": [1, 1, 66, 32], "dtype": "float32", "quantization": {"min": -0.42388736533338295, "scale": 1.3198224159584735e-05, "dtype": "uint16"}}, {"name": "conv2d_122/convolution/merged_input", "shape": [3, 3, 32, 32], "dtype": "float32", "quantization": {"min": -0.12685994856634247, "scale": 3.896668772771301e-06, "dtype": "uint16"}}, {"name": "batch_normalization_108/batchnorm/mul_1", "shape": [32], "dtype": "float32", "quantization": {"min": -1.4837180600428623, "scale": 5.8189585851551585e-05, "dtype": "uint16"}}, {"name": "dense_1/kernel", "shape": [3, 128], "dtype": "float32", "quantization": {"min": -0.28320695119800166, "scale": 8.34680080159156e-06, "dtype": "uint16"}}, {"name": "dense_1/bias", "shape": [128], "dtype": "float32", "quantization": {"min": -0.10445424880321688, "scale": 3.1634588813476144e-06, "dtype": "uint16"}}, {"name": "dense_22/kernel", "shape": [128, 32], "dtype": "float32", "quantization": {"min": -0.27994940959225806, "scale": 8.358694900043534e-06, "dtype": "uint16"}}, {"name": "dense_22/bias", "shape": [32], "dtype": "float32", "quantization": {"min": -0.21548787553150137, "scale": 4.6411345150011065e-06, "dtype": "uint16"}}, {"name": "multiply_16/ExpandDims/dim", "shape": [], "dtype": "int32"}, {"name": "batch_normalization_109/batchnorm/mul", "shape": [32], "dtype": "float32", "quantization": {"min": 0.15792733430862427, "scale": 1.6067252148568352e-05, "dtype": "uint16"}}, {"name": "batch_normalization_109/batchnorm/sub", "shape": [32], "dtype": "float32", "quantization": {"min": -1.7573099638583176, "scale": 5.196835616910595e-05, "dtype": "uint16"}}, {"name": "conv2d_123/convolution/merged_input", "shape": [1, 1, 32, 8], "dtype": "float32", "quantization": {"min": -0.5559746539973827, "scale": 1.6672903916433236e-05, "dtype": "uint16"}}, {"name": "batch_normalization_110/batchnorm/sub", "shape": [8], "dtype": "float32", "quantization": {"min": -0.6892043626289341, "scale": 1.664222255400319e-05, "dtype": "uint16"}}, {"name": "conv2d_124/convolution/merged_input", "shape": [3, 3, 8, 8], "dtype": "float32", "quantization": {"min": -0.4504807335702671, "scale": 1.282909191690685e-05, "dtype": "uint16"}}, {"name": "batch_normalization_111/batchnorm/sub", "shape": [8], "dtype": "float32", "quantization": {"min": -0.800493459374297, "scale": 2.0436913359398935e-05, "dtype": "uint16"}}, {"name": "conv2d_125/kernel", "shape": [1, 1, 8, 32], "dtype": "float32", "quantization": {"min": -0.49405102990553473, "scale": 1.5328918085806227e-05, "dtype": "uint16"}}, {"name": "batch_normalization_112/batchnorm/mul", "shape": [32], "dtype": "float32", "quantization": {"min": 0.14797893166542053, "scale": 1.0206503008435518e-05, "dtype": "uint16"}}, {"name": "batch_normalization_112/batchnorm/sub", "shape": [32], "dtype": "float32", "quantization": {"min": -1.7506090564331966, "scale": 4.2871358584346295e-05, "dtype": "uint16"}}, {"name": "conv2d_126/convolution/merged_input", "shape": [1, 1, 32, 8], "dtype": "float32", "quantization": {"min": -0.6798631103940838, "scale": 1.8556228789619625e-05, "dtype": "uint16"}}, {"name": "batch_normalization_113/batchnorm/sub", "shape": [8], "dtype": "float32", "quantization": {"min": -0.4013058569353633, "scale": 1.1851915444044988e-05, "dtype": "uint16"}}, {"name": "conv2d_127/convolution/merged_input", "shape": [3, 3, 8, 8], "dtype": "float32", "quantization": {"min": -0.4198329131417883, "scale": 1.3432504019894042e-05, "dtype": "uint16"}}, {"name": "batch_normalization_114/batchnorm/sub", "shape": [8], "dtype": "float32", "quantization": {"min": -0.8310891671485229, "scale": 2.152857649851111e-05, "dtype": "uint16"}}, {"name": "conv2d_128/kernel", "shape": [1, 1, 8, 32], "dtype": "float32", "quantization": {"min": -0.5368184786326027, "scale": 1.5254425240334251e-05, "dtype": "uint16"}}, {"name": "conv2d_132/kernel", "shape": [1, 1, 32, 16], "dtype": "float32", "quantization": {"min": -0.3702216256467012, "scale": 1.1934548391305929e-05, "dtype": "uint16"}}, {"name": "batch_normalization_118/batchnorm/mul", "shape": [16], "dtype": "float32", "quantization": {"min": 0.1803169846534729, "scale": 4.514516368559499e-06, "dtype": "uint16"}}, {"name": "batch_normalization_118/batchnorm/sub", "shape": [16], "dtype": "float32", "quantization": {"min": -1.377828262937672, "scale": 4.400039161198416e-05, "dtype": "uint16"}}, {"name": "conv2d_133/convolution/merged_input", "shape": [1, 1, 16, 4], "dtype": "float32", "quantization": {"min": -0.7800570350758514, "scale": 2.5443003198925323e-05, "dtype": "uint16"}}, {"name": "batch_normalization_119/batchnorm/sub", "shape": [4], "dtype": "float32", "quantization": {"min": -0.42168172762960937, "scale": 1.8514301353600693e-05, "dtype": "uint16"}}, {"name": "conv2d_134/convolution/merged_input", "shape": [3, 3, 4, 4], "dtype": "float32", "quantization": {"min": -0.49551223353571244, "scale": 1.555182454132548e-05, "dtype": "uint16"}}, {"name": "batch_normalization_120/batchnorm/sub", "shape": [4], "dtype": "float32", "quantization": {"min": -0.1720071724225684, "scale": 6.939130725454591e-06, "dtype": "uint16"}}, {"name": "conv2d_135/kernel", "shape": [1, 1, 4, 16], "dtype": "float32", "quantization": {"min": -0.553420874436187, "scale": 2.0485688485514976e-05, "dtype": "uint16"}}, {"name": "batch_normalization_121/batchnorm/mul", "shape": [16], "dtype": "float32", "quantization": {"min": 0.17292125523090363, "scale": 4.819659452976056e-06, "dtype": "uint16"}}, {"name": "batch_normalization_121/batchnorm/sub", "shape": [16], "dtype": "float32", "quantization": {"min": -1.4612202979465676, "scale": 4.333779096439682e-05, "dtype": "uint16"}}, {"name": "conv2d_136/convolution/merged_input", "shape": [1, 1, 16, 4], "dtype": "float32", "quantization": {"min": -0.4504751058840648, "scale": 1.632747756013283e-05, "dtype": "uint16"}}, {"name": "batch_normalization_122/batchnorm/sub", "shape": [4], "dtype": "float32", "quantization": {"min": -0.47350814798026153, "scale": 1.7860818074771284e-05, "dtype": "uint16"}}, {"name": "conv2d_137/convolution/merged_input", "shape": [3, 3, 4, 4], "dtype": "float32", "quantization": {"min": -0.3543573445383213, "scale": 9.921529413661141e-06, "dtype": "uint16"}}, {"name": "batch_normalization_123/batchnorm/sub", "shape": [4], "dtype": "float32", "quantization": {"min": -0.46759194135665894, "scale": 7.0500250815085544e-06, "dtype": "uint16"}}, {"name": "conv2d_138/kernel", "shape": [1, 1, 4, 16], "dtype": "float32", "quantization": {"min": -0.5680524116778635, "scale": 1.6181985291643785e-05, "dtype": "uint16"}}, {"name": "conv2d_139/kernel", "shape": [1, 1, 16, 1], "dtype": "float32", "quantization": {"min": -0.5311625963591816, "scale": 1.2852988345331791e-05, "dtype": "uint16"}}, {"name": "conv2d_139/bias", "shape": [1], "dtype": "float32", "quantization": {"min": 0.003527377499267459, "scale": 1.0, "dtype": "uint16"}}]}]}